daten/model.pt (torch, 392023 bytes, 6 tensors)

l1.weight f4 [256, 120]
0	0xbc692420	-0.014229804
1	0xbd9b7712	-0.0759107
2	0x3d93be6c	0.072140545
3	0x3c0924ed	0.00837062
4	0xbd30df09	-0.043181453
5	0x3e8238a4	0.25433838
6	0xbc55f43d	-0.013058719
7	0xbdd48c36	-0.103783056
8	0xbda572ec	-0.0807856
9	0xbdb1df3c	-0.08685157
10	0x3d68e71e	0.056861036
11	0x3c85a8d8	0.016315863
12	0xbdee7f1c	-0.11645338
13	0x3dfe6509	0.12421615
14	0x3d00602c	0.031341717
15	0xbdb9e158	-0.09076184
16	0xbe347e23	-0.17626242
17	0xbd92044c	-0.07129726
18	0x3e39f29b	0.18158953
19	0xbdbf5e1b	-0.09344121
20	0xbdfe46c0	-0.12415838
21	0xbd83aa86	-0.06429009
22	0x3d1ed1ed	0.03877442
23	0xbcb6fc7d	-0.022337193
24	0xbbd098a6	-0.0063658534
25	0xbe1c48b7	-0.15262114
26	0xbe1946d2	-0.14968422
27	0xbd7d0ba6	-0.061778687
28	0xbe04a345	-0.12952907
29	0xbd808da4	-0.06277016
30	0x3d974970	0.07387054
31	0xbe24c683	-0.16091351
32	0xbd43a57b	-0.047765236
33	0x3e36ea91	0.17862917
34	0x3d005e56	0.031339966
35	0xbceddddd	-0.029036457
36	0xbc60134e	-0.013676478
37	0xbd8ca81a	-0.06868
38	0x3d2af32b	0.04173581
39	0x3d02f80c	0.031974837
40	0x3d920786	0.07130341
41	0x3d158c24	0.0365106
42	0x3d1b95e1	0.037984733
43	0x3d3d3a38	0.0461981
44	0xbd8c1f2c	-0.06841883
45	0xbd67d1f4	-0.05659671
46	0xbdf36b24	-0.1188567
47	0x3d37fc03	0.04491807
48	0xbd678bf0	-0.05652994
49	0xbd92160e	-0.07133113
50	0x3db9ff30	0.09081876
51	0x3a6aac0d	0.0008952029
52	0x3dbc8adb	0.09206172
53	0x3d744de6	0.059644602
54	0x3e2ffaa7	0.1718546
55	0x3ceec8e3	0.029148525
56	0x3d42ae82	0.047529705
57	0xbd63afdc	-0.055587634
58	0x3dbadf9a	0.0912468
59	0xbd55699e	-0.052102678
60	0xbc7784e1	-0.015107364
61	0xbc9870e4	-0.018608518
62	0x3d9ef535	0.07761613
63	0x3d730813	0.059333872
64	0xbd962cd3	-0.07332768
65	0xbdcbe0bf	-0.09954976
66	0xbdf8716f	-0.12131011
67	0x3d0dd435	0.034626205
68	0x3cde5326	0.027139258
69	0xbb1cfc51	-0.0023954103
70	0xbc23e051	-0.010002212
71	0x3d29eaf0	0.04148382
72	0x3e198dab	0.14995448
73	0x3d956b64	0.07295874
74	0x3d823175	0.063570894
75	0xbddcdf2a	-0.10784753
76	0x3d3674d0	0.044544995
77	0x3dbb9046	0.09158377
78	0xb8e13468	-0.000107385975
79	0x3d75e476	0.06003233
80	0x3e20c7be	0.15701196
81	0x3e0b163d	0.13582702
82	0xbc8e904d	-0.017402792
83	0x3c7cbb42	0.015425505
84	0x3d09788e	0.033562236
85	0xbd00feb6	-0.03149291
86	0x3ccb5b77	0.024823887
87	0x3e0da23c	0.13831419
88	0xbd054c9a	-0.032543756
89	0xbc5f995f	-0.013647406
90	0x3c807f9e	0.015685853
91	0xbe0d5f96	-0.13805994
92	0xbcee75f9	-0.029108988
93	0x3cbffb8f	0.023435382
94	0x3de80f22	0.11331011
95	0x3db40f0a	0.08791931
96	0x3bc2988d	0.0059385956
97	0x3bb771a6	0.0055982647
98	0x3d8ab7bc	0.06773326
99	0x3e72e014	0.23718292
100	0x3e85206e	0.26001304
101	0x3e406296	0.18787608
102	0x3dbf78b9	0.09349198
103	0x3df6ebc5	0.12056688
104	0xbc370567	-0.011170722
105	0x3e1df324	0.15424782
106	0x3d873929	0.06602699
107	0x3d8b93d4	0.06815305
108	0x3d5b51b7	0.053544726
109	0x3d3719a9	0.044702206
110	0x3dec8ca6	0.11550264
111	0x3d9ba52a	0.07599862
112	0x3da1665a	0.0788085
113	0xbb2b5f6c	-0.0026149405
114	0x3d7602e9	0.06006137
115	0x3cd902dc	0.026490621
116	0x3d8d22af	0.06891381
117	0x3d276e5e	0.04087674
118	0x3e0f1a94	0.13974983
119	0x3c11ca01	0.008898259
120	0xbceb8144	-0.028748162
121	0xbd1a538e	-0.03767734
122	0xbe0f8c8a	-0.14018455
123	0x3c8e57cb	0.017375847
124	0xbe16e3a1	-0.14735271
125	0xbe1d8779	-0.1538371
126	0xbcc35897	-0.023845954
127	0xbd4f95a7	-0.05067983
128	0xbdc46759	-0.095900245
129	0x3c8c7f8b	0.017150661
130	0xbb9317bb	-0.004488913
131	0xbd22e269	-0.039766703
132	0xbd9017de	-0.07035802
133	0xbd8e44ae	-0.06946693
134	0xbda43c5c	-0.08019325
135	0xbdaab566	-0.0833538
136	0x3b48d238	0.0030642878
137	0x3d6e6ea8	0.058211
138	0x3d175411	0.036945406
139	0xbc860bfc	-0.016363136
140	0xbd9ff6b6	-0.07810728
141	0xbb14a360	-0.0022680387
142	0x3d8ead78	0.0696668
143	0x3c96884c	0.018375538
144	0xbd33ddaa	-0.043912567
145	0xbd8193a0	-0.06326985
146	0xbd677801	-0.05651093
147	0x3da084e4	0.07837847
148	0xbd01f084	-0.031723514
149	0xbd3cc7c9	-0.046088967
150	0xbdac4889	-0.084122725
151	0x3d0d6d98	0.034528345
152	0x3cacb93c	0.02108442
153	0x3da8db1a	0.08244915
154	0xbc60a948	-0.013712235
155	0xbd0fe757	-0.035132732
156	0xbd5db964	-0.05413188
157	0xbbf2c080	-0.0074082017
158	0x3d0a0f3c	0.033705935
159	0x3da9153c	0.08256003
160	0x3d72f43c	0.05931495
161	0xbb9c35c0	-0.0047671497
162	0xbd432b55	-0.047648747
163	0xbda1f527	-0.07908087
164	0xbd57d683	-0.05269481
165	0x3cc43715	0.023952046
166	0xbd67cdf5	-0.0565929
167	0x3cdbb4bc	0.02681958
168	0x3d076096	0.033051096
169	0x3d88e1a4	0.066836625
170	0xbda58214	-0.08081451
171	0xbd79d3ab	-0.060992878
172	0xbc933f18	-0.017974421
173	0xbd5feca4	-0.054669037
174	0xbc6d0ff8	-0.014469139
175	0x3ac716c0	0.0015189275
176	0xbd8b1dd4	-0.06792799
177	0xbcd3135c	-0.025766067
178	0x3c55def0	0.013053641
179	0xbdb42260	-0.08795619
180	0x3d7cae10	0.061689436
181	0xbd4220c0	-0.047394514
182	0xbd5d3e2d	-0.054014374
183	0xbc190200	-0.009338856
184	0x3d9ff780	0.07810879
185	0xbcfcc0d0	-0.030853659
186	0x3d44d7bc	0.048057303
187	0x3c603c08	0.013686188
188	0xbc695fd8	-0.014244042
189	0xbd1f438b	-0.038882773
190	0x3d357f00	0.04431057
191	0xbcd37914	-0.02581457
192	0x3da56472	0.08075799
193	0xbd9d2f54	-0.07675043
194	0x3d9b704a	0.07589777
195	0xbdbab703	-0.09116938
196	0xbd90e3ca	-0.07074697
197	0x3dab347e	0.083596215
198	0x3da5d854	0.08097902
199	0x3d6963c0	0.056979895
200	0xbda61c05	-0.08110813
201	0xbca2eda4	-0.019888707
202	0x3ca8800c	0.02056887
203	0xbcdbf618	-0.026850745
204	0x3d8b06aa	0.067883804
205	0x3d6031a4	0.05473484
206	0xbd1de087	-0.038544204
207	0xbd821399	-0.06351394
208	0xbdb8b185	-0.09018234
209	0xbc90dd60	-0.017683685
210	0xbd1cd8a6	-0.03829255
211	0x3bc2ac40	0.005940944
212	0x3d8b4fca	0.06802328
213	0x3d549670	0.05190128
214	0x3d97dbb4	0.07414952
215	0xbd256e37	-0.040388312
216	0xbcd8a59c	-0.026446156
217	0x3d9e7b7c	0.077383965
218	0x3c9208e0	0.017826498
219	0xbd2aa37d	-0.04165982
220	0xbd2fd0b1	-0.042923633
221	0xbdf08e85	-0.117459334
222	0x3bd21772	0.0064114863
223	0xbdf0aa05	-0.11751179
224	0x3d6b4ba8	0.0574452
225	0x3c9ad6be	0.018901225
226	0xbc946ed8	-0.01811926
227	0xbda2ee98	-0.079556644
228	0xbda9491d	-0.082658984
229	0x3d7af33c	0.061267123
230	0xbcc6f8fc	-0.024288647
231	0x3db91a12	0.09038176
232	0x3cba5f78	0.022750601
233	0xbd9c2343	-0.07623913
234	0xbc0f5f28	-0.008750714
235	0xbdb8e844	-0.09028676
236	0xbc889b28	-0.016675547
237	0x3bc774d0	0.006086923
238	0xbd57ac94	-0.052654818
239	0x3d437338	0.047717303
240	0xbd2289a9	-0.039682064
241	0xbbe18a1a	-0.006882918
242	0xbd329dbb	-0.043607455
243	0xbe01417d	-0.12622638
244	0x3d407533	0.04698677
245	0xbddf5762	-0.10905339
246	0xbe03c2f0	-0.12867332
247	0xbda3d2a2	-0.079991594
248	0xbe25794d	-0.16159554
249	0xbdbbfbb8	-0.09178871
250	0xbdf856e6	-0.121259496
251	0xba022468	-0.00049645314
252	0x3cb0fb13	0.021604097
253	0xbddf1a3f	-0.10893678
254	0xbd6eeac8	-0.058329374
255	0xbe10c5c6	-0.14137945

l1.bias f4 [256]
0	0x3e4f9722	0.20272496
1	0xbdbbcf96	-0.09170453
2	0xbd0f865c	-0.035040244
3	0x3e291dc9	0.16515268
4	0x3d8aaedb	0.06771632
5	0x3d9e10c8	0.077180445
6	0xbc890346	-0.016725194
7	0xbd884ac5	-0.06654886
8	0xbdce8494	-0.10083881
9	0xbdbbe1be	-0.09173916
10	0xbc889513	-0.016672647
11	0xbdd706eb	-0.104993664
12	0xbd09b03f	-0.033615347
13	0xbd8ffa86	-0.070302054
14	0x3d161fb2	0.03665132
15	0x3d65d8fb	0.05611513
16	0xbdb0962a	-0.086223915
17	0xbd158fca	-0.03651408
18	0x3dc254cb	0.09488829
19	0x3d761721	0.06008065
20	0x3d082e5b	0.033247333
21	0x3d89dec4	0.06731942
22	0x3ca1784b	0.01971068
23	0x3ce6ce6f	0.028174607
24	0x3d490cb3	0.049084377
25	0xbd92c69b	-0.07166787
26	0xbd0acc92	-0.0338865
27	0x3d2c3684	0.042044178
28	0xbd8a0b10	-0.06740391
29	0xbdf51cba	-0.1196837
30	0x3cc5d991	0.024151595
31	0x3c1598ef	0.0091307005
32	0xbd50d783	-0.050986778
33	0xbd21d59f	-0.039510366
34	0x3d92d027	0.07168608
35	0x3c9805b5	0.018557409
36	0x3d6c1df8	0.057645768
37	0xbd553795	-0.05205496
38	0xbd93698e	-0.07197867
39	0xbe00fa5e	-0.12595508
40	0x3e0d02b1	0.13770558
41	0xbdcf41e9	-0.10119993
42	0xbda1fc4b	-0.07909449
43	0xbe02266e	-0.12709972
44	0xbe0c29ef	-0.13687871
45	0x3d4314e6	0.047627352
46	0xbd81f575	-0.06345645
47	0xbc8c49bb	-0.017125001
48	0x3cb706fa	0.022342194
49	0x3a093764	0.0005234389
50	0xbb8ea103	-0.00435269
51	0x3d5d1000	0.053970337
52	0xbd942156	-0.07232921
53	0xbd4dcac0	-0.050242186
54	0x3cb0351d	0.021509701
55	0x3ddea82f	0.10871922
56	0xbe06dfd4	-0.13171321
57	0xbd5899bd	-0.05288099
58	0xbdfdf4b9	-0.12400193
59	0x3c570fd0	0.013126329
60	0xbd18a97a	-0.037271
61	0xbcc61dd1	-0.02418414
62	0xbceb9626	-0.02875812
63	0xbdb08af2	-0.08620252
64	0xbe05cc86	-0.13066301
65	0xbdfa15f7	-0.12211221
66	0x3db9705b	0.09054633
67	0x3d5492c4	0.05189778
68	0xbd971aa4	-0.07378128
69	0x3ac196d1	0.0014769678
70	0x3ca387d5	0.01996223
71	0xbd871ec0	-0.06597662
72	0x3df80e0f	0.121120565
73	0xbc5b04f5	-0.013367881
74	0xbe1292b4	-0.14313775
75	0xbd90317b	-0.07040688
76	0x3e1a1fe2	0.15051225
77	0xb9e92c78	-0.00044474355
78	0x3dd3b17f	0.10336589
79	0x3cc2e228	0.02378948
80	0xbd8b164a	-0.06791361
81	0xbd6ad70b	-0.057333987
82	0x3dc7f3e1	0.09763313
83	0xbcd150f1	-0.025551291
84	0x3d2eb27e	0.042650692
85	0xbd5a06b7	-0.05322906
86	0x3e007005	0.12542732
87	0xbdb0d10e	-0.08633624
88	0xbc7fa30e	-0.01560284
89	0xbcdc86a6	-0.026919674
90	0x3d01d860	0.031700492
91	0xbd5f0170	-0.05444473
92	0x3e131ed4	0.14367229
93	0xbd84f41a	-0.06491871
94	0xbdbd0a3f	-0.0923047
95	0xbcebade4	-0.028769441
96	0xbd441d57	-0.047879543
97	0xbe14cee6	-0.1453205
98	0x3d6d4a6c	0.057932302
99	0x3d135c6f	0.035976823
100	0xbd2dc8d7	-0.042427864
101	0xbd09b496	-0.033619486
102	0xbd73eba2	-0.05955089
103	0xbd712b6b	-0.058879297
104	0xbe16f05c	-0.14740127
105	0xbd428c63	-0.047497164
106	0x3c01c24f	0.007919862
107	0xbca2cbb5	-0.019872526
108	0x3d18a63b	0.037267905
109	0xbc087333	-0.008328247
110	0xbd643aa1	-0.055719975
111	0xbe06d171	-0.13165833
112	0xbd9911ca	-0.07474096
113	0xbdf9ec34	-0.12203255
114	0xbaaf1e89	-0.0013360541
115	0xbd8e7745	-0.069563426
116	0x3cd829fa	0.026387203
117	0xbe05f6a6	-0.1308237
118	0xbe15844e	-0.14601251
119	0xbdaa3406	-0.08310704
120	0x3c965b8f	0.018354205
121	0x3e1d27f9	0.1534728
122	0x3d6375ae	0.05553215
123	0x3da9b6c4	0.08286813
124	0xbc9a97ec	-0.01887127
125	0xbc8a47d0	-0.016879946
126	0x3df4aded	0.11947236
127	0xbd29dfca	-0.041473188
128	0xbe009af4	-0.1255911
129	0xbdb0eadc	-0.08638546
130	0x3ddcb4a3	0.10776641
131	0x3c83d7aa	0.016094048
132	0xbd696736	-0.056983195
133	0xbd02b52f	-0.03191107
134	0xbd6209d2	-0.055185147
135	0x3d6fc80d	0.058540393
136	0x3da9a09c	0.08282587
137	0xbd1a4814	-0.037666395
138	0xbe2f1bf2	-0.17100504
139	0xbe12837b	-0.14307968
140	0x3dc04748	0.09388596
141	0x3d37af31	0.04484481
142	0x3cb96634	0.022631742
143	0xbcfe6775	-0.031055192
144	0x3db51422	0.08841731
145	0x3d0348e0	0.03205192
146	0xbe040180	-0.12891197
147	0xbdb43944	-0.08799985
148	0xbcb425e0	-0.021990716
149	0xbd9cf0d6	-0.07663123
150	0xbdcab548	-0.09897858
151	0x3e1be2ef	0.15223287
152	0x3ced1639	0.02894126
153	0xbd317085	-0.043320198
154	0xbd9ada37	-0.075611524
155	0x3c72e3ed	0.01482485
156	0xbc906b7a	-0.017629374
157	0xbd6c6266	-0.057711028
158	0x3d76466e	0.06012576
159	0xbbd0e9e0	-0.0063755363
160	0x3de431de	0.11142324
161	0xbd27667d	-0.040869225
162	0xbd9632fe	-0.07333945
163	0x3c8a7f01	0.016906263
164	0x3d0950e0	0.033524394
165	0xbdefcfcb	-0.11709555
166	0xbd4b2798	-0.049598306
167	0x3d02fcfe	0.031979553
168	0xbd65ec5a	-0.056133606
169	0xbda3786b	-0.07981952
170	0xbdc2659b	-0.09492036
171	0xbcb1966c	-0.021678172
172	0x3cceca4c	0.025242947
173	0xbe22a9c8	-0.15885079
174	0xbd2770e8	-0.04087916
175	0x3cb19245	0.021676192
176	0x3da3e1fb	0.08002087
177	0xbc02a891	-0.00797476
178	0x3d1831ae	0.037156753
179	0x3a8dd9e7	0.0010822386
180	0xbdbee8e7	-0.09321766
181	0xbdb6569b	-0.089032374
182	0xbe0a2cca	-0.13493648
183	0x3da7e2aa	0.081975296
184	0xbbb062b9	-0.0053828624
185	0xbdc172c3	-0.09445717
186	0xbdcf3d0d	-0.101190664
187	0xbd828d89	-0.06374652
188	0xbd7dd4cc	-0.061970517
189	0x3cd47c4a	0.025938172
190	0x3db468be	0.088090405
191	0xbcca8793	-0.02472285
192	0xbe0aaa93	-0.13541631
193	0xbe0143dc	-0.12623543
194	0xbc4815c5	-0.0122122215
195	0xbd251a4b	-0.040308278
196	0xbc96c0c2	-0.018402461
197	0xbe10eabe	-0.14152047
198	0xbce6f906	-0.028194916
199	0xbd6dabe5	-0.05802526
200	0x3cbe2d96	0.023215096
201	0xbe344ef0	-0.17608237
202	0xbd7fcf8a	-0.062453784
203	0xbcc02561	-0.023455324
204	0xbd8b0413	-0.067878865
205	0xbddbdd35	-0.10735551
206	0xbe1a7a8b	-0.15085809
207	0xbdac4be1	-0.0841291
208	0xbd5c0195	-0.053712446
209	0xbd3e10d5	-0.04640277
210	0xbc5bf77d	-0.013425705
211	0xbe025e3f	-0.12731265
212	0xbdcd869b	-0.100354396
213	0x3ddc8245	0.107670344
214	0xbdfe7fc3	-0.12426712
215	0xbde832fb	-0.11337849
216	0xbda8e383	-0.082465194
217	0xbe0ed87b	-0.13949768
218	0xbdc1d72a	-0.094648674
219	0xbd7e6dc4	-0.0621164
220	0x3e151eea	0.14562574
221	0x3c107082	0.008815886
222	0x3d0de85e	0.03464543
223	0x3e0cbbd9	0.13743533
224	0xbc33e6ac	-0.010980289
225	0x3d3891dc	0.045060977
226	0x3d6feb5f	0.058574077
227	0xbd576482	-0.052586086
228	0xbd1c6e80	-0.03819132
229	0xbdc1f346	-0.09470229
230	0xbc8ba475	-0.017046193
231	0x3e0c5809	0.13705458
232	0xbc82927d	-0.015938992
233	0xbdef732b	-0.116918884
234	0xbdd9a4a4	-0.10627106
235	0x3d09ce2e	0.033643894
236	0xbd790141	-0.06079221
237	0x3e27087e	0.16311833
238	0x3c887a83	0.01665998
239	0xbda1b374	-0.07895556
240	0x3dc9eadd	0.0985925
241	0xbc17ee7b	-0.009273167
242	0xbe03bc01	-0.12864687
243	0xbda0c474	-0.078499705
244	0x3da76acb	0.08174666
245	0xbda7cf80	-0.08193874
246	0x3d9324cc	0.07184753
247	0xbd07f1d0	-0.033189595
248	0x3bf2bfe2	0.007408128
249	0xbe0ec094	-0.1394065
250	0xbcfd253e	-0.030901548
251	0xbb78c8f2	-0.003796157
252	0xbd042ae5	-0.03226747
253	0x3d89e35a	0.06732817
254	0xbce31a6a	-0.027722556
255	0x3dedb4b4	0.11606732

l2.weight f4 [256, 256]
0	0xbc7ff9d8	-0.015623532
1	0xbde4f05e	-0.11178659
2	0xbd4c6ad3	-0.049906563
3	0xbd8ea7fa	-0.06965633
4	0x3b8b1710	0.0042446926
5	0xbd00cf44	-0.031447664
6	0xbdcc552d	-0.099771835
7	0xbcabd227	-0.020974232
8	0xbd0ec56e	-0.034856252
9	0xbc9ec8d8	-0.01938288
10	0x3d0fa5fa	0.035070397
11	0xbd18413c	-0.037171587
12	0xbde4118c	-0.11136159
13	0x3d7b4aba	0.06135056
14	0xbb03a537	-0.002008749
15	0xbd208859	-0.03919253
16	0xbce42be4	-0.02785296
17	0xbd4b4ad8	-0.049631923
18	0x3d383ec6	0.04498174
19	0xbc974825	-0.018467018
20	0x3d7d3aa6	0.06182351
21	0xbc2648af	-0.010149165
22	0xbd759ed6	-0.05996593
23	0xbc0b3471	-0.00849639
24	0x3c82cdcc	0.015967272
25	0xbcd5aeec	-0.026084386
26	0xbbae771f	-0.005324259
27	0xbdd6fef2	-0.10497846
28	0xbd501a4a	-0.05080632
29	0xbcebe597	-0.028796
30	0xbd457e81	-0.048216347
31	0x3d6c8fe0	0.057754397
32	0xbde1ad80	-0.110194206
33	0x3be1a62d	0.006886265
34	0xbd881897	-0.06645315
35	0xbdbbe49b	-0.091744624
36	0x3921ba00	0.00015423447
37	0xbd2a5630	-0.0415861
38	0x3d3e03a6	0.0463902
39	0xbdc9ca24	-0.098530084
40	0x3c750b90	0.01495637
41	0xbd6a3c34	-0.05718632
42	0xbd04b924	-0.032403126
43	0x3d4d9da6	0.050199173
44	0xbc2c0058	-0.010498129
45	0xbb203480	-0.0024445355
46	0xbd68b4d6	-0.056813084
47	0xbd659404	-0.05604936
48	0x3b79c6e0	0.0038112924
49	0xbd0ac1a4	-0.033876076
50	0xbddfb803	-0.10923769
51	0xbd21b68c	-0.03948073
52	0xbc122fe8	-0.008922555
53	0xbc21bdc6	-0.009871906
54	0xbc52594f	-0.012838676
55	0xbdc7317c	-0.09726235
56	0xbb0afd12	-0.002120797
57	0x3c1803a8	0.0092782155
58	0x3cbf2f28	0.023337916
59	0xbbee21d0	-0.0072672144
60	0xbc837240	-0.01604569
61	0xbd47461e	-0.048650853
62	0xbd476c94	-0.048687533
63	0xbc877064	-0.016533084
64	0xbd277f58	-0.04089293
65	0x3cffe57c	0.031237356
66	0xbd8e05ca	-0.06934698
67	0xbccb017c	-0.024780981
68	0xbdb53387	-0.08847719
69	0xbce37358	-0.027764961
70	0xbd671264	-0.056414023
71	0x390ea1b8	0.0001360242
72	0xbc35aab8	-0.011088066
73	0xbd832d7a	-0.06405158
74	0x3d34253e	0.04398083
75	0x3c96335c	0.018335037
76	0xbd1182ae	-0.035525016
77	0xbd8ac786	-0.06776337
78	0x3d271cfa	0.04079912
79	0xbd9b0df3	-0.0757102
80	0xbc09dca8	-0.008414425
81	0xbd164793	-0.036689352
82	0xbb41fd20	-0.0029600337
83	0x3c5148c8	0.0127737
84	0xbc04fd80	-0.00811708
85	0xbd022a63	-0.031778704
86	0xbd56cebf	-0.052443262
87	0xbbc17b60	-0.0059046
88	0xbd1d3e4c	-0.03838949
89	0xbb714220	-0.0036813095
90	0xbd65bae4	-0.056086436
91	0xbcad3e60	-0.021147907
92	0xbd2d3799	-0.04228935
93	0x3c3502e0	0.011048049
94	0xbccb2998	-0.024800107
95	0xbc7f7b0d	-0.015593302
96	0x3ce9d32c	0.028543077
97	0xbd364660	-0.04450071
98	0xbbdce5bc	-0.0067412537
99	0xbd2c825c	-0.042116508
100	0xbdd7995f	-0.105273
101	0xbcb0bf38	-0.021575555
102	0xbd4fbed6	-0.050719105
103	0xbdd05847	-0.101730876
104	0xbc8b4a54	-0.017003216
105	0x3cf86198	0.030319974
106	0xbc2ad978	-0.010427825
107	0xbb29b0c5	-0.0025892716
108	0xbd88713f	-0.06662225
109	0x3d005528	0.03133121
110	0xbcfb3e33	-0.030669307
111	0xbb8a7a00	-0.0042259693
112	0xbbc5f2dd	-0.0060409144
113	0x3d7fe08c	0.062470004
114	0xbdbdcb39	-0.09267277
115	0x3c8c7f4c	0.017150544
116	0x3b91b35c	0.00444643
117	0xba5a6a91	-0.00083319197
118	0xbcddfa26	-0.02709682
119	0xbde72082	-0.11285497
120	0xbdcc1f60	-0.09966922
121	0xbc585da0	-0.013205916
122	0xbb152fc1	-0.002276406
123	0xbd7b6eb4	-0.06138487
124	0xba3e7ea4	-0.0007266796
125	0xbcd75ad7	-0.026288433
126	0xbcb1100a	-0.021614093
127	0xbd57b524	-0.052662984
128	0x3d003188	0.031297237
129	0xbca82a08	-0.020527855
130	0xbd416405	-0.047214527
131	0x3d42aca6	0.04752793
132	0xbdd84c92	-0.1056148
133	0xbdc8ea20	-0.09810281
134	0xbd696c2a	-0.05698792
135	0xbd3138a4	-0.043266907
136	0x3a93acf6	0.0011266756
137	0xbcc490ed	-0.023994887
138	0xbcad2574	-0.021136023
139	0xbb266dfe	-0.002539515
140	0x3d0d75e0	0.034536242
141	0xbd708676	-0.058721982
142	0xbdab088e	-0.08351241
143	0xbdc37bc4	-0.09545091
144	0xbdd1c90c	-0.10243425
145	0x3d0ad092	0.033890314
146	0x3d345776	0.04402872
147	0xbd3c8691	-0.04602677
148	0xbcec2794	-0.028827466
149	0xbd5c830e	-0.05383592
150	0x3d4f7b36	0.050654612
151	0xbb956d2f	-0.004560135
152	0x3ad35500	0.0016123354
153	0xbd2adae6	-0.041712664
154	0xbd4099da	-0.047021724
155	0xbd181533	-0.037129592
156	0x3ce33774	0.027736403
157	0xbc059aab	-0.0081545515
158	0x3c847948	0.016171113
159	0x3c81f8e4	0.01586575
160	0x3d28d438	0.041218013
161	0x3d76f1de	0.060289256
162	0x3d2723f6	0.04080578
163	0xbd25aaaa	-0.04044596
164	0x3cfb1e1c	0.030654006
165	0xbd7daf2e	-0.061934642
166	0xbcd39183	-0.025826221
167	0x3cd1967c	0.025584452
168	0x3caf9560	0.021433532
169	0xbd610944	-0.054940477
170	0x3d13969e	0.03603231
171	0xbddce0fb	-0.10785099
172	0x3d11cfe0	0.035598636
173	0xbd06a308	-0.032870322
174	0x3d6a5e88	0.05721906
175	0xbdc7efba	-0.09762521
176	0xbd1c50e2	-0.038163073
177	0xbd6ef398	-0.058337778
178	0xbcc45faa	-0.023971397
179	0x3d77ebd4	0.060527638
180	0xbd17aa00	-0.03702736
181	0xbcbb7ce8	-0.022886708
182	0x3d363f3a	0.04449389
183	0x3a5cf229	0.00084284187
184	0x3c601a70	0.013678178
185	0xbd16993f	-0.03676724
186	0xbbc15c6a	-0.005900909
187	0xbd2919f6	-0.041284524
188	0xbd964b55	-0.07338587
189	0x3cca1440	0.02466786
190	0xbcc976c5	-0.024592767
191	0xbd437f3a	-0.047728755
192	0xbc83e395	-0.01609973
193	0xbd7a5131	-0.061112586
194	0x3cc37edc	0.023864202
195	0xbd9a3403	-0.07529452
196	0xbdccdbfe	-0.10002898
197	0x3d7102fe	0.058840744
198	0xbdd42c7c	-0.10360047
199	0x3bfa9b90	0.007647939
200	0xbc180910	-0.009279504
201	0xbd690aef	-0.056895193
202	0xbd8d4799	-0.06898422
203	0xbdd60dd7	-0.104518585
204	0xbc8b0134	-0.016968347
205	0xbd0fe522	-0.035130627
206	0x3c9e0900	0.0192914
207	0xbbf9c990	-0.007622905
208	0xbd90668e	-0.07050811
209	0xbc6487b8	-0.0139483735
210	0x3cb38598	0.021914288
211	0xbccf42e4	-0.02530045
212	0xbccb762f	-0.024836628
213	0x3d08c1e8	0.03338805
214	0xbbab7280	-0.0052321553
215	0x3cdda38c	0.027055524
216	0xbdf064b8	-0.117379606
217	0xbaf26fc0	-0.0018496439
218	0xbddaa71b	-0.10676404
219	0xbdc9c76c	-0.0985249
220	0x3cf0163c	0.029307477
221	0x3c6f79e0	0.01461646
222	0xbcd33dc9	-0.025786297
223	0xbdbd7970	-0.09251678
224	0xbb7cb332	-0.0038558957
225	0xbcd74634	-0.026278593
226	0x3d742d48	0.059613496
227	0xbc583650	-0.013196543
228	0xbdb8c4fe	-0.09021948
229	0xbdcc2198	-0.09967345
230	0xbbe8b440	-0.0071015656
231	0xbdb752a3	-0.089513086
232	0x3b9b5aa8	0.0047410317
233	0x3d4887fe	0.048957817
234	0xbd362d20	-0.04447663
235	0x3b685201	0.0035449269
236	0xbbe8aef0	-0.0071009323
237	0xbd15ddb0	-0.03658837
238	0x3d44fde4	0.04809369
239	0xbcdd9594	-0.027048863
240	0xbdae59e5	-0.0851324
241	0x3d6f0c4e	0.058361344
242	0x3d5e12b6	0.054217063
243	0xbc94ab99	-0.01814823
244	0xbc8cb84c	-0.017177723
245	0x3b8f1a50	0.0043671504
246	0xbd5a5b64	-0.053309813
247	0xbdc1501a	-0.09439106
248	0xbc4e3280	-0.012585282
249	0xbcf5eb50	-0.030019432
250	0x3b23723e	0.002493992
251	0xbd31d5dc	-0.043416843
252	0xbcbd4d48	-0.02310814
253	0x3c6a3ac0	0.014296234
254	0xbdded8aa	-0.10881169
255	0xbd647b1a	-0.05578146

l2.bias f4 [256]
0	0xbde510a1	-0.11184812
1	0xbd8f2259	-0.06988973
2	0xbc90bb01	-0.017667295
3	0x3b25f938	0.0025325548
4	0xbcb23098	-0.021751687
5	0xbc4c28f1	-0.012460933
6	0xbd93b463	-0.072121404
7	0xbd29b90c	-0.04143624
8	0xbd854b57	-0.065085106
9	0xbd26a11a	-0.040680982
10	0xbdeed63d	-0.116619565
11	0xbd224308	-0.039614707
12	0xbc376b90	-0.0111950785
13	0xbd76b8d6	-0.060234867
14	0xbdbe7111	-0.092989095
15	0xbdde0d85	-0.108424224
16	0xbdd5229a	-0.1040699
17	0xbc82944f	-0.01593986
18	0xbde48273	-0.11157694
19	0xbbe0c77a	-0.006859717
20	0x3ae2c35a	0.0017300651
21	0xbd126882	-0.035744198
22	0xbd94132b	-0.072302185
23	0xbcbf8380	-0.023378134
24	0x3bc0bd29	0.0058819246
25	0xbdc56de1	-0.09640098
26	0xbd3014d0	-0.0429886
27	0x3c279d6e	0.010230405
28	0xbd0172d9	-0.031603668
29	0xbd9da368	-0.07697183
30	0xbcac2d6d	-0.021017754
31	0xbdc8e78c	-0.09809789
32	0xbd523418	-0.05131921
33	0xbd5322f1	-0.051546995
34	0xbda2ebc7	-0.07955127
35	0xbd6f89a0	-0.05848086
36	0x3ded1efe	0.11578177
37	0xbd3f1114	-0.046647146
38	0x3b949cda	0.0045352997
39	0xbd26a9d3	-0.0406893
40	0xbd86ffa3	-0.065917276
41	0xbda01805	-0.07817081
42	0xbdc5e3dc	-0.09662601
43	0xbcc7a1f7	-0.024369223
44	0xbce5005e	-0.027954277
45	0xbcb3551d	-0.021891171
46	0xbd838a47	-0.06422859
47	0xbcd3f58f	-0.025873927
48	0xbc9e49d6	-0.019322317
49	0xbc54118a	-0.012943635
50	0xbd0e44f6	-0.034733735
51	0x3d877cc5	0.06615595
52	0x3d0b6a9e	0.034037225
53	0xbd73df5c	-0.059539184
54	0xbb92d90a	-0.0044814395
55	0xbcdf5fe6	-0.027267408
56	0x3e39ae98	0.18133008
57	0xbd2f09e6	-0.04273405
58	0x3dc902b6	0.0981497
59	0xbd39c3b5	-0.045352656
60	0xbd620211	-0.055177752
61	0x3e550f3b	0.20806591
62	0xbd33ec1f	-0.043926354
63	0xbdaade95	-0.083432354
64	0xbd747459	-0.05968127
65	0xbcfa6f88	-0.03057076
66	0xbd5b57e6	-0.053550623
67	0xbd2ddc58	-0.042446464
68	0xbcd2e6d0	-0.025744826
69	0x3d70f3c4	0.058826223
70	0x3d72130d	0.0591002
71	0xbc1e9753	-0.009679633
72	0xbce036aa	-0.027369816
73	0xbd1df702	-0.038565643
74	0x3bdf461a	0.0068137767
75	0xbd44cfa0	-0.04804957
76	0xbdc6ca09	-0.09706504
77	0xbd583a6b	-0.052790087
78	0xbd6aac25	-0.057293076
79	0xbd81fd43	-0.06347134
80	0xbdb3c010	-0.087768674
81	0xbd27e7ee	-0.04099267
82	0x3cb3652f	0.021898834
83	0xbddc3926	-0.10753088
84	0xbd94eafb	-0.072713815
85	0x3dfd167a	0.12357803
86	0xbc1b28b7	-0.009470156
87	0x3e4b935c	0.19880432
88	0x3dbbd28c	0.09171018
89	0xbdc7e196	-0.09759824
90	0xbccadb10	-0.02476266
91	0xbda0f634	-0.078594595
92	0xbd7ac065	-0.061218638
93	0x3cbca9ca	0.02303018
94	0xbc96cbb4	-0.01840768
95	0xbdffbbf1	-0.12487019
96	0xbd03aba9	-0.03214613
97	0xbd2977d3	-0.04137404
98	0x3d878938	0.06617969
99	0x3ce314a9	0.027719812
100	0xbd23e820	-0.040016294
101	0xbd0c31b1	-0.034227077
102	0xbd1dcb80	-0.03852415
103	0x3da23c03	0.079216026
104	0x3c5bb16e	0.013409002
105	0xbd62d898	-0.05538234
106	0xbd534163	-0.05157603
107	0xbb07568a	-0.0020650947
108	0x3d134d12	0.03596217
109	0xbe0fa51c	-0.14027828
110	0xbdc922f1	-0.09821118
111	0xbd928616	-0.07154481
112	0xbdba1bf0	-0.0908736
113	0xbdc37596	-0.09543912
114	0xbd87ad98	-0.06624907
115	0x3b049210	0.0020228662
116	0x3aeeee88	0.0018229047
117	0xbda90bf7	-0.08254235
118	0x3d25a12d	0.040436912
119	0xbd860203	-0.065433525
120	0xbd6b961b	-0.0575162
121	0xbc38f7cb	-0.011289547
122	0xbce90cba	-0.028448451
123	0xbd4cbbc2	-0.049983747
124	0xbdd4dfac	-0.103942245
125	0xbcee590d	-0.029095197
126	0xbd8ae4c5	-0.067819156
127	0xbdf2074a	-0.118177965
128	0xbd3cdfa3	-0.046111714
129	0xbccc5c79	-0.024946438
130	0xbbe0e195	-0.006862829
131	0xbd3db7d5	-0.046317894
132	0xbd02f522	-0.031972058
133	0xbafab3e9	-0.0019127104
134	0xbd94690e	-0.072466
135	0x3d6e02ad	0.05810802
136	0xbd3d6d84	-0.04624702
137	0xbdd4dc7d	-0.10393617
138	0x3ca82e85	0.020529995
139	0xbd1d01ec	-0.03833191
140	0xbd7152f3	-0.058916997
141	0xbca023c5	-0.019548306
142	0xbd936236	-0.071964666
143	0xbd8f4097	-0.069947414
144	0xbd4e2cde	-0.050335757
145	0xbd75a4a3	-0.059971463
146	0xbcbd70ae	-0.023125019
147	0xbd9a30b1	-0.075288184
148	0xbcc88f48	-0.024482384
149	0xbdda865f	-0.106701605
150	0xbdc7fd49	-0.09765107
151	0xbd0b92cb	-0.03407554
152	0x3c93bb21	0.018033566
153	0xbde49c91	-0.11162675
154	0x3d46ac70	0.048504293
155	0xbd1ff56e	-0.03905242
156	0xbd42170f	-0.04738527
157	0xbc92c38f	-0.017915515
158	0xbcb18589	-0.02167012
159	0xbdcc2575	-0.09968082
160	0x3d998dac	0.07497725
161	0xbcec5537	-0.028849227
162	0xbd819081	-0.0632639
163	0xbc81f599	-0.01586418
164	0x3c14182d	0.009038967
165	0xbd9515b0	-0.07279527
166	0xbd417262	-0.047228225
167	0xbdc7fec9	-0.09765393
168	0xbd97d918	-0.07414454
169	0xbddf8e9c	-0.109158725
170	0x3c070426	0.008240735
171	0xbd0a9c2f	-0.033840355
172	0xbccf00ba	-0.025268901
173	0xbd6d6afa	-0.05796335
174	0x3dec3791	0.11534036
175	0xbd95b8ea	-0.0731066
176	0xbdac7f4c	-0.084227175
177	0x3c369c53	0.011145669
178	0xbc52b2c6	-0.012860006
179	0xbdabaaa4	-0.083821565
180	0xbca1b0c6	-0.019737612
181	0xbd628403	-0.055301677
182	0xbcbd0bce	-0.023076918
183	0x3dfbba96	0.12291448
184	0xbcf99c17	-0.030469937
185	0x3d2e11aa	0.042497315
186	0xbd310a19	-0.04322252
187	0x3d06dcc7	0.032925393
188	0x3b33f457	0.002745887
189	0x3e00b9f8	0.12570941
190	0x3d2bd54f	0.041951474
191	0xbd3724a0	-0.044712663
192	0xbd55eaa8	-0.05222574
193	0x3c10e705	0.008844142
194	0xbd6a1f3b	-0.05715869
195	0xbd9a95f6	-0.07548134
196	0x3ce40245	0.027833113
197	0xbd5bb1de	-0.053636424
198	0xbc26152b	-0.010136883
199	0xbd41947c	-0.047260746
200	0xbca8f671	-0.020625325
201	0x3ca6f8b3	0.02038226
202	0x3bc133c3	0.005896063
203	0xbd61270a	-0.05496887
204	0xbda2da2c	-0.07951769
205	0x3d0262bb	0.031832438
206	0xbe01e823	-0.1268621
207	0xbcec3a56	-0.02883641
208	0xbd1f14fc	-0.03883837
209	0xbd50ceab	-0.050978344
210	0x3cbb8518	0.022890612
211	0x3c41a461	0.011818976
212	0xbd995c8a	-0.074883536
213	0xbddb90da	-0.107209876
214	0xbd20742d	-0.039173294
215	0xbc96f701	-0.018428328
216	0xbd5371a4	-0.051622048
217	0xbd04023e	-0.0322287
218	0xbc00ecbd	-0.007868943
219	0x3d6f831c	0.058474645
220	0x3e18a134	0.14905244
221	0xbc23eaac	-0.010004681
222	0xbcb84fe1	-0.022499027
223	0xbcdd5ba1	-0.027021231
224	0xbb8e12ad	-0.0043357224
225	0xbcb3e78a	-0.021960992
226	0xbcd9dfd6	-0.026595991
227	0x3d2aeee8	0.041731745
228	0xbddf8ec8	-0.10915905
229	0xbdc130fb	-0.094331704
230	0xb82e219c	-4.1516134e-05
231	0x3d51953f	0.051167723
232	0xbd35abda	-0.044353344
233	0x3bd027c4	0.0063523967
234	0xbd697cc9	-0.05700377
235	0xbd2479a3	-0.040155064
236	0xbd20725d	-0.039171565
237	0xbd79a89b	-0.06095181
238	0xbc98ed9e	-0.018667992
239	0x3dac6a13	0.084186696
240	0xbc7b4ec2	-0.015338602
241	0xbd8b4724	-0.06800678
242	0x3d66636b	0.056247156
243	0xbd097f02	-0.03356839
244	0xbd9a5aa5	-0.0753682
245	0xbd939614	-0.072063595
246	0x3d0ed8a0	0.03487456
247	0xbcdb9d07	-0.026808275
248	0xbd21e17f	-0.03952169
249	0xbd7916a5	-0.06081261
250	0xbd865ba9	-0.065604515
251	0xbbf573c9	-0.0074906093
252	0xbd47802b	-0.048706215
253	0xbcf45426	-0.029825281
254	0xbd59d9cd	-0.053186227
255	0x3aa643f4	0.0012685047

l3.weight f4 [3, 256]
0	0xbb8c85ac	-0.004288396
1	0x3cf98934	0.030460931
2	0x3cd6122c	0.026131712
3	0xbd4424fc	-0.047886834
4	0x3c0efcef	0.008727296
5	0xbd2d8db2	-0.04237146
6	0x3d220161	0.039552096
7	0xbccafc6a	-0.024778564
8	0x3d0f9122	0.03505052
9	0x3d4207b5	0.04737063
10	0x3bdad9c7	0.006678793
11	0x3c1eab3c	0.00968438
12	0x3c6a80e3	0.014312956
13	0x3abf7d3d	0.0014609467
14	0xbd1a6dce	-0.037702374
15	0xbd3ee830	-0.04660815
16	0x3bd2c6aa	0.006432374
17	0xbd035d93	-0.03207166
18	0x3cda0b54	0.02661673
19	0xbd0ccf6b	-0.034377497
20	0xbaaadb29	-0.0013035286
21	0x3da3f1d1	0.08005107
22	0xbd6e6d9e	-0.058210008
23	0xbd3510e0	-0.044205546
24	0x3b73ca53	0.0037199452
25	0x3bb3802c	0.0054779258
26	0xbd3e9569	-0.046529207
27	0xbc63f711	-0.013913886
28	0x3d2419fc	0.040063843
29	0x3bb25064	0.005441712
30	0xbe061b7f	-0.13096426
31	0xbd438bc0	-0.047740698
32	0xbdaf8d3f	-0.085718624
33	0x3beb95fe	0.0071895113
34	0xbd3c6664	-0.045996085
35	0x3d53f1ed	0.05174439
36	0x3e3ddffa	0.18542472
37	0x3aba79e9	0.0014227006
38	0x3a827860	0.0009954087
39	0x3d3a04d5	0.045414764
40	0x3bb9fc26	0.0056758104
41	0xbdc80130	-0.097658515
42	0xbd4ec2c2	-0.050478704
43	0xbcfe2c64	-0.031027026
44	0xbdc27cd7	-0.094964676
45	0x3caa41f3	0.0207834
46	0xbd22d5e6	-0.03975477
47	0x3c639c7c	0.013892289
48	0xbd1c5c4f	-0.03817397
49	0xbdfd8756	-0.12379329
50	0xbd1101e7	-0.035402205
51	0x3e0b76fd	0.13619609
52	0x3d88c8c5	0.06678919
53	0x3c3501c5	0.011047785
54	0xbd7d432c	-0.06183164
55	0xbddd488e	-0.10804854
56	0xbef0a5a7	-0.47001383
57	0x3aff2f16	0.0019468989
58	0x3e4dddb1	0.201041
59	0x3d4a5742	0.04939962
60	0x3b6f7ad7	0.0036541724
61	0x3e235453	0.15950136
62	0xbd9e5a88	-0.07732111
63	0xbcddfbd0	-0.027097613
64	0xbc581509	-0.013188609
65	0xbd045bf7	-0.032314267
66	0xbce41f28	-0.027846888
67	0x3d0ef1d6	0.0348986
68	0xbd6dc481	-0.05804873
69	0x3da15753	0.07877984
70	0xbd9fe5c5	-0.07807497
71	0x3d7adeff	0.061247822
72	0xbe0d1e54	-0.137811
73	0xbca121e4	-0.01966948
74	0x3c12e6a7	0.008966125
75	0xbb8fa348	-0.0043834783
76	0x3ccddc9a	0.025129605
77	0xbc5a1b02	-0.013312103
78	0xbd1c056a	-0.0380911
79	0xbbc83672	-0.006110006
80	0xbc1f3730	-0.009717748
81	0xbcb53255	-0.022118727
82	0xbd1cf5c8	-0.038320333
83	0x3bc92791	0.00613875
84	0x3b4d4ffd	0.0031328194
85	0x3e514432	0.2043617
86	0xbcb44745	-0.02200664
87	0x3e538c42	0.20658973
88	0x3e119162	0.14215615
89	0xbd197be0	-0.037471652
90	0x3c6a8495	0.014313837
91	0xbd322dad	-0.04350059
92	0x3c04c6ce	0.008104039
93	0xbd12ed09	-0.035870586
94	0xbbcc8b3b	-0.0062421835
95	0xbc9fbdeb	-0.01949974
96	0x3dbd3837	0.09239238
97	0x3cd241ad	0.025666082
98	0x3df3509a	0.11880608
99	0xbd983b05	-0.07433132
100	0xbd017a53	-0.031610798
101	0x3b7a516f	0.003819551
102	0x3caa837d	0.020814652
103	0x3e230645	0.1592036
104	0x3c2881ee	0.010284884
105	0x3b979db0	0.004626952
106	0x3d79a17b	0.060945015
107	0x3d1d0e5f	0.038343783
108	0xbd812fb1	-0.063079245
109	0xbcfc0447	-0.030763758
110	0x3da9a318	0.08283061
111	0x3cfcda80	0.030865908
112	0xbd0bdff6	-0.034149133
113	0xbe08c99a	-0.13358155
114	0xbcd7000e	-0.026245143
115	0x3d1e1ec8	0.038603574
116	0x3d20b17a	0.039231755
117	0x3c7e6693	0.015527385
118	0xbc6d99da	-0.014502013
119	0x3dcad992	0.099047795
120	0xbe516ecb	-0.2045242
121	0xbcd9900b	-0.026557943
122	0x3d25d1d9	0.04048333
123	0xbdb151b0	-0.08658159
124	0x3d4ad129	0.049515877
125	0x3c1b56e7	0.009481168
126	0x3d7b3fb1	0.061340038
127	0xbdbeb66d	-0.09312139
128	0xbc24cec4	-0.010059062
129	0x3d36b61e	0.044607274
130	0xbd3b6ba4	-0.04575695
131	0xbd20932a	-0.039202847
132	0x3c25fd47	0.010131187
133	0xbcb8220b	-0.02247717
134	0xbc72dadb	-0.014822687
135	0xbc73e3b8	-0.014885835
136	0x3d919485	0.07108406
137	0xbd42a32f	-0.047518905
138	0x391c1f73	0.00014889035
139	0x3d072590	0.032994807
140	0xbc600db3	-0.013675141
141	0xbe426a64	-0.18985897
142	0x3cf10833	0.029422855
143	0xbb016231	-0.0019742365
144	0xbcaaaae4	-0.02083344
145	0x3bfad07f	0.007654249
146	0xbb3d623c	-0.0028897664
147	0x3d0829bc	0.033242926
148	0xbc59c0b0	-0.013290569
149	0xbccd1719	-0.025035428
150	0xbde768be	-0.11299275
151	0x3dcd47b2	0.100234404
152	0x3d5767db	0.05258928
153	0x3d240cc6	0.040051244
154	0x3c260267	0.010132409
155	0xbd8b3b91	-0.06798471
156	0xbc67541e	-0.014119176
157	0xbb68bc7a	-0.0035512731
158	0xbcb86b2f	-0.022512047
159	0xbd4c4afa	-0.04987619
160	0x3cdfb31c	0.027307086
161	0xbda2f136	-0.079561636
162	0xbce4db92	-0.02793673
163	0x3d9f9b47	0.07793289
164	0xbd494822	-0.049141057
165	0x3c89712a	0.016777594
166	0xbc200d75	-0.009768833
167	0x3ca998f8	0.020702824
168	0x3d483b76	0.04888483
169	0xbc9800ce	-0.018555071
170	0xba640aa6	-0.00086990965
171	0xbd7a3977	-0.06108996
172	0xbc8efe00	-0.017455101
173	0x3ba09660	0.0049007386
174	0x3e3021a6	0.17200336
175	0x3d83032d	0.0639709
176	0xbcd4e4df	-0.02598804
177	0xbcf569a3	-0.029957598
178	0x3cc79a73	0.02436564
179	0xbdc08394	-0.094000965
180	0xbd91435e	-0.070929274
181	0xba896caa	-0.0010484655
182	0xbc21446a	-0.009842971
183	0x3e238770	0.15969634
184	0xbcc88f8b	-0.02448251
185	0xbdd92b25	-0.10603932
186	0x3c5fc755	0.013658364
187	0xbd2a5146	-0.041581415
188	0x3b62aecb	0.0034589048
189	0x3e5742c4	0.21021563
190	0xbd9763e6	-0.07392101
191	0x3d24b979	0.040215943
192	0xbbbfebab	-0.0058569512
193	0xbd6f2dd3	-0.05839331
194	0xbb22838f	-0.0024797653
195	0xbb8c2f52	-0.004278102
196	0x3e0b15fa	0.13582602
197	0x3d6ba23e	0.057527773
198	0xbd9ff440	-0.07810259
199	0x3d079252	0.033098526
200	0x3d68e52a	0.056859173
201	0xbc432665	-0.011911009
202	0xbd03d6d1	-0.032187287
203	0x3bce7115	0.0063001015
204	0xbcd3078a	-0.02576043
205	0xbdabbc60	-0.08385539
206	0x3d8f68c7	0.070024066
207	0xbd3b5acc	-0.045740888
208	0x3bb3c244	0.0054858048
209	0xbbee0d7f	-0.0072647925
210	0xbbbe1b80	-0.005801618
211	0xbdd1714a	-0.10226686
212	0xbda868c4	-0.082231075
213	0x3d948019	0.07250995
214	0xbb86faf6	-0.0041192723
215	0xbde99865	-0.1140602
216	0x3db0903d	0.08621261
217	0x3da1413d	0.07873771
218	0xbd8d0242	-0.06885196
219	0xbc54811a	-0.012970233
220	0x3e47d108	0.19513333
221	0x3d1335ca	0.03593997
222	0xbdc15a74	-0.09441081
223	0x3d3dafd1	0.04631025
224	0xbd8da094	-0.069153935
225	0xbcc7131d	-0.024301106
226	0xbd4deecf	-0.050276574
227	0xbd77903f	-0.0604403
228	0x3cb7e889	0.022449749
229	0x3baef831	0.0053396453
230	0xbd56b9da	-0.052423336
231	0x3d365d5c	0.04452263
232	0xbd0099f2	-0.031396814
233	0x3bb50199	0.005523872
234	0xbd82a78a	-0.06379612
235	0x3d477d39	0.048703406
236	0x3c0073d2	0.007840114
237	0x3c9931e9	0.018700557
238	0xbbbda106	-0.0057870178
239	0x3d0b5480	0.034016132
240	0xbb99a268	-0.00468855
241	0x3d1d174d	0.0383523
242	0xbbf78894	-0.007554123
243	0xbb39992c	-0.0028320057
244	0x3ca64ea5	0.020301173
245	0x3b95ebbb	0.0045752204
246	0x3bfa6657	0.0076415944
247	0x3d98168d	0.07426176
248	0x3cd52cd6	0.026022356
249	0xbd26ff0b	-0.04077057
250	0x3c1eab1d	0.009684351
251	0xbd4a7836	-0.04943105
252	0xbd0636d1	-0.03276712
253	0x3d18bb40	0.03728795
254	0x3d51be78	0.051207036
255	0xbd83c504	-0.06434062

l3.bias f4 [3]
0	0x3d196644	0.037451044
1	0xbcebd6bb	-0.028788915
2	0xbd987af1	-0.07445324
