gespeicherte_Klassen/models/10.09.2022.19.17.34/0SAVE.pt (torch, 356311 bytes, 6 tensors)

l1.weight f4 [256, 83]
-0.008001283 -0.13768381 0.04542985 0.034890473 -0.06716748 -0.1594009 -0.07759464 0.048734296
-0.13083862 -0.104515836 -0.052634582 -0.10708287 0.0781354 0.102954865 0.0469955 -0.054763243
-0.08731565 -0.012965379 -0.068282455 0.039178714 -0.08163746 -0.0398342 -0.0026669428 -0.027918234
-0.047182646 -0.07774718 -0.0071118367 0.03088124 -0.0045870678 -0.07411133 -0.015561879 0.051554747
-0.085252404 0.055239122 -0.032038197 0.138816 -0.07188852 0.14070368 -0.06878805 -0.09679954
0.17471507 -0.101845875 -0.07300705 0.066258885 -0.024287773 0.09098734 0.049042284 0.1433429
0.07659493 -0.0051490185 0.060528267 -0.01297131 0.09748733 -0.070255786 -0.071046844 -0.067268714
0.056754727 0.093712494 0.13996418 -0.049739067 0.056836132 -0.040391743 -0.11605268 0.019621657
-0.065884724 0.037071545 0.010615274 -0.09923649 -0.05935759 0.0559109 0.06477788 0.004324615
0.017356128 -0.038878806 -0.051603783 -0.06759457 -0.08901167 -0.018955953 0.03526923 -0.02942954
-0.10125381 -0.05710115 0.0746274 -0.004653439 -0.035799727 -0.024147019 0.009088692 -0.011619556
-0.11253759 0.0017257929 0.02098776 -0.0748785 0.094794974 0.053827222 -0.0071455687 0.031742305
-0.104185335 -0.058179077 -0.019378453 -0.0025670968 -0.067790404 -0.043981306 -0.026675716 -0.09295918
0.0912558 -0.10858087 0.08960563 0.028797537 -0.041619617 0.03868926 -0.069261 -0.086012684
0.03733641 -0.049278516 -0.10518657 -0.08971387 -0.075533025 -0.019381396 -0.034224022 -0.04994905
0.0677124 -0.033567496 0.041311592 -0.07699723 0.01589264 -0.07277273 0.1522432 0.048019346
0.124271005 0.018535182 0.13679084 0.064301535 0.038059995 -0.06975339 -0.09325518 -0.097469255
-0.074393004 -0.057800643 -0.105818674 -0.020978384 0.09549999 -0.08684523 -0.042092092 -0.06862351
0.02324766 -0.09923662 -0.026501454 -0.008994341 -0.06662737 0.10393222 -0.09966587 0.06843725
-0.10691977 -0.075602576 -0.0032039508 -0.049716573 -0.10175793 0.05010809 0.028533876 -0.01612918
-0.017881982 -0.033449925 -0.01005695 0.04626377 0.09382725 -0.09771966 -0.008663431 -0.01824781
0.026902882 -0.09497552 -0.011055571 -0.068088256 -0.02765277 -0.033293124 -0.1385093 -0.052144244
-0.030895598 -0.102448925 0.07990326 0.042080864 -0.0745269 0.09553374 -0.040686738 -0.11076347
-0.039702114 -0.108533435 0.04189164 -0.07963336 0.061932247 -0.078594394 -0.074992 0.0054051373
-0.08182329 -0.09843077 0.07282831 -0.11067334 -0.025335802 0.024350101 -0.03951981 -0.08410125
-0.0789568 0.07972225 0.06186059 0.022128869 -0.034269407 -0.053461697 0.11140319 0.024045084
0.116948985 0.009222741 0.10271193 0.049231254 0.046232685 0.044363312 0.08479422 0.083138436
-0.09159221 0.0039352477 -0.031258643 0.045126915 -0.03529974 -0.06018427 0.00015493413 -0.046629224
0.017309107 -0.0027843267 -0.019833691 -0.09009496 -0.082528 -0.097460955 -0.07678802 -0.03608372
-0.06874473 -0.1315345 0.08684559 0.0768211 0.072329015 -0.041625194 -0.061740525 -0.080313444
0.0026265755 -0.05681424 0.0073599815 0.07228233 -0.012328184 -0.035468843 -0.039243586 0.01595538
-0.017897537 -0.07173573 -0.14350685 -0.10423452 -0.03730648 -0.08214036 -0.0748852 -0.0074803233
00000000: d017 03bc fcfc 0cbe a714 3a3d 50e9 0e3d
00000010: 1b8f 89bd fd39 23be f0e9 9ebd 9d9d 473d
00000020: 8ffa 05be 660c d6bd 5c97 57bd 444e dbbd
00000030: 7405 a03d 00da d23d 5a7e 403d 6c4f 60bd
00000040: 8cd2 b2bd be6c 54bc acd7 8bbd dc79 203d
00000050: 8a31 a7bd 3029 23bd e0c7 2ebb c8b4 e4bc
00000060: 9742 41bd ea39 9fbd 690a e9bb a7fa fc3c
00000070: 1d4f 96bb aec7 97bd 40f7 7ebc 122b 533d
00000080: d098 aebd 6b42 623d 7c3a 03bd c825 0e3e
00000090: 4a3a 93bd a014 103e c0e0 8cbd d63e c6bd
000000a0: 82e8 323e 9294 d0bd b884 95bd bdb2 873d
000000b0: 27f7 c6bc 9257 ba3d 90e0 483d 7bc8 123e
000000c0: cddd 9c3d 19b9 a8bb 7dec 773d 9e85 54bc
000000d0: 70a7 c73d 44e2 8fbd 0281 91bd 2ec4 89bd
000000e0: a577 683d 56ec bf3d c552 0f3e 31bb 4bbd
000000f0: 01cd 683d d071 25bd 07ad edbd 99bd a03c
00000100: 92ee 86bd 55d8 173d b0eb 2d3c 803c cbbd
00000110: f220 73bd d402 653d 44aa 843d 80b5 8d3b
00000120: 702e 8e3c 623f 1fbd 7d5e 53bd 066f 8abd
00000130: c04b b6bd 8449 9bbc 7876 103d 3816 f1bc
00000140: 285e cfbd e5e2 69bd 40d6 983d e07b 98bb
00000150: bca2 12bd f8cf c5bc bde8 143c f35f 3ebc
00000160: 1c7a e6bd 0034 e23a 86ee ab3c e659 99bd
00000170: de23 c23d ef79 5c3d 6025 eabb 3804 023d
00000180: 1f5f d5bd 2f4d 6ebd 90bf 9ebc bd3c 28bb
00000190: b2d5 8abd be25 34bd 0887 dabc 6261 bebd
000001a0: 52e4 ba3d a65f debd 2883 b73d d0e8 eb3c
000001b0: 5579 2abd a178 1e3d b6d8 8dbd 6b27 b0bd
000001c0: 10ee 183d 45d8 49bd 0e6c d7bd e8bb b7bd
000001d0: 0fb1 9abd bcc5 9ebc 7d2e 0cbd 6097 4cbd
000001e0: ccac 8a3d 127e 09bd 5836 293d b9b0 9dbd
000001f0: 4831 823c de09 95bd a4e5 1b3e efaf 443d
00000200: cc81 fe3d 18d7 973c e612 0c3e 86b0 833d
00000210: cce4 1b3d deda 8ebd 92fc bebd f69d c7bd
00000220: 5c5b 98bd 5ec0 6cbd 76b7 d8bd dcda abbc
00000230: 8095 c33d e9db b1bd c268 2cbd 7c8a 8cbd
00000240: e071 be3c 923c cbbd 9419 d9bc 005d 13bc
00000250: ee73 88bd 6ada d43d 9f1d ccbd d428 8c3d
00000260: c1f8 dabd 86d5 9abd 60f9 51bb 9ba3 4bbd
00000270: 7666 d0bd 243e 4d3d e0bf e93c 5821 84bc
00000280: 3c7d 92bc ca02 09bd e8c5 24bc 147f 3d3d
00000290: 8028 c03d 3f21 c8bd 10f1 0dbc 6e7c 95bc
000002a0: 6f63 dc3c 8782 c2bd 6d22 35bc db71 8bbd
000002b0: 1088 e2bc 5f5e 08bd 62d5 0dbe 3495 55bd
000002c0: c418 fdbc bed0 d1bd 52a4 a33d fc5c 2c3d
000002d0: 8fa1 98bd 32a7 c33d 23a7 26bd f5d7 e2bd
000002e0: af9e 22bd c746 debd 9196 2b3d d116 a3bd
000002f0: abac 7d3d 19f6 a0bd 6895 99bd 941d b13b
00000300: f892 a7bd 1296 c9bd 0227 953d b4a8 e2bd
00000310: 078d cfbc dd79 c73c 86df 21bd 473d acbd
00000320: 1ab4 a1bd 6b45 a33d 8861 7d3d 9a47 b53c
00000330: 145e 0cbd a7fa 5abd 5b27 e43d 32fa c43c
00000340: f382 ef3d fb1a 173c a25a d23d b6a6 493d
00000350: 7c5e 3d3d 4eb6 353d 98a8 ad3d 7c44 aa3d
00000360: b294 bbbd 40f3 803b 1009 00bd 00d7 383d
00000370: 7696 10bd c883 76bd d075 2239 49fe 3ebd
00000380: d4cb 8d3c 4079 36bb 447a a2bc b583 b8bd
00000390: 7104 a9bd 9c99 c7bd 0a43 9dbd 86cc 13bd
000003a0: 09ca 8cbd fbb0 06be 1adc b13d 6254 9d3d
000003b0: 3c21 943d 2e7f 2abd a2e3 7cbd 607b a4bd
000003c0: a022 2c3b 0cb6 68bd 002c f13b c208 943d
000003d0: 27fc 49bc c747 11bd e2bd 20bd dbb4 823c
000003e0: db9d 92bc 2fea 92bd 76f3 12be e878 d5bd
000003f0: aece 18bd 3439 a8bd 695d 99bd 801d f5bb

l1.bias f4 [256]
-0.039359845 -0.113770396 0.0137274 -0.05295772 -0.039109517 -0.0031753446 -0.057729486 0.053295586
0.011830894 -0.06536288 -0.10572155 -0.056753755 0.099027984 0.06166195 -0.064497754 0.013809945
-0.022657063 -0.13120712 0.0295799 -0.09582997 -0.0064193397 0.058195062 -0.027698874 0.118034914
-0.032337714 0.031874277 -0.2066724 0.012937997 -0.018227724 0.03872096 -0.045528606 0.04283256
-0.060719457 0.010869827 -0.17855982 -0.1337828 0.0561814 0.03573387 -0.17702147 -0.022794697
0.017255913 -0.040647183 -0.018058311 -0.1322249 0.1512655 0.028077912 0.0931777 -0.05201775
-0.038195886 0.01730174 -0.075244576 0.00541347 -0.01624734 0.016598843 -0.08542609 0.0014666875
0.053272422 -0.14051539 0.02963948 -0.15662792 0.071118265 -0.15613547 -0.08181732 0.059304263
-0.090834096 -0.05592448 -0.17080766 -0.13364986 -0.023669261 -0.01904379 -0.15857871 0.049120348
0.007997757 0.08723125 -0.021368235 0.00675331 -0.0022351714 -0.053668804 0.028376326 -0.026097864
-0.09709291 0.055584963 0.029126287 -0.050777156 -0.07505057 -0.075707376 0.051168744 -0.10392486
0.06201584 -0.08798024 0.017961452 -0.04838076 -0.1054053 -0.10663101 0.013112978 0.016526645
0.034234934 -0.1365789 0.009751069 0.07657532 0.062477157 0.015958866 -0.024503756 0.04783492
-0.12874128 0.048129324 -0.021010114 -0.016525876 0.03372 -0.15711837 0.04712158 -0.08726906
0.051659785 -0.08305486 -0.02046293 -0.17710622 -0.040499065 -0.06581075 -0.083191186 -0.13014536
-0.15849455 -0.031846434 -0.035015788 -0.06935658 0.04023352 0.07033511 0.05128629 -0.15550277
-0.0632999 -0.058326516 -0.12095194 0.03433148 -0.021756265 0.05713797 -0.041996304 -0.18854003
-0.07238473 0.09976471 -0.09683323 -0.069758385 -0.062263656 -0.10372264 -0.10073015 -0.07715614
-0.09603161 0.06952071 0.043754213 -0.018583193 -0.096639685 -0.09790775 -0.06215685 0.05784732
-0.028621303 -0.068478405 0.046771146 -0.035523497 0.08074014 -0.06462956 -0.14158395 -0.019274868
-0.14102721 0.028386107 0.12879492 -0.004383844 -0.016255964 0.035348587 -0.092508696 0.01613953
0.012060749 -0.014436279 -0.094932504 -0.12879135 -0.009597441 0.17202805 0.042886447 0.09294172
0.04967954 -0.053354613 -0.0033203335 0.077282205 0.10859996 -0.057459265 0.04037013 -0.12132329
-0.12975502 0.02942934 0.03500197 -0.034995 -0.13467593 0.005677278 0.024103528 -0.055577807
-0.011730665 -0.10161777 -0.0018604961 0.0755761 0.031577457 -0.08957937 -0.045403454 -0.039353058
0.057099767 0.020071404 -0.098651774 0.06953358 0.06926325 -0.0644325 -0.12533267 -0.16279836
0.0042117126 0.045561247 -0.021821955 0.025815666 -0.022155393 -0.07626997 0.009082674 0.035001658
-0.048649307 -0.0559044 -0.13066567 0.049070414 0.0757918 -0.016233087 -0.111746475 -0.086835474
-0.0015123995 0.0072303284 -0.08018937 -0.16166249 0.022737354 -0.006151912 0.048381954 -0.13869962
-0.03523718 0.06708853 -0.026978292 -0.017150367 -0.038666263 0.04073979 -0.088440835 -0.026542755
0.007749604 -0.14674915 -0.083575204 0.019665336 -0.12835272 -0.0872717 -0.052013543 -0.012778959
-0.056661412 -0.12770073 -0.0006476777 0.15428439 -0.1131894 -0.08007772 0.049005367 -0.10537567
00000000: ca37 21bd 7400 e9bd e4e8 603c 32ea 58bd
00000010: 4d31 20bd 7119 50bb c175 6cbd 794c 5a3d
00000020: 5ed6 413c f9dc 85bd 8a84 d8bd a076 68bd
00000030: 2fcf ca3d 3e91 7c3d 6617 84bd 1c43 623c
00000040: 4e9b b9bc 295b 06be 8c51 f23c 8142 c4bd
00000050: 5359 d2bb f25d 6e3d c0e8 e2bc 4abc f13d
00000060: 8d74 04bd 9a8e 023d eea1 53be e4f9 533c
00000070: 4f52 95bc df99 1e3d 347c 3abd 3271 2f3d
00000080: f7b4 78bd 5c17 323c 63d8 36be 5cfe 08be
00000090: 781e 663d ae5d 123d 1e45 35be f2bb babc
000000a0: 465c 8d3c a97d 26bd 06ef 93bc f765 07be
000000b0: 58e5 1a3e a603 e63c f3d3 be3d 9010 55bd
000000c0: 4a73 1cbd 61bc 8d3c d419 9abd 7a63 b13b
000000d0: 2419 85bc 4cfa 873c e0f3 aebd de3d c03a
000000e0: 2f34 5a3d 44e3 0fbe 7fce f23c 1263 20be
000000f0: 74a6 913d fae1 1fbe d78f a7bd 07e9 723d
00000100: 3a07 babd 1111 65bd 34e8 2ebe 82db 08be
00000110: 0ae6 c1bc b901 9cbc 7562 22be 6b32 493d
00000120: 0609 033c 4ca6 b23d 700c afbc df4a dd3b
00000130: f47b 12bb d2d3 5bbd 7875 e83c 30cb d5bc
00000140: a6d8 c6bd 0fad 633d 409a ee3c b5fb 4fbd
00000150: 1db4 99bd 780c 9bbd 5196 513d 8fd6 d4bd
00000160: 5204 7e3d fc2e b4bd e523 933c e72a 46bd
00000170: bcde d7bd 5c61 dabd d1d7 563c e362 873c
00000180: ee39 0c3d 57db 0bbe f3c2 1f3c 85d3 9c3d
00000190: 0ce8 7f3d 2bbc 823c 1abc c8bc 8dee 433d
000001a0: c1d4 03be 4123 453d 671d acbc 4661 87bc
000001b0: fc1d 0a3d a3e3 20be 8f02 413d 1fba b2bd
000001c0: 3699 533d ab18 aabd e0a1 a7bc 555b 35be
000001d0: 59e2 25bd c9c7 86bd 2460 aabd d344 05be
000001e0: 654c 22be 6871 02bd b76c 0fbd d30a 8ebd
000001f0: e7cb 243d db0b 903d 9311 523d 1e3c 1fbe
00000200: 61a3 81bd c9e7 6ebd a7b5 f7bd 2a9f 0c3d
00000210: 323a b2bc 8109 6a3d 5104 2cbd a310 41be
00000220: 723e 94bd 7151 cc3d 8050 c6bd 7cdd 8ebd
00000230: 2d08 7fbd 896c d4bd 9c4b cebd 0a04 9ebd
00000240: 39ac c4bd e060 8e3d 9e37 333d c83b 98bc
00000250: 07eb c5bd dc83 c8bd 2e98 7ebd 50f1 6c3d
00000260: 3977 eabc 683e 8cbd 1a93 3f3d 1681 11bd
00000270: 165b a53d 815c 84bd 62fb 10be 54e6 9dbc
00000280: 7069 10be fb89 e83c d1e2 033e 59a6 8fbb
00000290: 3a2b 85bc aec9 103d 3375 bdbd 0c37 843c
000002a0: 739a 453c 2586 6cbc f96b c2bd e1e1 03be
000002b0: 963e 1dbc 1f28 303e b3a9 2f3d 3a58 be3d
000002c0: c67c 4b3d 5e8a 5abd f499 59bb 2246 9e3d
000002d0: a869 de3d 685a 6bbd 265b 253d 5878 f8bd
000002e0: 80de 04be cd15 f13c 3a5e 0f3d eb56 0fbd
000002f0: 7de8 09be 7608 ba3b c374 c53c 8ea5 63bd
00000300: fa31 40bc fa1c d0bd e4db f3ba a4c7 9a3d
00000310: 5d57 013d 6475 b7bd f9f8 39bd ac30 21bd
00000320: 72e1 693d c96c a43c f109 cabd 9f67 8e3d
00000330: e4d9 8d3d 30f5 83bd 3557 00be 9db4 26be
00000340: 6802 8a3b 6e9e 3a3d f5c3 b2bc 607b d33c
00000350: 3a7f b5bc 6e33 9cbd 7fcf 143c e65d 0f3d
00000360: 7f44 47bd 03fc 64bd 39cd 05be 0ffe 483d
00000370: bb38 9b3d 40fb 84bc 56db e4bd ccd6 b1bd
00000380: b53b c6ba 64ec ec3b 533a a4bd da8a 25be
00000390: b043 ba3c fa95 c9bb 282c 463d 4607 0ebe
000003a0: dc54 10bd b665 893d 9401 ddbc ed7e 8cbc
000003b0: 8460 1ebd c4de 263d 7820 b5bd 3170 d9bc
000003c0: 64f0 fd3b 6945 16be 7a29 abbd 3319 a13c
000003d0: e56e 03be 81bb b2bd 270c 55bd d75e 51bc
000003e0: cc15 68bd fbc3 02be eac8 29ba bafc 1d3e
000003f0: d8cf e7bd caff a3bd dab9 483d 33cf d7bd

l2.weight f4 [256, 256]
-0.06473764 0.12745252 -0.009366147 0.06029429 -0.05253405 -0.028901642 0.010394903 0.025267899
-0.09955128 -0.045836005 0.014525501 -0.023440836 -0.04169497 -0.074054115 -0.06974657 -0.047928654
-0.048813056 -0.00051821023 0.0066435123 -0.08832052 0.012993852 -0.0809059 -0.08563119 -0.08395601
-0.027337939 0.055895433 0.014708514 0.021558626 -0.011346965 -0.03760387 0.056290176 0.02121662
-0.038398333 0.017680587 0.061952803 -0.03150386 -0.023897178 -0.01620363 -0.052222963 -0.014269096
-0.011010004 -0.05526503 0.0042490046 -0.050839793 -0.062472682 -0.06415358 -0.010084811 0.0334189
-0.059296362 -0.027491983 -0.07231938 0.03602912 -0.009385534 0.006679983 -0.040115934 -0.006203141
-0.06616495 -0.073786505 -0.051870577 -0.04968302 0.06143399 0.018012328 -0.10697699 -0.07423163
-0.037373956 0.037434567 0.0062903343 -0.086539306 -0.11079724 0.0032168448 -0.059339184 0.056421246
-0.010148594 0.047585957 -0.075592175 0.016375545 -0.035129406 -0.05455152 -0.08056844 -0.019179817
-0.052283008 -0.002135098 -0.04579155 -0.017221712 -0.02025132 -0.061415285 -0.040027518 0.005025305
-0.016312186 -0.022007305 -0.01892721 -0.021686666 -0.095392674 -0.04524361 -0.08763862 -0.077437624
-0.018738063 -0.052008122 0.019241298 0.022799125 -0.08832462 -0.0066224914 0.029910823 -0.007135108
0.03746768 0.04784923 -0.00021942612 0.0047491267 -0.011585144 -0.10907865 -0.04981564 -0.031444088
0.0011883688 -0.06648454 -0.05039517 -0.06370278 -0.020182976 0.029982124 -0.0074139237 0.10011278
-0.050023604 0.0024315864 -0.05124659 -0.030933512 -0.103032835 0.057942 -0.057142343 -0.010581421
-0.051882524 -0.018651396 -0.06387963 -0.043969397 0.009856276 -0.048390012 -0.06316633 0.047251463
0.010485957 -0.009896865 0.004891699 -0.0052079125 -0.11175986 -0.005643697 0.013028594 0.13692097
-0.054405887 -0.08251219 -0.019826697 -0.020217 0.01687404 -0.0040232176 -0.029510595 -0.07029126
0.06305294 -0.05139147 -0.09256196 -0.019260032 -0.010822824 0.052234612 -0.088432886 -0.001011089
-0.111461736 0.0032913587 -0.036396407 -0.020722402 -0.10489772 -0.0098670125 -0.057081137 -0.02661769
0.032135304 0.012121306 0.012633437 -0.064731896 -0.08433017 -0.045838665 0.016779434 0.021490471
0.0018794759 -0.025003364 -0.037069567 0.020996995 -0.058121093 -0.03572054 0.0058819135 -0.021101546
-0.087010786 -0.100015745 -0.043336745 -0.04389535 -0.06939121 -0.09627597 -0.030614885 0.054084755
0.07589882 -0.058796998 -0.093504 -0.0016463983 -0.05822186 0.024890516 -0.095228896 0.0065683494
-0.05992828 0.008011445 0.020624593 -0.03459926 -0.08949191 -0.0599853 0.044929482 0.03787642
0.011264297 -0.033607487 -0.07205611 -0.01490827 -0.10383073 0.008560408 -0.07940644 -0.019610507
-0.10564832 -0.006306806 -0.08318671 -0.08913183 0.028539568 -0.03790172 -0.018770784 -0.017690144
-0.008979273 -0.05660621 -0.05023256 0.07659545 -0.09945636 -0.0872582 -0.049808837 0.029386982
-0.09777275 -0.058181435 0.017538805 -0.08632286 0.009664142 -0.04275424 -0.095320106 -0.08786623
0.009253875 0.057026744 -0.020317886 -0.007855259 -0.083842695 0.073377594 -0.0905991 0.09150742
-0.04779783 -0.008550751 -0.0820649 0.04118102 -0.039943006 0.011472551 0.031014834 0.069652915
00000000: 2b95 84bd ea82 023e 7874 19bc 25f7 763d
00000010: f22d 57bd 23c3 ecbc 624f 2a3c a0fe ce3c
00000020: 8be1 cbbd 89be 3bbd 5efc 6d3c ff06 c0bc
00000030: 58c8 2abd afa9 97bd 4ad7 8ebd d650 44bd
00000040: 33f0 47bd 80d8 07ba d2b1 d93b 64e1 b4bd
00000050: 2ae4 543c feb1 a5bd 685f afbd 21f1 abbd
00000060: d0f3 dfbc 9cf2 643d fbfb 703c b79b b03c
00000070: 9fe8 39bc 8406 1abd 8790 663d 7ace ad3c
00000080: 9247 1dbd e1d6 903c 39c2 7d3d 310a 01bd
00000090: 04c4 c3bc 7abd 84bc bfe7 55bd edc8 69bc
000000a0: 4e63 34bc 965d 62bd 3c3b 8b3b 633d 50bd
000000b0: 5be3 7fbd f462 83bd c33a 25bc 42e2 083d
000000c0: bee0 72bd de36 e1bc 2f1c 94bd 4593 133d
000000d0: c8c5 19bc c2e3 da3b 9b50 24bd b843 cbbb
000000e0: 7d81 87bd 611d 97bd 3e76 54bd 6c80 4bbd
000000f0: 35a2 7b3d 978e 933c c116 dbbd c106 98bd
00000100: 6f15 19bd fd54 193d 261f ce3b 853b b1bd
00000110: aae9 e2bd b3d1 523b a50d 73bd f719 673d
00000120: 4a46 26bc 7ee9 423d 12d0 9abd 0226 863c
00000130: dae3 0fbd 6a71 5fbd 1101 a5bd fe1e 9dbc
00000140: b526 56bd 00ed 0bbb ec8f 3bbd 8c14 8dbc
00000150: 19e6 a5bc 988e 7bbd e5f3 23bd 50ab a43b
00000160: 22a1 85bc aa48 b4bc 3c0d 9bbc 3ca8 b1bc
00000170: 3c5d c3bd 5d51 39bd e07b b3bd 9e97 9ebd
00000180: 9180 99bc 7806 55bd ed9f 9d3c 3bc5 ba3c
00000190: 8ae3 b4bd 7c01 d9bb 8b07 f53c a0cd e9bb
000001a0: b677 193d 8efd 433d c015 66b9 909e 9b3b
000001b0: 9ecf 3dbc a164 dfbd 7c0b 4cbd 84cb 00bd
000001c0: 0ac3 9b3a 0c29 88bd 2a6b 4ebd 9a76 82bd
000001d0: c556 a5bc 129d f53c 80f0 f2bb ee07 cd3d
000001e0: 8de5 4cbd 405b 1f3b f2e7 51bd 4768 fdbc
000001f0: e102 d3bd 9754 6d3d 170e 6abd b25d 2dbc
00000200: c582 54bd d0ca 98bc 53d3 82bd 4119 34bd
00000210: 387c 213c 9b34 46bd 595d 81bd c08a 413d
00000220: 4bcd 2b3c 7626 22bc 8c4a a03b 23a7 aabb
00000230: 5ae2 e4bd c3ee b8bb e275 553c 0335 0c3e
00000240: b5d8 5ebd 27fc a8bd 996b a2bc 1f9e a5bc
00000250: 6d3b 8a3c 32d5 83bb 34c0 f1bc ddf4 8fbd
00000260: e621 813d dd7f 52bd 2091 bdbd 37c7 9dbc
00000270: 3752 31bc f6f3 553d 4d1c b5bd 8486 84ba
00000280: 0d46 e4bd d6b3 573b 6614 15bd 07c2 a9bc
00000290: 9ed4 d6bd 40a9 21bc e9cd 69bd 580d dabc
000002a0: 4fa0 033d 7198 463c 7afc 4e3c 2892 84bd
000002b0: 4cb5 acbd 53c1 3bbd 0675 893c c90c b03c
000002c0: bf58 f63a dbd3 ccbc 42d6 17bd e401 ac3c
000002d0: 6210 6ebd b34f 12bd 11bd c03b 26dd acbc
000002e0: b632 b2bd 0ed5 ccbd df81 31bd 9ccb 33bd
000002f0: fb1c 8ebd 562c c5bd 11cc fabc fa87 5d3d
00000300: d770 9b3d 1fd5 70bd 067f bfbd f6cb d7ba
00000310: 0c7a 6ebd 32e7 cb3c 5e07 c3bd 4f3b d73b
00000320: 5b77 75bd 7042 033c e8f4 a83c f4b7 0dbd
00000330: 8947 b7bd 25b3 75bd fa07 383d 4e24 1b3d
00000340: e38d 383c 01a8 09bd 2792 93bd d141 74bc
00000350: 35a5 d4bd f440 0c3c d89f a2bd 37a6 a0bc
00000360: 255e d8bd 53a9 cebb cb5d aabd c08a b6bd
00000370: d0cb e93c d53e 1bbd 30c5 99bc ecea 90bc
00000380: cd1d 13bc eadb 67bd a8c0 4dbd 13de 9c3d
00000390: c7af cbbd 6db4 b2bd 5a04 4cbd f8bc f03c
000003a0: 143d c8bd a84f 6ebd 8aad 8f3c 0aca b0bd
000003b0: 5956 1e3c 121f 2fbd 3037 c3bd 36f3 b3bd
000003c0: 919d 173c e094 693d b271 a6bc 58b3 00bc
000003d0: b8b5 abbd fe46 963d 058c b9bd 3e68 bb3d
000003e0: a8c7 43bd 7318 0cbc a411 a8bd 6ead 283d
000003f0: 479b 23bd 5ef7 3b3c d212 fe3c 30a6 8e3d

l2.bias f4 [256]
-0.09938863 -0.0124025075 -0.062262863 0.08507949 0.014440767 -0.09002323 -0.060834184 0.002786713
-0.06728658 0.04147851 0.006588234 -0.023595056 -0.047603704 0.0007346355 -0.050745096 -0.077896215
-0.039755497 -0.028015994 -0.010323694 -0.039035913 -0.06976602 -0.029662244 0.025809262 -0.07064942
-0.025534624 -0.097883955 -0.012689939 -0.0024901547 0.06754287 -0.030825634 -0.09699917 -0.03975545
0.0061343517 -0.02266013 -0.1171946 -0.029477548 -0.06784128 -0.009341982 -0.03923507 -0.101903245
0.0029967483 -0.030854078 -0.012983818 -0.060946964 -0.0045233383 -0.0010408094 -0.04335296 -0.09047732
-0.08755684 -0.0389655 -0.028343195 -0.0029278274 -0.050072968 -0.056257635 -0.03856297 -0.10304067
-0.020766934 -0.06715518 -0.024339315 -0.030250246 -0.029311614 -0.016393138 -0.09666813 -0.06473382
0.017639564 -0.049861602 -0.032884773 -0.056460895 -0.032111328 -0.055325985 -0.09721893 -0.030069372
-0.03693914 -0.086736165 0.020852106 -0.049441162 -0.030265626 0.0104255015 0.00018330012 -0.09079674
-0.06006591 -0.066104315 0.022543788 -0.07998595 0.02973709 -0.019173414 -0.061635785 -0.03736698
-0.01979724 -0.066684805 -0.06616059 0.0046367715 -0.028941108 0.0010835312 -0.02665943 -0.035086233
-0.0010340363 -0.009358403 -0.046176486 -0.034536865 -0.04883296 -0.053029396 -0.08462002 -0.10405301
-0.06126865 0.009650318 -0.002222652 -0.09066116 -0.061017737 -0.005724217 -0.010876635 -0.042921804
-0.027341934 -0.045676768 -0.065612845 0.0024345028 0.019820672 -0.014985052 -0.057214137 -0.07489531
-0.023040185 0.05848305 -0.01863765 -0.08139645 -0.0025738014 0.022649992 -0.03568588 0.032095823
-0.096634865 -0.080342494 -0.0923293 -0.058891293 -0.09020751 -0.024409851 0.031059941 0.023533436
-0.049324825 -0.038670983 -0.0745375 -0.04376673 -0.020157132 -0.09052669 -0.017457971 0.006002074
-0.045760553 0.05101172 -0.040489327 -0.051855553 -0.0010917296 0.08569725 -0.031072292 -0.052020926
-0.074267454 0.08809661 -0.021831807 -0.04745892 -0.02158454 -0.10253419 0.022580551 -0.031535864
-0.04596364 0.051939905 -0.049059886 -0.068774045 -0.09854565 0.040702794 -0.062946185 -0.11207248
0.015464687 -0.044976667 -0.081116945 -0.03405101 -0.05672998 -0.019660916 -0.04880062 0.02341031
-0.10852626 -0.045338664 0.0021496527 -0.055580847 -0.0059872456 0.03312546 0.0028386845 -0.108451724
-0.036311027 -0.033737846 -0.017952183 0.0013252216 -0.022335345 -0.0834625 -0.03241794 -0.01393006
-0.011117958 -0.06580323 -0.078356996 -0.10053067 -0.0014959406 -0.036347646 -0.06929732 0.009713665
0.015815737 -0.07467396 -0.011078306 -0.10033454 -0.028175723 -0.03995943 -0.056687947 -0.039426804
-0.039949078 -0.1117042 -0.11646432 -0.00037590368 0.012596994 -0.0707069 -0.028482744 -0.055995286
-0.11488536 -0.09708298 -0.052982047 -0.04481534 -0.052470595 -0.03564498 -0.079088934 -0.032436546
-0.036109164 -0.016370503 0.033240214 -0.038430624 -0.045852218 -0.020943284 -0.0044307928 -0.057673182
-0.11172389 -0.06161446 -0.06942155 -0.055558994 -0.03263679 0.061494023 -0.0394262 -0.013269266
0.070453376 0.07282844 -0.085434675 -0.03144114 0.021386748 -0.030420063 0.039899148 0.0068139406
-0.037358236 -0.038310993 -0.014650377 -0.04169348 -0.095184475 0.03114547 -0.025816996 -0.09525738
00000000: 448c cbbd e333 4bbc 5807 7fbd 283e ae3d
00000010: f798 6c3c 195e b8bd 442d 79bd 49a1 363b
00000020: 8ccd 89bd 5fe5 293d 1de2 d73b 6b4a c1bc
00000030: 1afc 42bd 8e94 403a 17da 4fbd 0d88 9fbd
00000040: a9d6 22bd cc81 e5bc b624 29bc 1fe4 1fbd
00000050: 7de1 8ebd 3cfe f2bc f26d d33c a5b0 90bd
00000060: fd2d d1bc 6277 c8bd 76e9 4fbc dd31 23bb
00000070: eb53 8a3d 0a86 fcbc 80a7 c6bd 9cd6 22bd
00000080: ac02 c93b bda1 b9bc b903 f0bd e67a f1bc
00000090: 5ef0 8abd 1d0f 19bc f4b4 20bd a6b2 d0bd
000000a0: 1865 443b b1c1 fcbc 14ba 54bc 86a3 79bd
000000b0: 8338 94bb c56b 88ba e092 31bd 2c4c b9bd
000000c0: 0051 b3bd 4a9a 1fbd fd2f e8bc cbe0 3fbb
000000d0: 5019 4dbd 686e 66bd 34f4 1dbd fd06 d3bd
000000e0: 6b1f aabc a888 89bd 3e63 c7bc 5dcf f7bc
000000f0: e91e f0bc e74a 86bc f1f9 c5bd 2a93 84bd
00000100: d980 903c ae3b 4cbd 2fb2 06bd 8a43 67bd
00000110: 2b87 03bd 809d 62bd b81a c7bd 0b54 f6bc
00000120: 7f4d 17bd bba2 b1bd 09d2 aa3c d182 4abd
00000130: 9eef f7bc b9cf 2a3c 4034 4039 a4f3 b9bd
00000140: ac07 76bd b361 87bd c0ad b83c accf a3bd
00000150: 339b f33c 9011 9dbc ce75 7cbd 1e0e 19bd
00000160: d22d a2bc 0b92 88bd 347f 87bd 0ff0 973b
00000170: e715 edbc 4605 8e3a e064 dabc 95b6 0fbd
00000180: 8088 87ba fd53 19bc 8e23 3dbd 8776 0dbd
00000190: 1205 48bd 5a35 59bd 434d adbd bf19 d5bd
000001a0: d6f4 7abd 5e1c 1e3c eaa9 11bb 8fac b9bd
000001b0: bced 79bd 3692 bbbb ea33 32bc c6ce 2fbd
000001c0: 31fc dfbc 9017 3bbd 0760 86bd 2e8c 1f3b
000001d0: f65e a23c dd83 75bc 5f59 6abd b662 99bd
000001e0: c5be bcbc ec8b 6f3d fcad 98bc 2fb3 a6bd
000001f0: 39ad 28bb 7a8c b93c 5b2b 12bd e976 033d
00000200: 80e8 c5bd 9b8a a4bd 2517 bdbd ff37 71bd
00000210: b7be b8bd 2bf7 c7bc 6b71 fe3c 31c9 c03c
00000220: d408 4abd 7765 1ebd 1ea7 98bd be44 33bd
00000230: 9220 a5bc 0f66 b9bd 0504 8fbc 0cad c43b
00000240: 6b6f 3bbd aaf1 503d 23d8 25bd 7d66 54bd
00000250: 5e18 8fba 0a82 af3d 528b febc e513 55bd
00000260: 8919 98bd ff6b b43d 9ed8 b2bc 4964 42bd
00000270: 10d2 b0bc 72fd d1bd d9fa b83c c02b 01bd
00000280: 5f44 3cbd f0be 543d 05f3 48bd 68d9 8cbd
00000290: 4dd2 c9bd f9b7 263d eee9 80bd 4286 e5bd
000002a0: 995f 7d3c 7439 38bd a420 a6bd 1279 0bbd
000002b0: b25d 68bd ee0f a1bc 29e3 47bd fac6 bf3c
000002c0: 0443 debd 09b5 39bd 30e1 0c3b bea8 63bd
000002d0: a830 c4bb 90ae 073d 3909 3a3b f01b debd
000002e0: dfba 14bd b230 0abd 7510 93bc 0fb3 ad3a
000002f0: 9df8 b6bc 63ee aabd adc8 04bd e83a 64bc
00000300: 1928 36bc d8c3 86bd a279 a0bd 06e3 cdbd
00000310: 7013 c4ba 45e1 14bd c1eb 8dbd 1026 1f3c
00000320: 0190 813c a9ee 98bd c881 35bc 327c cdbd
00000330: c6d0 e6bc 80ac 23bd 9f31 68bd 007e 21bd
00000340: a5a1 23bd 2cc5 e4bd d884 eebd f014 c5b9
00000350: 9f63 4e3c c7ce 90bd a554 e9bc 505b 65bd
00000360: 0449 ebbd 71d3 c6bd b403 59bd 4a90 37bd
00000370: 68eb 56bd 7800 12bd 61f9 a1bd 2fdc 04bd
00000380: 34e7 13bd 6f1b 86bc e426 083d 6e69 1dbd
00000390: 89cf 3bbd 4091 abbc 2f30 91bb b73a 6cbd
000003a0: 7fcf e4bd 725f 7cbd e32c 8ebd d491 63bd
000003b0: 28ae 05bd 28e1 7b3d 5e7d 21bd 5667 59bc
000003c0: dc49 903d 1427 953d 60f8 aebd 6dc8 00bd
000003d0: 4333 af3c 7f33 f9bc 4a6d 233d 7a47 df3b
000003e0: f304 19bd fdeb 1cbd 2308 70bc c8c6 2abd
000003f0: 14f0 c2bd c924 ff3c 2a7e d3bc 4d16 c3bd

l3.weight f4 [3, 256]
0.0683368 -0.0138110835 -0.014103561 -0.073315576 -0.03505414 -0.092702314 -0.04316724 -0.041257344
-0.05632953 -0.006060585 -0.023281448 0.0053074667 0.007745033 0.014820745 -0.06793488 -0.074555494
-0.033428863 -0.058609344 -0.048258975 -0.042927198 0.035588883 -0.038670417 -0.043550245 0.0022393912
-0.012113859 0.00028005976 0.05569755 0.0030340704 -0.08049354 -0.040562812 -0.082816765 -0.05060674
-0.04564915 -0.0025093881 -0.1105427 0.0017710845 0.007558699 -0.02193118 -0.0110005755 -0.058983486
-0.005444818 -0.047049556 -0.024360249 0.0024206121 -0.0033305304 -0.038406216 -0.048367474 -0.044040922
0.048469428 0.0072816405 0.050835807 -0.049499504 -0.039099142 -0.06389245 -0.10038307 -0.014042641
-0.087807685 0.050429814 -0.012236076 0.031486485 -0.014451555 0.05606098 0.048748456 0.009448315
-0.033623103 0.05156979 -0.01095543 0.059762515 -0.013802286 -0.03299749 -0.065634765 -0.107358165
-0.066530354 -0.034602847 -0.052381795 0.015103198 -0.06712264 -0.062077545 0.04955747 0.040834613
-0.0025671702 -0.004777411 -3.205987e-05 -0.016989723 -0.042557158 0.04456695 -0.017512307 0.058007434
-0.01764386 0.06808047 0.0022344482 0.044561256 -0.021272592 -0.069498286 0.070009574 -0.062272683
-0.035917588 -0.020835845 -0.03978785 -0.027920112 -0.07267768 -0.01885292 0.052023686 0.08160128
-0.027395705 -0.035944328 -0.038171064 -0.099620424 0.037866548 -0.008592214 -0.0978726 -0.019269422
-0.10068046 -0.0027744472 0.055864044 -0.039654348 -0.047832202 0.0453827 -0.060811777 0.048091166
-0.008591866 -0.057984374 -0.07702541 -0.01586264 -0.009006447 -0.014277309 -0.03760991 -0.010101006
-0.10287408 -0.032951325 0.04610566 -0.011567933 -0.06066712 -0.050651673 -0.015904302 0.008503693
-0.05230145 -0.10810848 0.008762266 -0.018141625 -0.037827197 0.006010747 -0.07591027 -0.027185725
0.059216086 -0.09968296 0.022909207 -0.05362888 -0.021137353 -0.11354408 0.008792841 -0.117599025
-0.022108978 0.05859769 -0.032935757 -0.10037302 -0.043773506 -0.01696875 -0.025608988 -0.02367492
-0.039143816 -0.021206163 0.056719095 -0.012219187 -0.012917341 -0.043091994 -0.008471591 -0.04758628
0.057674464 0.025878375 -0.031140476 -0.013552798 -0.107413806 0.03303994 -0.04968978 -0.12605938
-0.10317316 -0.02815177 0.064933665 -0.0012560785 -0.04823775 -0.0231641 -0.0008219804 -0.027160944
-0.081570715 -0.024872726 -0.015930919 0.035011213 0.015496194 -0.09420023 0.043072935 0.002615977
-0.11532072 -0.0277526 0.033724338 0.011142157 -0.09632099 -0.014333439 -0.041162916 0.08111503
-0.0057904613 -0.04026083 -0.040816728 -0.012469939 -0.06582196 0.025046764 0.018135767 -0.023216493
-0.08960054 -0.061300986 -0.027620416 -0.019136455 -0.0784105 -0.07640466 -0.10117884 0.01577198
-0.060911678 0.064306244 -0.0595646 0.028291592 0.05492405 -0.079552606 -0.025405997 -0.11578244
0.067668125 0.020191807 -0.04844473 -0.011261267 -0.066201314 -0.05167435 -0.050236136 -0.102363326
-0.009019295 -0.024602987 0.041227225 -0.030556269 0.058416877 -0.013352324 -0.05798802 0.041077692
-0.09391853 -0.060607415 -0.02573733 0.0047277827 0.011111439 -0.019658005 -0.11392671 -0.1075466
-0.020849047 -0.0494699 -0.06597563 -0.08048789 -0.05817644 0.039193764 0.04806329 -0.035878375
00000000: 2af4 8b3d e247 62bc 9f12 67bc 7a26 96bd
00000010: ee94 0fbd b6da bdbd 22d0 30bd 76fd 28bd
00000020: cbb9 66bd df97 c6bb bcb8 bebc 42ea ad3b
00000030: 0cca fd3b b6d2 723c 7121 8bbd 8db0 98bd
00000040: b4ec 08bd 5a10 70bd 34ab 45bd 6ed4 2fbd
00000050: a6c5 113d df64 1ebd be61 32bd c0c2 123b
00000060: 3579 46bc fcd4 9239 1d23 643d 41d7 463b
00000070: ccd9 a4bd 3125 26bd d69b a9bd 0349 4fbd
00000080: 9afa 3abd 8c74 24bb 3664 e2bd bc23 e83a
00000090: f7ae f73b 05a9 b3bc c23b 34bc ab98 71bd
000000a0: 726a b2bb 09b7 40bd 258f c7bc 22a3 1e3b
000000b0: 0745 5abb d64f 1dbd f91c 46bd 4164 34bd
000000c0: e187 463d d49a ee3b 3539 503d febf 4abd
000000d0: 6c26 20bd 0bda 82bd a495 cdbd 1b13 66bc
000000e0: 84d4 b3bd 7e8f 4e3d d379 48bc f9f7 003d
000000f0: 37c6 6cbc 33a0 653d 76ac 473d 1bcd 1a3c
00000100: 61b8 09bd d83a 533d 677e 33bc 8ac9 743d
00000110: fc22 62bc 6028 07bd 856b 86bd 99de dbbd
00000120: 1141 88bd b7bb 0dbd 4b8e 56bd 6773 773c
00000130: 9877 89bd 0645 7ebd c6fc 4a3d 3242 273d
00000140: f83d 28bb d48b 9cbb 0678 06b8 082e 8bbc
00000150: 6a50 2ebd d68b 363d f875 8fbc 3499 6d3d
00000160: db89 90bc c66d 8b3d d26f 123b dd85 363d
00000170: dc43 aebc 1e55 8ebd 2e61 8f3d a411 7fbd
00000180: 521e 13bd efaf aabc 96f8 22bd b8b8 e4bc
00000190: 09d8 94bd 7071 9abc ca16 553d 921e a73d
000001a0: f56c e0bc 5c3a 13bd 4359 1cbd cb05 ccbd
000001b0: f419 1b3d 5cc6 0cbc 6e71 c8bd e8da 9dbc
000001c0: 8f31 cebd 80d3 35bb b2d1 643d 996c 22bd
000001d0: b3eb 43bd 36e3 393d c515 79bd 3efb 443d
000001e0: e6c4 0cbc 0681 6dbd 80bf 9dbd 5ef2 81bc
000001f0: c78f 13bc 60eb 69bc d90c 1abd b17e 25bc
00000200: a5af d2bd f8f7 06bd 4ad9 3c3d 6d87 3dbc
00000210: 167e 78bd 2178 4fbd bd49 82bc 1353 0b3c
00000220: 0c3a 56bd fb67 ddbd 9b8f 0f3c bf9d 94bc
00000230: b1f0 1abd cdf5 c43b d876 9bbd 99b4 debc
00000240: 918c 723d 9426 ccbd 17ac bb3c f5a9 5bbd
00000250: 3e28 adbc cc89 e8bd d90f 103c c2d7 f0bd
00000260: e31d b5bc 2204 703d a5e7 06bd 5f90 cdbd
00000270: d94b 33bd 0c02 8bbc f1c9 d1bc e8f1 c1bc
00000280: 4455 20bd 8cb8 adbc 4852 683d fc32 48bc
00000290: 41a3 53bc 3b81 30bd 6ecc 0abc d5e9 42bd
000002a0: 0f3c 6c3d e3fe d33c 501a ffbc 8e0c 5ebc
000002b0: c5fb dbbd e354 073d 8387 4bbd b615 01be
000002c0: 734c d3bd 8a9e e6bc f1fb 843d 00a3 a4ba
000002d0: f294 45bd a3c2 bdbc 2c7a 57ba a180 debc
000002e0: 8c0e a7bd e3c1 cbbc 8f81 82bc eb67 0f3d
000002f0: c0e3 7d3c 0dec c0bd 3f6d 303d d070 2b3b
00000300: 452d ecbd 6c59 e3bc 8822 0a3d 988d 363c
00000310: f043 c5bd cdd6 6abc 729a 28bd a31f a63d
00000320: e9bd bdbb 8ae8 24bd 712f 27bd b74e 4cbc
00000330: aacd 86bd df2e cd3c 7691 943c 8430 bebc
00000340: 7d80 b7bd be16 7bbd 3644 e2bc 0ec4 9cbc
00000350: af95 a0bd 0c7a 9cbd da36 cfbd 3d34 813c
00000360: 867e 79bd feb2 833d 03fa 73bd c5c3 e73c
00000370: 0af8 603d 7aec a2bd 3d20 d0bc 581f edbd
00000380: 9695 8a3d 4a69 a53c fb6d 46bd 2d81 38bc
00000390: 8e94 87bd 7ca8 53bd 68c4 4dbd dda3 d1bd
000003a0: aac5 13bc 348c c9bc e1dd 283d 2451 fabc
000003b0: 8946 6f3d b5c3 5abc d984 6dbd 1541 283d
000003c0: 5c58 c0bd 7b3f 78bd 18d7 d2bc 84eb 9a3b
000003d0: c10c 363c d309 a1bc 6852 e9bd 6441 dcbd
000003e0: 9fcb aabc f3a0 4abd 3b1e 87bd d6d6 a4bd
000003f0: 6b4a 6ebd a489 203d 03de 443d 34f5 12bd

l3.bias f4 [3]
0.026713502 0.008720453 -0.0468008
00000000: 46d6 da3c 3be0 0e3c 32b2 3fbd
