gespeicherte_Klassen/models/10.09.2022.19.17.34/10SAVE.pt (torch, 363287 bytes, 6 tensors)

l1.weight f4 [256, 83]
0	0xbc0317d0	-0.008001283
1	0xbe16b476	-0.14717278
2	0x3d1225a9	0.035680447
3	0x3ccf6dcd	0.025320912
4	0xbd99cb7e	-0.07509516
5	0xbe30c617	-0.17263065
6	0xbd9ee9f0	-0.07759464
7	0x3d1dfbe8	0.038570315
8	0xbe0fe4d8	-0.1405214
9	0xbdd60c66	-0.104515836
10	0xbd817f9b	-0.06323167
11	0xbddb4e44	-0.10708287
12	0x3da00574	0.0781354
13	0x3dd2da00	0.102954865
14	0x3d195aac	0.037439987
15	0xbd604f6c	-0.054763243
16	0xbdc689d3	-0.09694257
17	0xbca700a6	-0.020386051
18	0xbda50b24	-0.080587655
19	0x3d0214bf	0.031758066
20	0xbda7318a	-0.08163746
21	0xbd232930	-0.0398342
22	0xbb2ec7e0	-0.0026669428
23	0xbce4b4c8	-0.027918234
24	0xbd5fa7b3	-0.05460329
25	0xbdb2f131	-0.0873741
26	0xbc8d8606	-0.017275821
27	0x3ca9b73a	0.020717252
28	0xbbecc7fd	-0.007225989
29	0xbdac9883	-0.08427527
30	0xbcbc45e8	-0.022982553
31	0x3d34c5f5	0.0441341
32	0xbdbdcb67	-0.092673115
33	0x3d4c1f0b	0.049834292
34	0xbd219f99	-0.039458845
35	0x3e12552a	0.142903
36	0xbd933a4a	-0.07188852
37	0x3e5165e5	0.20449026
38	0xbd8ce0c0	-0.06878805
39	0xbdc63ed6	-0.09679954
40	0x3e8e2be5	0.27767864
41	0xbd9fae99	-0.07796974
42	0xbd493d96	-0.049131
43	0x3d95d073	0.07315149
44	0xbc8e8025	-0.017395088
45	0x3dc87548	0.097879946
46	0x3d279c9a	0.04092083
47	0x3e19d751	0.15023543
48	0x3da1444b	0.07874354
49	0xbb44a0d7	-0.0030003095
50	0x3d805cc0	0.06267691
51	0xbce8e962	-0.028431598
52	0x3dc7a770	0.09748733
53	0xbd8fe244	-0.070255786
54	0xbd918102	-0.071046844
55	0xbd89c42e	-0.067268714
56	0x3dc39df6	0.09551613
57	0x3e07a735	0.13247378
58	0x3e3703cf	0.17872547
59	0xbd85873b	-0.06519934
60	0x3d2979bc	0.04137586
61	0xbd64c515	-0.055852015
62	0xbe06ab55	-0.13151295
63	0x3be83229	0.0070860577
64	0xbda09ad0	-0.07842028
65	0x3cc8ff9d	0.024535948
66	0xbafbb36f	-0.0019203256
67	0xbdcb3c80	-0.09923649
68	0xbd7320f2	-0.05935759
69	0x3d6502d4	0.0559109
70	0x3d55fc0c	0.052242324
71	0xbc06875b	-0.008210982
72	0x3c8e2e70	0.017356128
73	0xbd1f3f62	-0.038878806
74	0xbd535e7d	-0.051603783
75	0xbd8a6f06	-0.06759457
76	0xbdb64bc0	-0.08901167
77	0xbc9b4984	-0.018955953
78	0x3d107678	0.03526923
79	0xbcf11638	-0.02942954
80	0xbdcf5e28	-0.10125381
81	0xbd69e2e5	-0.05710115
82	0x3d98d640	0.0746274
83	0xbb987be0	-0.004653439
84	0xbd3c202d	-0.045929123
85	0xbd0c89b3	-0.034311008
86	0xba8868d9	-0.0010407224
87	0xbcb2d6f1	-0.021831008
88	0xbdfb4af1	-0.12270153
89	0x3ae23400	0.0017257929
90	0x3c315622	0.010823758
91	0xbdae439e	-0.08508991
92	0x3dc223de	0.094794974
93	0x3d32d838	0.043663234
94	0xbbea2560	-0.0071455687
95	0x3d020438	0.031742305
96	0xbdd55f1f	-0.104185335
97	0xbd8bf76d	-0.06834302
98	0xbc9ebf90	-0.019378453
99	0xbc50961a	-0.0127310995
100	0xbd8ad5b2	-0.067790404
101	0xbd3425be	-0.043981306
102	0xbcda8708	-0.026675716
103	0xbdbe6162	-0.09295918
104	0x3dbae452	0.0912558
105	0xbdde5fa6	-0.10858087
106	0x3db78328	0.08960563
107	0x3cebe8d0	0.028797537
108	0xbd541b0c	-0.051783606
109	0x3ce9add2	0.028525267
110	0xbda2a98b	-0.07942494
111	0xbdc51123	-0.09622409
112	0x3cde98af	0.027172415
113	0xbd49d845	-0.049278516
114	0xbdd76c0e	-0.10518657
115	0xbdb7bbe8	-0.08971387
116	0xbd9ab10f	-0.075533025
117	0xbc9ec5bc	-0.019381396
118	0xbced8e30	-0.028998464
119	0xbd62c824	-0.05536665
120	0x3d84af88	0.064787924
121	0xbd1faed6	-0.038985096
122	0x3d293658	0.041311592
123	0xbd9db0b9	-0.07699723
124	0x3c823148	0.01589264
125	0xbd9509de	-0.07277273
126	0x3e213f7c	0.15746874
127	0x3d5a1750	0.05324489
128	0x3e049abe	0.12949654
129	0x3cc2a5e4	0.023760743
130	0x3e116cbe	0.14201638
131	0x3d83b086	0.064301535
132	0x3d1be4cc	0.038059995
133	0xbd8edade	-0.06975339
134	0xbdbefc92	-0.09325518
135	0xbdc79df6	-0.097469255
136	0xbd985b5c	-0.074393004
137	0xbd6cc05e	-0.057800643
138	0xbdd8b776	-0.105818674
139	0xbcabdadc	-0.020978384
140	0x3dc39580	0.09549999
141	0xbdb1dbe9	-0.08684523
142	0xbd2c68c2	-0.042092092
143	0xbd8c8a7c	-0.06862351
144	0x3cbe71e0	0.02324766
145	0xbdcb3c92	-0.09923662
146	0xbcd91994	-0.026501454
147	0xbc135d00	-0.008994341
148	0xbd8873ee	-0.06662737
149	0x3dd4da6a	0.10393222
150	0xbdcc1d9f	-0.09966587
151	0x3d8c28d4	0.06843725
152	0xbddaf8c1	-0.10691977
153	0xbd9ad586	-0.075602576
154	0xbb51f960	-0.0032039508
155	0xbd4ba39b	-0.049716573
156	0xbdd06676	-0.10175793
157	0x3d4d3e24	0.05010809
158	0x3ce9bfe0	0.028533876
159	0xbc842158	-0.01612918
160	0xbc927d3c	-0.017881982
161	0xbd0902ca	-0.033449925
162	0xbc24c5e8	-0.01005695
163	0x3d3d7f14	0.04626377
164	0x3dc02880	0.09382725
165	0xbdc8213f	-0.09771966
166	0xbc0df110	-0.008663431
167	0xbd098f48	-0.03358391
168	0x3c6742ec	0.0141150765
169	0xbdda62c7	-0.106633715
170	0xbcc58ddc	-0.024115495
171	0xbda6fd6b	-0.081538044
172	0xbce28810	-0.02765277
173	0xbd320014	-0.043457106
174	0xbe1a36cd	-0.15059967
175	0xbd559534	-0.052144244
176	0xbd5e895e	-0.054330222
177	0xbdd1d0be	-0.102448925
178	0x3da3a452	0.07990326
179	0x3d2c5cfc	0.042080864
180	0xbdb2d20e	-0.08731471
181	0x3dc3a732	0.09553374
182	0xbd52bec4	-0.05145146
183	0xbdf6fd24	-0.120600015
184	0xbd5173db	-0.05113588
185	0xbdf26bf6	-0.11836998
186	0x3d10380b	0.035209697
187	0xbdb0c616	-0.08631532
188	0x3d624e25	0.055250306
189	0xbdaea55e	-0.08527635
190	0xbdadba97	-0.08482855
191	0xbbaf9f5c	-0.0053595733
192	0xbdbc63cc	-0.09198722
193	0xbdde66e6	-0.1085947
194	0x3d7a3c56	0.061092697
195	0xbdf77988	-0.12083727
196	0xbd062b9e	-0.03275644
197	0x3c8aaf96	0.016929429
198	0xbd4044a2	-0.046940453
199	0xbdb9a7b3	-0.09065189
200	0xbdb93b26	-0.09044485
201	0x3d68d572	0.056844182
202	0x3d89c93a	0.06727834
203	0x3d0fe758	0.035132736
204	0xbcec5a40	-0.028851628
205	0xbd5afaa7	-0.053461697
206	0x3dfc602d	0.123230316
207	0x3ced2f80	0.028953314
208	0x3df9904a	0.12185724
209	0x3c8104d2	0.015749369
210	0x3ddfb86c	0.109238476
211	0x3d646256	0.055757843
212	0x3d581a1c	0.052759275
213	0x3d5071ee	0.0508899
214	0x3d7ab661	0.061209086
215	0x3d73ee2a	0.059553303
216	0xbdebe211	-0.11517728
217	0x3b80f340	0.0039352477
218	0xbd000910	-0.031258643
219	0x3d38d700	0.045126915
220	0xbd109676	-0.03529974
221	0xbd7683c8	-0.06018427
222	0xbc9aef8f	-0.018913059
223	0xbd868c46	-0.06569724
224	0xbae68ae3	-0.0017588999
225	0xbb367940	-0.0027843267
226	0xbca27a44	-0.019833691
227	0xbdb883b5	-0.09009496
228	0xbda90471	-0.082528
229	0xbddeb795	-0.10874859
230	0xbd9d430a	-0.07678802
231	0xbd13cc86	-0.03608372
232	0xbda3e802	-0.08003236
233	0xbe123ffc	-0.1428222
234	0x3db1dc1a	0.08684559
235	0x3d9d5462	0.0768211
236	0x3d94213c	0.072329015
237	0xbd2a7f2e	-0.041625194
238	0xbd7ce3a2	-0.061740525
239	0xbda47b60	-0.080313444
240	0x3b2c22a0	0.0026265755
241	0xbd68b60c	-0.05681424
242	0x3bf12c00	0.0073599815
243	0x3d9408c2	0.07228233
244	0xbcc1760a	-0.023615856
245	0xbd3f83c7	-0.046756532
246	0xbd4ef9e2	-0.050531276
247	0x3b98f36e	0.004667691
248	0xbcef15d2	-0.02918521
249	0xbd92ea2f	-0.07173573
250	0xbe1d5be4	-0.15367085
251	0xbdea49bd	-0.11439846
252	0xbd427066	-0.047470473
253	0xbdaa8029	-0.08325226
254	0xbdae2e3e	-0.08504914
255	0xbbf51d80	-0.0074803233

l1.bias f4 [256]
0	0xbd4fdc49	-0.05074719
1	0xbdfdea2c	-0.1239818
2	0xb99fe53f	-0.00030497645
3	0xbd5dafcd	-0.054122735
4	0xbd599fc2	-0.053130873
5	0xbc42d2c3	-0.01189107
6	0xbd9acfe0	-0.0755918
7	0x3d2c107f	0.04200792
8	0x3d7e9960	0.06215799
9	0xbd9a685f	-0.075394385
10	0xbde945df	-0.1139028
11	0xbd777c78	-0.060421437
12	0x3dc7888b	0.097428404
13	0x3d4a71ff	0.04942512
14	0xbda2b784	-0.07945159
15	0x3b91fbed	0.0044550807
16	0xbd0e808f	-0.03479057
17	0xbe11ea26	-0.14249477
18	0x3b3cab64	0.002878868
19	0xbda2f5b7	-0.07957023
20	0x3d77a331	0.060458366
21	0x3d4d997f	0.050195213
22	0xbce2dda3	-0.027693575
23	0x3e090b7c	0.13383287
24	0xbcae9b79	-0.02131437
25	0x3d08ae81	0.033369545
26	0xbe686b0f	-0.2269709
27	0x3dc165ae	0.09443222
28	0xbcb9bfff	-0.022674559
29	0x3d1a89f3	0.037729215
30	0xbd1ec87e	-0.038765423
31	0x3d013b0e	0.03155046
32	0xbd78b4f7	-0.060719457
33	0x3accd758	0.0015628142
34	0xbe33a167	-0.17542039
35	0xbe14f3ef	-0.14546178
36	0x3df6dd1c	0.12053892
37	0x3d16c2a8	0.036806732
38	0xbe1465f2	-0.14492014
39	0xbcf17901	-0.029476644
40	0x3a71994f	0.0009216265
41	0xbd4e4724	-0.050360814
42	0xbd0564ef	-0.03256696
43	0xbe068563	-0.1313682
44	0x3dccad33	0.09993973
45	0x3c743053	0.0149040995
46	0x3e11241a	0.14173928
47	0xbd81f98f	-0.06346428
48	0xbd233baa	-0.039851822
49	0x3be495ca	0.006975864
50	0xbd956912	-0.07295431
51	0x3d3bff54	0.045897797
52	0x3cec206b	0.028824052
53	0x3d50ca58	0.05097422
54	0xbdbf0a8e	-0.09328185
55	0xbcdec056	-0.027191322
56	0x3df1d34f	0.11807882
57	0xbe1c73fb	-0.15278618
58	0x3e90a949	0.28254154
59	0xbe2d828f	-0.16944335
60	0x3d9bd520	0.0760901
61	0xbe2ede0e	-0.17076895
62	0xbd9bbfbb	-0.07604929
63	0x3db7a546	0.0896707
64	0xbdd44b8b	-0.10365971
65	0xbdaa3e3f	-0.08312654
66	0xbe39712b	-0.18109576
67	0xbe0fb321	-0.14033176
68	0x3d212f2c	0.039351627
69	0xbcd8f7c6	-0.026485335
70	0xbe2f8803	-0.17141728
71	0x3de5755f	0.112040274
72	0x3d9d2529	0.07673103
73	0x3d674a8f	0.05646759
74	0xbd110375	-0.035403688
75	0xbb8f0487	-0.0043645534
76	0x3b907147	0.004408035
77	0xbd08ea40	-0.033426523
78	0x3daaf91e	0.083482966
79	0xbd097e10	-0.03356749
80	0xbde2b215	-0.11069123
81	0x3d468cde	0.048474185
82	0x3cc766b7	0.02434097
83	0xbd851053	-0.06497254
84	0x3cd4a2c2	0.025956515
85	0xbdb2426f	-0.087040775
86	0x3d0161cc	0.031587407
87	0xbde7fa2e	-0.11327015
88	0x3d9bb379	0.07602591
89	0xbdc685fe	-0.09693526
90	0x3c3074de	0.010770051
91	0xbd59fda2	-0.0532204
92	0xbdefd537	-0.117105894
93	0xbda5f267	-0.08102875
94	0x3c8005fb	0.015627852
95	0x3ca9a5ef	0.020709006
96	0x3d58957a	0.052876927
97	0xbe18b177	-0.14911447
98	0x3d7b520d	0.061357547
99	0x3da5cd62	0.08095814
100	0x3d4c4670	0.049871862
101	0x3d15f892	0.03661401
102	0xbd12a11d	-0.03579818
103	0x3d0d1a72	0.03444905
104	0xbdfa9a4b	-0.1223646
105	0x3db6549d	0.089028575
106	0xbd081372	-0.03322167
107	0xbc48c9a7	-0.012255109
108	0x3d30b762	0.043143637
109	0xbe2a369a	-0.16622391
110	0x3d3a23f0	0.04544443
111	0xbdd8d5ea	-0.10587676
112	0x3d157aa6	0.03649392
113	0xbc520818	-0.0128193125
114	0xbd0ea476	-0.03482481
115	0xbe3c872a	-0.18410936
116	0xbd658380	-0.05603361
117	0xbc7f7c0f	-0.015593543
118	0xbdc37e08	-0.09545523
119	0xbe121fb6	-0.1426991
120	0xbe2d4d2e	-0.16923973
121	0xbd027168	-0.031846434
122	0xbd1b61b0	-0.03793496
123	0xbdb0f2e3	-0.08640077
124	0x3e09122e	0.13385841
125	0x3d6df72f	0.05809706
126	0x3d9cd7ff	0.076583855
127	0xbe3d2f89	-0.18475164
128	0xbd9e135a	-0.07718535
129	0xbd4aff68	-0.04955998
130	0xbe094860	-0.13406515
131	0x3da01823	0.07817104
132	0xbd0c7586	-0.034291767
133	0x3e1dd0af	0.15411638
134	0xbd5c716d	-0.05381911
135	0xbe520842	-0.20510963
136	0xbd8c54d7	-0.068521194
137	0x3dd189b1	0.10231341
138	0xbdd91dae	-0.10601364
139	0xbda460ed	-0.080262996
140	0xbd926f3a	-0.07150121
141	0xbdf6e738	-0.1205582
142	0xbda22535	-0.07917253
143	0xbdb46d19	-0.08809871
144	0xbdc92a63	-0.09822538
145	0x3dd12ddd	0.10213826
146	0x3d9cf5de	0.07664083
147	0x3d06e060	0.032928824
148	0xbdc3993f	-0.09550714
149	0xbdd66b2d	-0.10469661
150	0xbd36cf4a	-0.04463128
151	0x3d5c8858	0.053840965
152	0xbd1cc738	-0.038275927
153	0xbdadb7c4	-0.08482316
154	0x3d355da9	0.044278774
155	0xbdbefc35	-0.093254484
156	0x3da6f154	0.081514984
157	0xbdbfc295	-0.093632855
158	0xbe17fca8	-0.14842474
159	0xbd6bb933	-0.057549667
160	0xbe1cf59e	-0.1532807
161	0x3c997b88	0.018735662
162	0x3dbdc7e7	0.09266644
163	0xbc8e97aa	-0.017406303
164	0xbcff3853	-0.031154787
165	0x3e13d2b8	0.14435852
166	0xbdd087ec	-0.10182175
167	0x3d54283c	0.051796183
168	0xbad8956a	-0.0016524021
169	0xbc73f45f	-0.014889806
170	0xbddc7119	-0.10763759
171	0xbe155261	-0.14582206
172	0x3bd93934	0.0066291336
173	0x3e968032	0.2939468
174	0x3dd2c07a	0.10290618
175	0x3e806b10	0.25081682
176	0x3dae7466	0.08518295
177	0xbd3a4dee	-0.045484476
178	0xbbfcbe39	-0.007713106
179	0x3dec0ac1	0.11525489
180	0x3dbfca77	0.09364789
181	0xbd790134	-0.060792163
182	0x3ce93469	0.028467374
183	0xbe0725ba	-0.13197985
184	0xbe13adbc	-0.14421743
185	0x3bbbf1f7	0.0057356316
186	0x3cd6217b	0.026139012
187	0xbd5664b1	-0.05234212
188	0xbe11cb9f	-0.14237832
189	0x3c51ce86	0.012805587
190	0x3c9d0218	0.019166037
191	0xbd7c49ba	-0.06159375
192	0xbc4734c7	-0.012158579
193	0xbde4b841	-0.11167956
194	0x3c93150b	0.01795437
195	0x3d94d0a9	0.07266361
196	0x3ca18f6e	0.019721713
197	0xbdd18277	-0.10229962
198	0xbd69d027	-0.057083275
199	0xbd562556	-0.0522817
200	0x3d997a69	0.07494051
201	0x3c437813	0.011930483
202	0x3d8421b2	0.06451739
203	0x3da2aba5	0.07942895
204	0x3d8700a3	0.06591918
205	0xbd9c075f	-0.076185934
206	0xbe113c9f	-0.14183281
207	0xbe3d2913	-0.184727
208	0xbba376e1	-0.0049885367
209	0x3d1b18d3	0.03786547
210	0xbd2fea17	-0.042947855
211	0x3c4e8a77	0.012606255
212	0xbce56817	-0.028003735
213	0xbdb8c7ca	-0.09022482
214	0x3cb2ac4e	0.021810677
215	0xbc1266bf	-0.008935629
216	0xbd77f3d4	-0.060535267
217	0xbda9f41b	-0.082985125
218	0xbe143890	-0.14474702
219	0x3d390b43	0.045176756
220	0x3d7e2f91	0.06205708
221	0xbcf1e74a	-0.029529233
222	0xbe0a820a	-0.13526168
223	0xbdc8f4bc	-0.098123044
224	0x3c1f746a	0.009732345
225	0xbb19de9c	-0.0023478633
226	0xbdb23f7c	-0.08703515
227	0xbe369718	-0.17831075
228	0x3d89f2e0	0.06735778
229	0x3dd2b456	0.102883026
230	0x3d06fb3a	0.032954432
231	0xbe199647	-0.14998733
232	0x3d504557	0.050847378
233	0x3d529bd5	0.051418144
234	0xbd277518	-0.040883154
235	0xbb6b4a61	-0.0035902488
236	0x3db588b7	0.08863967
237	0x3d263cdf	0.040585395
238	0xbdc4530e	-0.09586154
239	0x3bed4fc4	0.007242175
240	0xbb10312b	-0.0022001963
241	0xbe2c1674	-0.1680544
242	0xbdb89e7f	-0.09014606
243	0x3ca2af99	0.019859122
244	0xbe0ce08b	-0.13757531
245	0xbdbf0da0	-0.09328771
246	0x3cd4474e	0.025912907
247	0xbc8cd98c	-0.017193578
248	0x3d29f212	0.041490622
249	0xbe08332b	-0.13300769
250	0xbc45f542	-0.0120824
251	0x3e0530d8	0.13006914
252	0xbdfa554d	-0.12223301
253	0xbdb33259	-0.087498374
254	0x3d2ed4a9	0.042683277
255	0xbdf454df	-0.119302504

l2.weight f4 [256, 256]
0	0xbd9b0593	-0.075694226
1	0x3e0e4fa2	0.13897565
2	0xbca04e58	-0.019568607
3	0x3d5d6de1	0.054059867
4	0xbd7dd997	-0.061975088
5	0xbd24e550	-0.040257752
6	0xbace928c	-0.0015760227
7	0x3ccefea0	0.025267899
8	0xbdde179a	-0.108443454
9	0xbd6a8a2a	-0.05726067
10	0x3b9c664f	0.0047729383
11	0xbd07b7ec	-0.033134386
12	0xbd53c2ef	-0.051699575
13	0xbdae62bf	-0.08514928
14	0xbdb5d1b5	-0.08877889
15	0xbd5f3a23	-0.054498803
16	0xbd66551f	-0.05623352
17	0xba07d880	-0.00051821023
18	0xbca2d5c8	-0.01987733
19	0xbdd36f95	-0.10324017
20	0x3c13686d	0.008997065
21	0xbdbfc405	-0.0936356
22	0xbdc74c27	-0.09731322
23	0xbdc87692	-0.097882405
24	0xbd0e483d	-0.03473686
25	0x3d18fc81	0.03735018
26	0x3bfe4a6e	0.0077603376
27	0xb9e7480e	-0.00044113438
28	0xbccab887	-0.024746193
29	0xbd542209	-0.05179027
30	0x3d1fc30e	0.039004378
31	0x3c51e6d0	0.012811378
32	0xbd1d4792	-0.038398333
33	0x3b21a1ac	0.0024663014
34	0x3d93b1b0	0.072116256
35	0xbd31b1cb	-0.043382447
36	0xbd079ea6	-0.033110283
37	0xbd0db8c5	-0.034600038
38	0xbd7b7d41	-0.06139875
39	0xbcaba0f3	-0.02095077
40	0xbcc9bf89	-0.024627464
41	0xbd8aafe6	-0.06771831
42	0xbbe1e07e	-0.0068932166
43	0xbd7a5ca5	-0.06112351
44	0xbda97197	-0.08273619
45	0xbd97894f	-0.073992364
46	0xbcc31403	-0.023813253
47	0x3d08e242	0.0334189
48	0xbd880f2f	-0.06643521
49	0xbd331999	-0.043725584
50	0xbdacc8ac	-0.084367126
51	0x3c4e47f8	0.012590401
52	0xbc19c5c8	-0.009385534
53	0xbc832e8a	-0.016013402
54	0xbd3dfcf4	-0.046383813
55	0xbcf655d3	-0.030070221
56	0xbd90d0b0	-0.07071054
57	0xbdaafe2b	-0.0834926
58	0xbd54763e	-0.051870577
59	0xbd4b806c	-0.04968302
60	0x3d42bc42	0.047542818
61	0x3bf98826	0.007615107
62	0xbdf1f3db	-0.1181409
63	0xbda5ed27	-0.08101874
64	0xbd5b7cde	-0.05358588
65	0x3c596332	0.013268279
66	0xb9cd4a77	-0.00039156128
67	0xbdbeeabb	-0.09322115
68	0xbdf82301	-0.121160515
69	0xbb7eb397	-0.0038864368
70	0xbd870a19	-0.06593723
71	0x3d06f1ce	0.032945447
72	0xbcbbbba1	-0.022916617
73	0x3d09fe36	0.0336897
74	0xbdba6f6a	-0.09103282
75	0x3bcd5de5	0.0062672966
76	0xbd55bb35	-0.052180488
77	0xbd5f716a	-0.05455152
78	0xbdcbe376	-0.09955494
79	0xbcd7d281	-0.026345493
80	0xbd817cf0	-0.06322658
81	0xbc48f022	-0.012264283
82	0xbd3b8fec	-0.04579155
83	0xbcc883f4	-0.024476983
84	0xbc91adf6	-0.017783146
85	0xbd9001b0	-0.07031572
86	0xbd4f33b6	-0.050586425
87	0xbb8c5d36	-0.0042835725
88	0xbcbf2ec9	-0.023337739
89	0xbd169122	-0.036759503
90	0xbc9b0d3c	-0.01892721
91	0xbd4d3ead	-0.0501086
92	0xbdd76156	-0.10516612
93	0xbd5461e4	-0.05185117
94	0xbdd3a66b	-0.10334476
95	0xbdb71b69	-0.08940775
96	0xbcfe2caf	-0.031027166
97	0xbd550678	-0.052008122
98	0x3c2c555e	0.0105184
99	0x3c3c014c	0.011474919
100	0xbdc94095	-0.09826771
101	0xbcba0c53	-0.022710955
102	0x3d12fbcd	0.035884667
103	0xbca0003f	-0.019531367
104	0x3caa787e	0.020809408
105	0x3d43fd8e	0.04784923
106	0xbc3ed36d	-0.0116470875
107	0xbc75ecd2	-0.015010076
108	0xbcf569ce	-0.029957678
109	0xbdf37d8a	-0.11889179
110	0xbd725430	-0.05916232
111	0xbd1eda45	-0.038782377
112	0xbc09c174	-0.008407939
113	0xbd9b967d	-0.07597063
114	0xbd74092f	-0.05957907
115	0xbd9025ce	-0.07038461
116	0xbd0713a6	-0.032977723
117	0x3d192004	0.037384048
118	0xbc47965a	-0.012181843
119	0x3dd94e20	0.10610604
120	0xbd71c526	-0.059025906
121	0x3b1f5b40	0.0024315864
122	0xbd81ec55	-0.06343905
123	0xbd2e8864	-0.04261054
124	0xbe06ebf3	-0.13175945
125	0x3d276bac	0.04087417
126	0xbd94afb5	-0.07260076
127	0xbcf2d56c	-0.029642783
128	0xbd83ab5c	-0.064291686
129	0xbd1b8d65	-0.03797664
130	0xbd93437e	-0.071906075
131	0xbd59ab25	-0.05314173
132	0x3c217c38	0.009856276
133	0xbd7ec5df	-0.062200423
134	0xbd95f092	-0.07321276
135	0x3d57ba57	0.052667942
136	0xbc0c5f12	-0.008567588
137	0xbcda3600	-0.026637077
138	0xbc073704	-0.008252863
139	0xbc6541a3	-0.0139927
140	0xbdf92dab	-0.121669136
141	0xbcacc8f5	-0.021091918
142	0xbc12cabc	-0.008959468
143	0x3e19952b	0.1499831
144	0xbd9086ce	-0.07056962
145	0xbdb9ccf2	-0.09072293
146	0xbcd92777	-0.026508076
147	0xbcf1291c	-0.029438548
148	0x3b9328fa	0.004490969
149	0xbc2f3c4a	-0.010695526
150	0xbd35185a	-0.044212677
151	0xbdaf28e2	-0.0855272
152	0x3d7e377e	0.06206464
153	0xbd78249b	-0.060581785
154	0xbde6bb60	-0.11266208
155	0xbd2c0a83	-0.042002212
156	0xbcfb637f	-0.030687092
157	0x3d55f3f6	0.052234612
158	0xbdc2c399	-0.095099635
159	0xbcd6fbc7	-0.026243104
160	0xbdfb30a3	-0.12265136
161	0xbbe2acbf	-0.0069175656
162	0xbd6ca36e	-0.057773046
163	0xbd08eb8d	-0.033427764
164	0xbde725e9	-0.11286528
165	0xbc21a940	-0.0098670125
166	0xbd8b02c0	-0.06787634
167	0xbd19309a	-0.037399866
168	0x3d157624	0.03648962
169	0xba9dd179	-0.0012040577
170	0x3c90f474	0.01769469
171	0xbd9a1e9b	-0.07525369
172	0xbdc5658f	-0.096385114
173	0xbd89c4db	-0.06727
174	0x39bb4bfd	0.00035724035
175	0x3b9d8802	0.004807473
176	0xbbd3c94c	-0.0064632054
177	0xbd36aec4	-0.044600263
178	0xbd17d642	-0.037069567
179	0x3cac01e4	0.020996995
180	0xbd8ae330	-0.06781614
181	0xbd45dc0f	-0.048305567
182	0xbbdd02a0	-0.0067446977
183	0xbcf4d796	-0.029887956
184	0xbdd6b49c	-0.10483667
185	0xbde37480	-0.11106205
186	0xbd662e36	-0.056196414
187	0xbd5f62ab	-0.054537456
188	0xbd9d4f7f	-0.07681178
189	0xbddd7c00	-0.10814667
190	0xbd433fdd	-0.047668327
191	0x3d7596ce	0.05995827
192	0x3d90045b	0.07032081
193	0xbd8c233e	-0.068426594
194	0xbde29724	-0.11063984
195	0xbc771208	-0.015079983
196	0xbd8d1567	-0.06888848
197	0x3c3dd396	0.011586091
198	0xbdd87370	-0.10568893
199	0xbb9c0761	-0.004761622
200	0xbd93b0a0	-0.07211423
201	0xbc01cd2e	-0.007922454
202	0x3cb926e1	0.022601547
203	0xbd4d5111	-0.05012614
204	0xbdceeef6	-0.10104172
205	0xbd9255c8	-0.07145268
206	0x3d3807fa	0.044929482
207	0x3d46ebb7	0.04856464
208	0xbbdd10b7	-0.0067463773
209	0xbd2d3dfa	-0.042295434
210	0xbdbea66a	-0.09309085
211	0xbccbd5d2	-0.02488223
212	0xbdf1c599	-0.11805267
213	0xba6f86de	-0.0009137223
214	0xbdc676e8	-0.09690648
215	0xbd1ad784	-0.037803188
216	0xbde7853d	-0.1130471
217	0xbc84864d	-0.01617732
218	0xbdb90054	-0.09033266
219	0xbdeeabc8	-0.116538584
220	0x3ce9cbd0	0.028539568
221	0xbd61f708	-0.055167228
222	0xbc99c530	-0.018770784
223	0xbc90eaec	-0.017690144
224	0xbcdcca7d	-0.026952023
225	0xbd67dbea	-0.05660621
226	0xbd691ed2	-0.05691416
227	0x3da1dbd8	0.0790326
228	0xbddae231	-0.10687674
229	0xbdd9b846	-0.106308505
230	0xbd7e2e36	-0.06205579
231	0x3cf0bcf8	0.029386982
232	0xbdd8e5c4	-0.10590699
233	0xbd903d3f	-0.07042932
234	0x3bc3d429	0.005976219
235	0xbde2870e	-0.11060916
236	0x3b92ec94	0.0044837687
237	0xbd685113	-0.056717943
238	0xbdd2699d	-0.102740504
239	0xbdc7166f	-0.09721076
240	0x3af5c587	0.0018750884
241	0x3d6994e0	0.057026744
242	0xbd1105a8	-0.035405785
243	0xbcaa984c	-0.020824574
244	0xbdbcb74e	-0.0921465
245	0x3da28a90	0.07936585
246	0xbdd165a6	-0.10224466
247	0x3dc6e137	0.09710925
248	0xbd838114	-0.06421104
249	0xbc90c426	-0.017671656
250	0xbdbd2f5a	-0.09237547
251	0x3ca47a1d	0.02007776
252	0xbd4e2d8c	-0.050336406
253	0x3b84c633	0.0040519475
254	0x3c667ae1	0.014067383
255	0x3d98a2b7	0.074529104

l2.bias f4 [256]
0	0xbde79b0e	-0.11308871
1	0xbcea8f69	-0.028632836
2	0xbd8a2eb4	-0.06747189
3	0x3db51ed9	0.08843774
4	0xbb836210	-0.0040094927
5	0xbdc3768c	-0.095440954
6	0x3e2c3486	0.16816911
7	0xbad28371	-0.0016060901
8	0xbdb39ec4	-0.087705165
9	0x3cbe7074	0.023246981
10	0xbc0329be	-0.008005558
11	0xbd3d7c91	-0.046261374
12	0xbcf2f3ef	-0.029657332
13	0xbbcb7b8a	-0.0062097954
14	0xbd61d841	-0.055137876
15	0xbdb26116	-0.08709924
16	0x3d8fe26b	0.07025608
17	0xbd04bf10	-0.032408774
18	0xbd837c83	-0.06420233
19	0xbd5ad55f	-0.053426143
20	0xbdb86d47	-0.09005218
21	0xbd38f1cf	-0.04515248
22	0xbc0efdad	-0.008727473
23	0xbd99afb7	-0.07504218
24	0xbcfd8fe1	-0.030952396
25	0xbe01f8e3	-0.12692599
26	0xbbf04485	-0.007332387
27	0xbbe1899a	-0.0068828585
28	0x3ccb11d0	0.024788767
29	0xbd2d0333	-0.04223938
30	0xbdd0a528	-0.10187751
31	0xbd8c0984	-0.068377525
32	0xbc51f80e	-0.0128154885
33	0xbd22b5c0	-0.03972411
34	0xbdf902c9	-0.12158734
35	0xbd141bf8	-0.036159486
36	0xbd9608d2	-0.07325901
37	0xbcc907f7	-0.02453993
38	0xbd4bf583	-0.049794685
39	0xbddab052	-0.10678162
40	0x3d3f875e	0.046759956
41	0xbd22b1a4	-0.039720193
42	0xbca5afd4	-0.020225443
43	0xbd8ad557	-0.067789726
44	0xbc121508	-0.008916147
45	0xbc925033	-0.017860508
46	0xbd439104	-0.04774572
47	0xbdc59d51	-0.09649146
48	0xbddae9dc	-0.106891364
49	0xbd76a26a	-0.060213484
50	0xbc3a2f64	-0.011363838
51	0xbbefe141	-0.0073205535
52	0xbdde3be2	-0.108512655
53	0xbda3f47f	-0.08005618
54	0xbdb053cd	-0.08609734
55	0xbdde1f6c	-0.10845837
56	0xbd2c0e73	-0.042005967
57	0x3d95c539	0.07313008
58	0xbc7b995c	-0.015356388
59	0xbc852984	-0.016255148
60	0xbd3ecf45	-0.046584386
61	0x3da923dd	0.082587935
62	0xbdd5ea6f	-0.10445105
63	0xbd99dbcb	-0.07512625
64	0x3b22d154	0.0024844008
65	0xbdfe4049	-0.12414605
66	0xbce55ecc	-0.027999304
67	0xbd9305cd	-0.07178841
68	0xbd54ab95	-0.051921446
69	0xbd629d80	-0.055325985
70	0xbdde38ae	-0.108506545
71	0xbd0d2830	-0.034462154
72	0xbd780698	-0.060553163
73	0xbdbaa1ce	-0.09112893
74	0x3b8bc91c	0.0042659175
75	0xbd65e153	-0.05612309
76	0xbd1a8c7b	-0.03773163
77	0xbb0a48f5	-0.0021100615
78	0xbcb0b621	-0.02157122
79	0xbddf53d7	-0.10904663
80	0xbda1cd99	-0.07900543
81	0xbd9c3279	-0.076268144
82	0x3c80b234	0.015709974
83	0xbdacce52	-0.0843779
84	0x3c5c014e	0.013428045
85	0xbcfaaeec	-0.030600987
86	0xbd9bfa7c	-0.076161355
87	0xbca013a2	-0.019540612
88	0xbd1168b7	-0.035500254
89	0xbdb0e875	-0.08638088
90	0xbd917ce0	-0.07103896
91	0xba381c1e	-0.0007023233
92	0xbd3b386c	-0.045708105
93	0xbc272f3b	-0.010204132
94	0xbd3d7c1f	-0.04626095
95	0xbd2615b1	-0.04054803
96	0xbd9a106b	-0.07522663
97	0x3e13aaaf	0.1442058
98	0xbd2679dd	-0.04064356
99	0xbd3b5de1	-0.045743827
100	0xbd826c4a	-0.06368311
101	0xbd835983	-0.064135574
102	0xbdb80eab	-0.08987173
103	0xbdfa3c16	-0.12218492
104	0x3db21ad3	0.086965226
105	0xbb9098c5	-0.004412743
106	0xbc99bb8b	-0.018766185
107	0xbdc4c4f3	-0.096078776
108	0xbdbeeebe	-0.0932288
109	0xbcb986e4	-0.022647329
110	0xbc20049c	-0.009766724
111	0xbd684cc4	-0.056713834
112	0xbd01fc43	-0.031734716
113	0xbdc2b773	-0.095076464
114	0xbd940f4c	-0.0722948
115	0xbc2e6ca9	-0.010646024
116	0x3b69aebc	0.0035657128
117	0xbcf1b671	-0.02950594
118	0xbd7e54c0	-0.062092543
119	0xbda57a6a	-0.08079989
120	0xbce0bb2c	-0.027433
121	0x3c5e3154	0.013561565
122	0xbcbcaa61	-0.023030462
123	0xbdce246a	-0.10065539
124	0xbc9d3eb4	-0.019194938
125	0x3d05f5fa	0.032705285
126	0xbd9e350a	-0.0772496
127	0x3d204da0	0.03913653
128	0xbdd23945	-0.102648295
129	0xbe094a49	-0.13407244
130	0xbdcac66a	-0.09901126
131	0xbd8e0130	-0.0693382
132	0xbddff0f7	-0.10934632
133	0xbcf80826	-0.030277323
134	0xbb65abf8	-0.0035045128
135	0x3c184575	0.009293904
136	0xbd4a08d4	-0.049324825
137	0xbe10f0a1	-0.14154293
138	0xbd970b71	-0.07375229
139	0xbd78182c	-0.060569927
140	0xbd4e8005	-0.050415058
141	0xbdc26523	-0.094919465
142	0xbd129627	-0.035787728
143	0xbc599f93	-0.013282674
144	0xbd71e408	-0.05905536
145	0xbc198a2d	-0.009371323
146	0xbd5ad52b	-0.05342595
147	0xbd842318	-0.06452006
148	0xbc5f451b	-0.013627316
149	0x3d7ea204	0.06216623
150	0xbd50c311	-0.05096728
151	0xbd72a6cc	-0.0592411
152	0xbda331fc	-0.07968518
153	0x3e4dd5e7	0.20101129
154	0xbd16a920	-0.036782384
155	0xbd546273	-0.0518517
156	0xbd201145	-0.03907897
157	0xbe08d0b1	-0.1336086
158	0x3ba5a3b8	0.005054917
159	0xbd26a826	-0.040687703
160	0xbd7c6843	-0.06162287
161	0x3cd554a1	0.02604133
162	0xbd938877	-0.07203763
163	0xbdb04ca9	-0.08608372
164	0xbdd2d159	-0.10293836
165	0x3ce3258a	0.027727861
166	0xbd971624	-0.0737727
167	0xbdee9b74	-0.11650744
168	0x3c62c69b	0.013841297
169	0x3cfb6c73	0.030691361
170	0xbdb8dee2	-0.090268865
171	0xbd5ab6f4	-0.053397134
172	0xbdb02f74	-0.08602801
173	0xbd22c479	-0.039738152
174	0xbd81182b	-0.06303438
175	0xbd995475	-0.07486812
176	0xbe0e0346	-0.13868436
177	0xbd4bb32d	-0.049731422
178	0x3e42ded8	0.1903032
179	0xbd79d9b0	-0.06099862
180	0xbccf2d78	-0.025290236
181	0x3cac651d	0.021044308
182	0xbacbb3bc	-0.0015541236
183	0xbdea5ed4	-0.11443868
184	0xbd62cf79	-0.055373643
185	0xbd1c2e6b	-0.038130205
186	0xbd0f650c	-0.035008475
187	0x3d6fe77c	0.05857037
188	0xbcedb59a	-0.029017258
189	0xbdb4ec06	-0.088340804
190	0xbd69407a	-0.056946255
191	0xbd114dcd	-0.035474587
192	0xbd236658	-0.039892524
193	0xbdbc40b6	-0.0919203
194	0xbdc0212a	-0.093813255
195	0xbde18fdf	-0.11013769
196	0xbc65e441	-0.014031471
197	0xbced3b07	-0.02895881
198	0xbda3d4fb	-0.07999607
199	0xb9ec0cf5	-0.00045023081
200	0xbaadbcca	-0.0013255116
201	0xbda40719	-0.08009166
202	0xbcc411ce	-0.023934271
203	0xbde49a0d	-0.11162195
204	0xbdd93f3b	-0.106077634
205	0xbd731dc1	-0.059354547
206	0xbd870dc8	-0.065944254
207	0xbd357969	-0.04430524
208	0xbd379d0e	-0.044827513
209	0xbdeec2d8	-0.11658257
210	0xbdf783ea	-0.120857075
211	0xbbebf0c3	-0.007200332
212	0x3beb3fb6	0.007179226
213	0xbd9acc73	-0.07558527
214	0xbd37606c	-0.04476969
215	0xbd805ce6	-0.06267719
216	0xbe0ac02b	-0.13549869
217	0xbddb52ae	-0.10709129
218	0xbd71a80a	-0.058998145
219	0xbd60691f	-0.05478775
220	0xbdf9300b	-0.121673666
221	0xbd23fea2	-0.04003776
222	0xbdaaf875	-0.08348171
223	0xbd1cd563	-0.03828944
224	0xbd3d88e6	-0.046273135
225	0x3dad764f	0.08469831
226	0x3c5c47e7	0.013444877
227	0xbd44d40b	-0.048053782
228	0x3dbd80ac	0.09253058
229	0xbd094c73	-0.033520173
230	0xbc6ae344	-0.014336411
231	0xbd7e38e1	-0.062065963
232	0xbdeecd28	-0.11660224
233	0xbd882d62	-0.06649281
234	0xbdb9b767	-0.09068184
235	0x400efef7	2.2343118
236	0xbd4300ab	-0.04760806
237	0x3e2c25b1	0.16811253
238	0xbd6be74e	-0.057593636
239	0xbd0820ca	-0.033234395
240	0x3cd8e42b	0.026475986
241	0x3d8c080e	0.06837474
242	0xbdbfd169	-0.09366114
243	0xbd15ac71	-0.036541406
244	0x3c842358	0.016130134
245	0xbd108787	-0.0352855
246	0xbc8fea63	-0.017567819
247	0xbd830665	-0.06397704
248	0xbd254525	-0.040349144
249	0xbd2ee9f1	-0.042703573
250	0xbc9c0075	-0.019043187
251	0xbd5e1f43	-0.054229032
252	0xbdda0e0a	-0.10647209
253	0x3e2b2227	0.16712247
254	0xbac1b050	-0.0014777277
255	0xbdcf68ab	-0.10127386

l3.weight f4 [3, 256]
0	0x3d92c00a	0.07165535
1	0xbc884ff9	-0.016639696
2	0xbcc5b2b0	-0.024133056
3	0xbdf40200	-0.11914444
4	0xbd4ba61d	-0.049718965
5	0xbdc8f2fc	-0.098119706
6	0xbfaff4be	-1.3746564
7	0xbd3afba0	-0.045650125
8	0xbd7ef24a	-0.062242784
9	0xbc76b3cf	-0.015057518
10	0xbd019ff2	-0.031646676
11	0x3d5abe2b	0.053404015
12	0x3e0248ec	0.1272313
13	0x3bac1ee5	0.0052527064
14	0xbd942083	-0.072327636
15	0xbdbe9a9a	-0.09306832
16	0x3d124145	0.035706777
17	0xbd810740	-0.06300211
18	0xbc7647a5	-0.01503173
19	0xbd45327e	-0.048143856
20	0x3d07985f	0.033104297
21	0xbd550710	-0.05200869
22	0xbd18c852	-0.037300415
23	0xbb0d2020	-0.002153404
24	0xbc8f9d27	-0.01753099
25	0xbc861d8d	-0.016371513
26	0x3d575f12	0.0525809
27	0xbab21787	-0.0013587334
28	0xbdb41c2a	-0.08794434
29	0x3cb2ce46	0.021826874
30	0xbdb3997a	-0.08769508
31	0xbd6dbe8d	-0.05804305
32	0xbd535302	-0.051592834
33	0xbca8baa6	-0.020596813
34	0xbdeb6346	-0.11493544
35	0x3c0a7e9a	0.008453036
36	0x3b0c5252	0.0021411371
37	0xbcf2521f	-0.029580174
38	0xbcdf58a5	-0.027263949
39	0xbd82ca02	-0.06386186
40	0xbb6fdf49	-0.0036601594
41	0xbd604a4e	-0.054758362
42	0xbcf4c9ba	-0.029881347
43	0xbc11896f	-0.008882864
44	0xbbfd13d4	-0.007723311
45	0xbd396539	-0.04526255
46	0xbd581b23	-0.052760255
47	0xbd4d0871	-0.05005688
48	0x3d4d3e54	0.05010827
49	0x3b59a71d	0.003321118
50	0x3d450cd6	0.048107944
51	0xbd5cbe28	-0.053892285
52	0xbe649681	-0.22323038
53	0xbd99e669	-0.075146504
54	0xbe80fd12	-0.25193077
55	0xbc9f6b0e	-0.019460227
56	0xbdc00c43	-0.09377339
57	0x3d853cd7	0.06505745
58	0xbd36d1d9	-0.04463372
59	0x3d19bf79	0.03753612
60	0xbc9641fd	-0.018342013
61	0x3d7e597e	0.062097065
62	0x3d59747d	0.053089608
63	0x3c3a9658	0.011388384
64	0xbd09e0fd	-0.03366183
65	0xbc807181	-0.015679123
66	0xbc6c3e9c	-0.014419224
67	0x3d59e80c	0.053199813
68	0x3d36e68a	0.044653453
69	0xbd072860	-0.03299749
70	0xbd9d8974	-0.07692233
71	0xbde4d9a7	-0.111743264
72	0xbd9f529e	-0.0777943
73	0xbd1fb9e1	-0.038995627
74	0xbd54f24e	-0.051988892
75	0x3cb276c1	0.021785142
76	0xbcfcab74	-0.030843474
77	0xbd98cebb	-0.07461306
78	0x3d0b00b2	0.03393621
79	0x3d41b895	0.04729517
80	0xbcd457a6	-0.0259207
81	0x3bb081e1	0.0053865765
82	0x3c420f75	0.011844506
83	0xbcaf2a3c	-0.021382444
84	0xbd60dd38	-0.05489847
85	0x3ce5dd3d	0.028059596
86	0xbc6b7291	-0.0143705765
87	0x3d4f5cbe	0.050625555
88	0xbcf1f40a	-0.029535312
89	0x3d7bd664	0.061483756
90	0xbb2d4690	-0.0026439764
91	0x3cfe705b	0.031059435
92	0xbce39bbd	-0.027784223
93	0xbda57212	-0.08078398
94	0x3d957734	0.07298127
95	0xbdabeb88	-0.083945334
96	0x3d1cc5dd	0.038274635
97	0x3e039233	0.1284874
98	0xbd296720	-0.041358113
99	0xbd25cd06	-0.04047873
100	0xbde48777	-0.1115865
101	0xbc7a8ced	-0.015292388
102	0x3d12dffd	0.035858143
103	0x3dbb5112	0.09146322
104	0x3d57d0df	0.05268943
105	0xbd2763b0	-0.040866554
106	0xbd5a59b4	-0.053308204
107	0xbdd71e31	-0.105038054
108	0x3bb95fd5	0.005657176
109	0xbc8d309b	-0.017235091
110	0xbe4c3498	-0.19941938
111	0xbccff6bf	-0.025386212
112	0xbdd73096	-0.10507314
113	0x3badf437	0.0053086537
114	0x3d801812	0.06254591
115	0xbd2618b4	-0.040550902
116	0xbd659f32	-0.056060024
117	0x3cf5a8ca	0.029987711
118	0xbd86888b	-0.06569012
119	0x3d2adb5a	0.041713096
120	0xbc54bda4	-0.012984667
121	0xbd4cbea9	-0.049986515
122	0xbda6be92	-0.08141817
123	0xbcf2db70	-0.029645652
124	0xbc3a36a3	-0.0113655655
125	0xbce32daf	-0.027731745
126	0xbcec5ea3	-0.02885372
127	0x3d1d2277	0.038362946
128	0xbddf0064	-0.108887464
129	0xbdeda38d	-0.116034605
130	0x3d5837cf	0.0527876
131	0xbc8e4201	-0.017365457
132	0xbd968cc6	-0.07351069
133	0xbd6549d2	-0.055978604
134	0xbc92a9b5	-0.017903188
135	0x3c009d64	0.007850025
136	0xbd563a0c	-0.05230145
137	0xbdbfd85c	-0.09367439
138	0xbd3963bd	-0.045261133
139	0xbcbc3be8	-0.022977784
140	0xbde5f954	-0.11229196
141	0x3ad41203	0.0016179684
142	0xbdc169e9	-0.09444029
143	0xbd2c74df	-0.042103644
144	0x3d38f174	0.045152143
145	0xbde2e220	-0.11078286
146	0x3bec066b	0.0072029135
147	0xbd8bdd0f	-0.06829273
148	0xbd09ec8a	-0.033672847
149	0xbe138dee	-0.1440961
150	0x3c6e589c	0.014547493
151	0xbe10c203	-0.1413651
152	0xbce17c3b	-0.027525058
153	0x3e540cff	0.20708083
154	0xbd23f81b	-0.040031534
155	0xbdd68f71	-0.10476578
156	0xbdbd7401	-0.092506416
157	0xbd29688f	-0.04135948
158	0xbcea17b7	-0.028575761
159	0xbd06751e	-0.032826535
160	0xbd6814b7	-0.05666038
161	0xbc0ddbdc	-0.008658376
162	0x3d2c0d13	0.042004656
163	0x3c14b91f	0.009077339
164	0xbc8dce05	-0.017310152
165	0xbd29614e	-0.041352563
166	0xbc52d68a	-0.012868533
167	0xbd5c5563	-0.05379237
168	0x3d2af876	0.041740857
169	0x3d09cfa7	0.0336453
170	0xbd250956	-0.040292107
171	0xbc841818	-0.01612477
172	0xbde6677d	-0.112502076
173	0x3d209dea	0.0392131
174	0xbd6abc88	-0.057308704
175	0xbda52d82	-0.080653206
176	0xbe025a0c	-0.12729663
177	0xbd054d0d	-0.032544184
178	0x3e89c21e	0.26905912
179	0xbbdaaf83	-0.0066737547
180	0xbe2f4194	-0.1711486
181	0xbcd88aa2	-0.026433293
182	0xbbaae0b9	-0.0052147773
183	0xbd07e312	-0.033175536
184	0xbdb5b142	-0.088717
185	0xbcefbe32	-0.029265497
186	0xbca93bc8	-0.020658389
187	0x3dc865e5	0.0978506
188	0x3cb5aef0	0.022178143
189	0xbdcae9b5	-0.09907857
190	0x3d367f58	0.04455504
191	0x3b476eb2	0.003043097
192	0xbe120b25	-0.14262064
193	0xbad65a84	-0.001635388
194	0x3d2bc66c	0.041937277
195	0x3ca8f12c	0.020622812
196	0xbddef02b	-0.10885652
197	0xbd45dca8	-0.048306137
198	0xbd4dae7f	-0.05021524
199	0x3dbaf077	0.09127896
200	0xbc39102e	-0.011295361
201	0xbd3b196e	-0.04567855
202	0xbd415631	-0.04720134
203	0xbcc29f28	-0.023757532
204	0xbd5c941e	-0.053852193
205	0x3c66382d	0.014051479
206	0x3a6568e2	0.00087512855
207	0xbce62741	-0.02809489
208	0xbdc17e25	-0.09447888
209	0xbd8788da	-0.06617899
210	0xbd03203f	-0.032013174
211	0xbd03fe9c	-0.032225236
212	0xbdabae03	-0.083827995
213	0xbda677ae	-0.08128296
214	0xbdf19864	-0.11796644
215	0x3cb7f14d	0.022453928
216	0xbd8c244a	-0.06842859
217	0x3d97cbae	0.07411896
218	0xbd86477e	-0.06556605
219	0x3c943040	0.018089414
220	0xbc6aa40f	-0.014321341
221	0xbdabeb8a	-0.08394535
222	0xbcf41c5f	-0.029798685
223	0xbdf881c5	-0.121341266
224	0x3d9f666a	0.07783206
225	0x3d80a6e9	0.062818356
226	0xbd4df0c4	-0.05027844
227	0xbbc3703b	-0.0059643066
228	0x3e0523a3	0.13001876
229	0xbdaa033b	-0.083013974
230	0xbdc729e5	-0.097247876
231	0xbddaa2c8	-0.10675579
232	0xbc63b34b	-0.013897727
233	0xbcf182f1	-0.029481383
234	0x3d3b7867	0.04576912
235	0xc0240431	-2.5627558
236	0x3d31d0d4	0.043412045
237	0x3dfb3ab9	0.1226706
238	0xbd84261e	-0.06452583
239	0x3d372ca0	0.044720292
240	0xbde148cb	-0.11000212
241	0xbdba8d8f	-0.091090314
242	0xbd0a786b	-0.033806246
243	0xbc22f7a2	-0.009946736
244	0x3babda95	0.005244563
245	0xbcc6ff35	-0.024291614
246	0xbe14c3be	-0.14527795
247	0xbd4e73f6	-0.050403558
248	0xbd011291	-0.031511847
249	0xbd5c9f1d	-0.05386268
250	0xbd901d4b	-0.07036837
251	0xbdbe8308	-0.09302336
252	0xbd8e4328	-0.06946403
253	0x3e717d54	0.23582965
254	0x3d4a13d2	0.04933531
255	0xbd2b99bc	-0.04189466

l3.bias f4 [3]
0	0x3de1b19e	0.11020206
1	0xbd58ca2f	-0.052927192
2	0xbdbad1e7	-0.09122067
