gespeicherte_Klassen/models/10.09.2022.19.17.34/1SAVE.pt (torch, 363223 bytes, 6 tensors)

l1.weight f4 [256, 83]
000000 d0 17 03 bc 76 b4 16 be a9 25 12 3d cd 6d cf 3c
       -0.008001283 -0.14717278 0.035680447 0.025320912
000010 f2 79 9a bd 17 c6 30 be f0 e9 9e bd e8 fb 1d 3d
       -0.075427905 -0.17263065 -0.07759464 0.038570315
000020 d8 e4 0f be 66 0c d6 bd 9b 7f 81 bd 44 4e db bd
       -0.1405214 -0.104515836 -0.06323167 -0.10708287
000030 74 05 a0 3d 00 da d2 3d ac 5a 19 3d 6c 4f 60 bd
       0.0781354 0.102954865 0.037439987 -0.054763243
000040 d3 89 c6 bd a6 00 a7 bc 24 0b a5 bd bf 14 02 3d
       -0.09694257 -0.020386051 -0.080587655 0.031758066
000050 8a 31 a7 bd 30 29 23 bd e0 c7 2e bb c8 b4 e4 bc
       -0.08163746 -0.0398342 -0.0026669428 -0.027918234
000060 b3 a7 5f bd 31 f1 b2 bd 06 86 8d bc 3a b7 a9 3c
       -0.05460329 -0.0873741 -0.017275821 0.020717252
000070 37 5f 00 bc 83 98 ac bd e8 45 bc bc f5 c5 34 3d
       -0.007835201 -0.08427527 -0.022982553 0.0441341
000080 67 cb bd bd e1 34 4a 3d 99 9f 21 bd 2a 55 12 3e
       -0.092673115 0.049366836 -0.039458845 0.142903
000090 4a 3a 93 bd 01 0d 51 3e c0 e0 8c bd d6 3e c6 bd
       -0.07188852 0.20415117 -0.06878805 -0.09679954
0000a0 cd 0f 8e 3e 99 ae 9f bd 96 3d 49 bd 73 d0 95 3d
       0.2774643 -0.07796974 -0.049131 0.07315149
0000b0 25 80 8e bc 48 75 c8 3d 9a 9c 27 3d 51 d7 19 3e
       -0.017395088 0.097879946 0.04092083 0.15023543
0000c0 4b 44 a1 3d d7 a0 44 bb c0 5c 80 3d 62 e9 e8 bc
       0.07874354 -0.0030003095 0.06267691 -0.028431598
0000d0 70 a7 c7 3d 44 e2 8f bd 02 81 91 bd 2e c4 89 bd
       0.09748733 -0.070255786 -0.071046844 -0.067268714
0000e0 f6 9d c3 3d 35 a7 07 3e cf 03 37 3e 3b 87 85 bd
       0.09551613 0.13247378 0.17872547 -0.06519934
0000f0 bc 79 29 3d 15 c5 64 bd 55 ab 06 be 29 32 e8 3b
       0.04137586 -0.055852015 -0.13151295 0.0070860577
000100 d0 9a a0 bd 9d ff c8 3c 6f b3 fb ba 80 3c cb bd
       -0.07842028 0.024535948 -0.0019203256 -0.09923649
000110 f2 20 73 bd d4 02 65 3d 0c fc 55 3d 5b 87 06 bc
       -0.05935759 0.0559109 0.052242324 -0.008210982
000120 70 2e 8e 3c 62 3f 1f bd 7d 5e 53 bd 06 6f 8a bd
       0.017356128 -0.038878806 -0.051603783 -0.06759457
000130 c0 4b b6 bd 84 49 9b bc 78 76 10 3d 38 16 f1 bc
       -0.08901167 -0.018955953 0.03526923 -0.02942954
000140 28 5e cf bd e5 e2 69 bd 40 d6 98 3d e0 7b 98 bb
       -0.10125381 -0.05710115 0.0746274 -0.004653439
000150 2d 20 3c bd b3 89 0c bd d9 68 88 ba f1 d6 b2 bc
       -0.045929123 -0.034311008 -0.0010407224 -0.021831008
000160 f1 4a fb bd 00 34 e2 3a 22 56 31 3c 9e 43 ae bd
       -0.12270153 0.0017257929 0.010823758 -0.08508991
000170 de 23 c2 3d 38 d8 32 3d 60 25 ea bb 38 04 02 3d
       0.094794974 0.043663234 -0.0071455687 0.031742305
000180 1f 5f d5 bd 6d f7 8b bd 90 bf 9e bc 1a 96 50 bc
       -0.104185335 -0.06834302 -0.019378453 -0.0127310995
000190 b2 d5 8a bd be 25 34 bd 08 87 da bc 62 61 be bd
       -0.067790404 -0.043981306 -0.026675716 -0.09295918
0001a0 52 e4 ba 3d a6 5f de bd 28 83 b7 3d d0 e8 eb 3c
       0.0912558 -0.10858087 0.08960563 0.028797537
0001b0 0c 1b 54 bd d2 ad e9 3c 8b a9 a2 bd 23 11 c5 bd
       -0.051783606 0.028525267 -0.07942494 -0.09622409
0001c0 af 98 de 3c 45 d8 49 bd 0e 6c d7 bd e8 bb b7 bd
       0.027172415 -0.049278516 -0.10518657 -0.08971387
0001d0 0f b1 9a bd bc c5 9e bc 30 8e ed bc 24 c8 62 bd
       -0.075533025 -0.019381396 -0.028998464 -0.05536665
0001e0 88 af 84 3d d6 ae 1f bd 58 36 29 3d b9 b0 9d bd
       0.064787924 -0.038985096 0.041311592 -0.07699723
0001f0 48 31 82 3c de 09 95 bd 7c 3f 21 3e 50 17 5a 3d
       0.01589264 -0.07277273 0.15746874 0.05324489
000200 be 9a 04 3e e4 a5 c2 3c be 6c 11 3e 86 b0 83 3d
       0.12949654 0.023760743 0.14201638 0.064301535
000210 cc e4 1b 3d de da 8e bd 92 fc be bd f6 9d c7 bd
       0.038059995 -0.06975339 -0.09325518 -0.097469255
000220 5c 5b 98 bd 5e c0 6c bd 76 b7 d8 bd dc da ab bc
       -0.074393004 -0.057800643 -0.105818674 -0.020978384
000230 80 95 c3 3d e9 db b1 bd c2 68 2c bd 7c 8a 8c bd
       0.09549999 -0.08684523 -0.042092092 -0.06862351
000240 e0 71 be 3c 92 3c cb bd 94 19 d9 bc 00 5d 13 bc
       0.02324766 -0.09923662 -0.026501454 -0.008994341
000250 ee 73 88 bd 6a da d4 3d 9f 1d cc bd d4 28 8c 3d
       -0.06662737 0.10393222 -0.09966587 0.06843725
000260 c1 f8 da bd 86 d5 9a bd 60 f9 51 bb 9b a3 4b bd
       -0.10691977 -0.075602576 -0.0032039508 -0.049716573
000270 76 66 d0 bd 24 3e 4d 3d e0 bf e9 3c 58 21 84 bc
       -0.10175793 0.05010809 0.028533876 -0.01612918
000280 3c 7d 92 bc ca 02 09 bd e8 c5 24 bc 14 7f 3d 3d
       -0.017881982 -0.033449925 -0.01005695 0.04626377
000290 80 28 c0 3d 3f 21 c8 bd 10 f1 0d bc 48 8f 09 bd
       0.09382725 -0.09771966 -0.008663431 -0.03358391
0002a0 ec 42 67 3c c7 62 da bd 51 92 c6 bc 6b fd a6 bd
       0.0141150765 -0.106633715 -0.024239691 -0.081538044
0002b0 10 88 e2 bc 14 00 32 bd cd 36 1a be 34 95 55 bd
       -0.02765277 -0.043457106 -0.15059967 -0.052144244
0002c0 5e 89 5e bd be d0 d1 bd 52 a4 a3 3d fc 5c 2c 3d
       -0.054330222 -0.102448925 0.07990326 0.042080864
0002d0 0e d2 b2 bd 32 a7 c3 3d c4 be 52 bd 24 fd f6 bd
       -0.08731471 0.09553374 -0.05145146 -0.120600015
0002e0 db 73 51 bd f6 6b f2 bd 0b 38 10 3d 16 c6 b0 bd
       -0.05113588 -0.11836998 0.035209697 -0.08631532
0002f0 25 4e 62 3d 5e a5 ae bd 97 ba ad bd 5c 9f af bb
       0.055250306 -0.08527635 -0.08482855 -0.0053595733
000300 cc 63 bc bd e6 66 de bd 91 d6 79 3d 88 79 f7 bd
       -0.09198722 -0.1085947 0.060995642 -0.12083727
000310 9e 2b 06 bd 96 af 8a 3c a2 44 40 bd a8 b5 b9 bd
       -0.03275644 0.016929429 -0.046940453 -0.09067851
000320 26 3b b9 bd 72 d5 68 3d 3a c9 89 3d 75 7a 0f 3d
       -0.09044485 0.056844182 0.06727834 0.035028894
000330 40 5a ec bc a7 fa 5a bd ee 3f fc 3d 80 2f ed 3c
       -0.028851628 -0.053461697 0.12316881 0.028953314
000340 4a 90 f9 3d d2 04 81 3c 6c b8 df 3d 56 62 64 3d
       0.12185724 0.015749369 0.109238476 0.055757843
000350 1c 1a 58 3d ee 71 50 3d 61 b6 7a 3d 2a ee 73 3d
       0.052759275 0.0508899 0.061209086 0.059553303
000360 11 e2 eb bd 40 f3 80 3b 10 09 00 bd 00 d7 38 3d
       -0.11517728 0.0039352477 -0.031258643 0.045126915
000370 76 96 10 bd c8 83 76 bd 8f ef 9a bc 46 8c 86 bd
       -0.03529974 -0.06018427 -0.018913059 -0.06569724
000380 e3 8a e6 ba 40 79 36 bb 44 7a a2 bc b5 83 b8 bd
       -0.0017588999 -0.0027843267 -0.019833691 -0.09009496
000390 71 04 a9 bd 95 b7 de bd 0a 43 9d bd 86 cc 13 bd
       -0.082528 -0.10874859 -0.07678802 -0.03608372
0003a0 02 e8 a3 bd fc 3f 12 be 1a dc b1 3d 62 54 9d 3d
       -0.08003236 -0.1428222 0.08684559 0.0768211
0003b0 3c 21 94 3d 2e 7f 2a bd a2 e3 7c bd 60 7b a4 bd
       0.072329015 -0.041625194 -0.061740525 -0.080313444
0003c0 a0 22 2c 3b 0c b6 68 bd 00 2c f1 3b c2 08 94 3d
       0.0026265755 -0.05681424 0.0073599815 0.07228233
0003d0 0a 76 c1 bc c7 83 3f bd e2 f9 4e bd 6e f3 98 3b
       -0.023615856 -0.046756532 -0.050531276 0.004667691
0003e0 d2 15 ef bc 2f ea 92 bd e4 5b 1d be bd 49 ea bd
       -0.02918521 -0.07173573 -0.15367085 -0.11439846
0003f0 66 70 42 bd c1 2c af bd 3e 2e ae bd 80 1d f5 bb
       -0.047470473 -0.08553458 -0.08504914 -0.0074803233

l1.bias f4 [256]
000000 06 ce 51 bd 2c ea fd bd e0 6e fe b9 cf cd 66 bd
       -0.05122187 -0.1239818 -0.00048529264 -0.056348618
000010 37 a0 59 bd 79 70 5e bc db cf 9a bd 7f 10 2c 3d
       -0.05313131 -0.01357662 -0.075591765 0.04200792
000020 62 fd 59 3d 50 b7 9b bd df 45 e9 bd d1 dc 85 bd
       0.05322016 -0.076033235 -0.1139028 -0.06536258
000030 04 19 c2 3d 51 be 45 3d fe 52 b0 bd ed fb 91 3b
       0.094774276 0.048277203 -0.086095795 0.0044550807
000040 8f 80 0e bd 26 ea 11 be 42 0e 01 3a 41 e0 aa bd
       -0.03479057 -0.14249477 0.0004923084 -0.08343554
000050 97 ac 3c 3d 0f 72 43 3d c6 c9 01 bd a7 98 fc 3d
       0.046063032 0.047716197 -0.031686567 0.123338036
000060 5d af 1e bd 44 32 ec 3c 0f 6b 68 be 25 db 85 3d
       -0.03874146 0.028832562 -0.2269709 0.06535939
000070 a8 3f d1 bc 5c c6 04 3d f4 ac 2d bd 0e 3b 01 3d
       -0.025543049 0.032415733 -0.04240127 0.03155046
000080 f7 b4 78 bd 7e d7 cc 3a 58 2d 3d be ee f3 14 be
       -0.060719457 0.0015628187 -0.18474329 -0.14546177
000090 5b 38 e4 3d 74 52 03 3d 7b 66 1a be 01 79 f1 bc
       0.111435615 0.032061055 -0.15078156 -0.029476644
0000a0 17 27 2f ba e0 77 5a bd 9b 00 06 bd 2f 7b 08 be
       -0.0006681545 -0.053336978 -0.03271542 -0.13328241
0000b0 41 3d ca 3d d6 cc 74 3c c6 66 f7 3d 8f f9 81 bd
       0.098749645 0.014941415 0.12080149 -0.06346428
0000c0 78 6f 28 bd de 6b e4 3b c0 e5 9b bd e4 8a 64 3c
       -0.04112193 0.0069708666 -0.07612181 0.01394913
0000d0 eb ac 99 3c 1a a0 13 3d 8e 0a bf bd 87 dd 04 bd
       0.018759212 0.036041357 -0.09328185 -0.032437827
0000e0 d5 25 e1 3d fb 73 1c be 2d 02 72 3e 8f 82 2d be
       0.10993544 -0.15278618 0.23633642 -0.16944335
0000f0 79 d9 8b 3d 0e de 2e be bb 5e a7 bd ec ee a7 3d
       0.06828589 -0.17076895 -0.08172365 0.081998676
000100 8b 4b d4 bd d7 f4 aa bd 2b 71 39 be 21 b3 0f be
       -0.10365971 -0.08347481 -0.18109576 -0.14033176
000110 8a 15 37 3c c6 f7 d8 bc 03 88 2f be 1c ad 9a 3d
       0.011174569 -0.026485335 -0.17141728 0.07552549
000120 59 aa 2c 3d 3a f9 59 3d 5a 10 11 bd 63 7f ad bb
       0.042154644 0.053216197 -0.035415985 -0.0052947267
000130 53 58 8e 3a 52 63 32 bd 68 0c 8e 3d 10 7e 09 bd
       0.0010860063 -0.04355175 0.0693596 -0.03356749
000140 15 b2 e2 bd 47 ff 41 3d 24 be 94 3c 53 10 85 bd
       -0.11069123 0.047362592 0.018157072 -0.06497254
000150 75 d3 f1 bb 36 42 b2 bd 6f 65 01 3d 2e fa e7 bd
       -0.007379944 -0.08704035 0.031590875 -0.11327015
000160 20 a9 8a 3d 5e 24 c9 bd df 4f 70 3b 22 3d 7b bd
       0.06770539 -0.098213896 0.00366687 -0.061337598
000170 37 d5 ef bd bc 3c b3 bd f5 ee 41 3c 1d e6 77 3c
       -0.117105894 -0.087518185 0.011836757 0.015130547
000180 5e ec 1c 3d 77 b1 18 be 76 75 21 3d 17 c9 9e 3d
       0.038311355 -0.14911447 0.03941866 0.077531986
000190 70 46 4c 3d b0 1b b2 3c 1d a1 12 bd 2f b4 0a 3d
       0.049871862 0.021741718 -0.03579818 0.033863243
0001a0 73 93 02 be 26 25 a2 3d b8 2a 08 bd 73 95 83 bc
       -0.1275156 0.07917242 -0.033243865 -0.016062474
0001b0 fc 8c 1a 3d 9a 36 2a be 61 38 2a 3d ea d5 d8 bd
       0.03773211 -0.16622391 0.041557673 -0.10587676
0001c0 a6 7a 15 3d fe 78 18 bd 78 a4 0e bd 2a 87 3c be
       0.03649392 -0.037224762 -0.03482482 -0.18410936
0001d0 80 83 65 bd a0 7f c8 bc 08 7e c3 bd b6 1f 12 be
       -0.05603361 -0.024474919 -0.09545523 -0.1426991
0001e0 2e 4d 2d be 68 71 02 bd 95 08 28 bd e3 e7 b0 bd
       -0.16923973 -0.031846434 -0.04102381 -0.08637979
0001f0 50 56 d8 3d c9 b5 54 3d 7c ee 5d 3d 89 2f 3d be
       0.10563338 0.051931176 0.054182515 -0.18475164
000200 d3 6a a0 bd 88 fe 5f bd 60 48 09 be f7 28 81 3d
       -0.07832875 -0.0546861 -0.13406515 0.063066415
000210 86 75 0c bd 5a e2 ea 3d 89 72 5c bd 42 08 52 be
       -0.034291767 0.114689544 -0.053820167 -0.20510963
000220 84 b9 9e bd 59 84 c9 3d d9 00 dc bd ed 60 a4 bd
       -0.07750228 0.098396964 -0.10742349 -0.080262996
000230 3a 6f 92 bd 38 e7 f6 bd 29 1b aa bd 19 6d b4 bd
       -0.07150121 -0.1205582 -0.08305962 -0.08809871
000240 a9 a6 d0 bd d6 88 c1 3d 68 a9 8f 3d 02 2e 17 3c
       -0.10188038 0.094499275 0.070147336 0.009227278
000250 59 da ce bd 2d 6b d6 bd 6a ec 6e bd a5 a0 4d 3d
       -0.1010024 -0.10469661 -0.05833093 0.05020203
000260 38 c7 1c bd e1 06 ae bd fb 32 26 3d 98 f0 be bd
       -0.038275927 -0.08497406 0.040575963 -0.09323233
000270 51 7e 9b 3d 95 c2 bf bd a8 fc 17 be 30 96 74 bd
       0.07592452 -0.093632855 -0.14842474 -0.059713542
000280 9e f5 1c be 9a b4 93 3c 40 fb b7 3d 82 9a 95 bc
       -0.1532807 0.018030453 0.08983469 -0.018262152
000290 53 38 ff bc 3a 80 8b 3d ec 87 d0 bd 5a 5c fd 3c
       -0.031154787 0.06811567 -0.10182175 0.030927826
0002a0 f8 9e df ba e0 91 8c bc 19 71 dc bd 61 52 15 be
       -0.0017060926 -0.017159402 -0.10763759 -0.14582206
0002b0 69 31 63 bb c5 ba 82 3e 4f fd 7f 3d b3 21 58 3e
       -0.0034666902 0.2553312 0.062497433 0.21106605
0002c0 a9 22 9e 3d f4 13 47 bd 39 be fc bb 1f 62 d0 3d
       0.07721455 -0.048603013 -0.007713106 0.10174965
0002d0 9c bf b4 3d cd 48 89 bd 11 35 e9 3c ba 25 07 be
       0.08825609 -0.06703339 0.028467687 -0.13197985
0002e0 bc ad 13 be 69 e2 27 3a 4a 96 ca 3c eb c3 56 bd
       -0.14421743 0.0006404282 0.024729867 -0.052432936
0002f0 9f cb 11 be 21 9b ad 3b 06 81 87 3c ba 49 7c bd
       -0.14237832 0.005298034 0.016541015 -0.06159375
000300 13 5a 81 bc 41 b8 e4 bd 01 0a 1d 3c 7d 2b 8d 3d
       -0.015790021 -0.11167956 0.009584905 0.0689306
000310 0c 99 97 3c b5 d0 d1 bd 27 d0 69 bd 56 25 56 bd
       0.018505596 -0.10244886 -0.057083275 -0.0522817
000320 fa 2a 84 3d 47 36 24 3c 54 fa c7 3c eb fe 82 3d
       0.0645351 0.010022706 0.024411358 0.06396278
000330 75 7f 80 3d 5f 07 9c bd 9f 3c 11 be 13 29 3d be
       0.062743105 -0.076185934 -0.14183281 -0.184727
000340 61 01 f6 bb 24 57 18 3d 29 e5 3f bd aa 73 2d 3c
       -0.0075074886 0.03719248 -0.046849404 0.0105866585
000350 81 dd f7 bc ca c7 b8 bd 61 0f 8b 3c 36 39 33 bc
       -0.030256988 -0.09022482 0.016975107 -0.010938933
000360 d4 f3 77 bd 68 36 af bd 90 38 14 be 6e 77 27 3d
       -0.060535267 -0.08555299 -0.14474702 0.04088538
000370 67 cb 5f 3d be c8 f1 bc 0a 82 0a be bc f4 c8 bd
       0.05463734 -0.029514667 -0.13526168 -0.098123044
000380 45 ac b6 3b d8 e4 28 bc 7c 3f b2 bd 18 97 36 be
       0.0055747353 -0.010308467 -0.08703515 -0.17831075
000390 47 17 6e 3d 3e ef 8b 3d 09 87 fc 3c 47 96 19 be
       0.058127668 0.06832741 0.030826109 -0.14998733
0003a0 b4 0d e0 3c 00 8b 52 3d 3a 8a 27 bd 94 de 0c bc
       0.027350284 0.051402092 -0.040903307 -0.008597989
0003b0 c1 88 71 3d 64 b0 15 3d 0e 53 c4 bd 61 58 65 bb
       0.05896831 0.036545172 -0.09586154 -0.0034995305
0003c0 2b 31 10 bb 74 16 2c be f3 24 de bd 5d 7e 94 3c
       -0.0022001963 -0.1680544 -0.10846891 0.018126661
0003d0 8b e0 0c be a0 0d bf bd d8 a1 0b bc 8c d9 8c bc
       -0.13757531 -0.09328771 -0.008522473 -0.017193578
0003e0 cc 96 0c 3c 0d b4 0e be 42 f5 45 bc 15 22 00 3e
       0.008580875 -0.13935871 -0.0120824 0.12513001
0003f0 be 9b 00 be 59 32 b3 bd 96 e3 2a 3d df 54 f4 bd
       -0.12559411 -0.087498374 0.04172095 -0.119302504

l2.weight f4 [256, 256]
000000 93 05 9b bd a2 4f 0e 3e 58 4e a0 bc e1 6d 5d 3d
       -0.075694226 0.13897565 -0.019568607 0.054059867
000010 97 d9 7d bd 50 e5 24 bd 8c 92 ce ba a0 fe ce 3c
       -0.061975088 -0.040257752 -0.0015760227 0.025267899
000020 9a 17 de bd 2a 8a 6a bd 4f 66 9c 3b ec b7 07 bd
       -0.108443454 -0.05726067 0.0047729383 -0.033134386
000030 ef c2 53 bd bf 62 ae bd b5 d1 b5 bd 23 3a 5f bd
       -0.051699575 -0.08514928 -0.08877889 -0.054498803
000040 1f 55 66 bd 80 d8 07 ba c8 d5 a2 bc 95 6f d3 bd
       -0.05623352 -0.00051821023 -0.01987733 -0.10324017
000050 6d 68 13 3c 05 c4 bf bd 27 4c c7 bd 92 76 c8 bd
       0.008997065 -0.0936356 -0.09731322 -0.097882405
000060 3d 48 0e bd 81 fc 18 3d 6e 4a fe 3b 0e 48 e7 b9
       -0.03473686 0.03735018 0.0077603376 -0.00044113438
000070 87 b8 ca bc 09 22 54 bd 0e c3 1f 3d d0 e6 51 3c
       -0.024746193 -0.05179027 0.039004378 0.012811378
000080 92 47 1d bd ac a1 21 3b b0 b1 93 3d cb b1 31 bd
       -0.038398333 0.0024663014 0.072116256 -0.043382447
000090 a6 9e 07 bd c5 b8 0d bd 41 7d 7b bd f3 a0 ab bc
       -0.033110283 -0.034600038 -0.06139875 -0.02095077
0000a0 89 bf c9 bc e6 af 8a bd 7e e0 e1 bb a5 5c 7a bd
       -0.024627464 -0.06771831 -0.0068932166 -0.06112351
0000b0 97 71 a9 bd 4f 89 97 bd 03 14 c3 bc 42 e2 08 3d
       -0.08273619 -0.073992364 -0.023813253 0.0334189
0000c0 2f 0f 88 bd 99 19 33 bd ac c8 ac bd f8 47 4e 3c
       -0.06643521 -0.043725584 -0.084367126 0.012590401
0000d0 c8 c5 19 bc 8a 2e 83 bc f4 fc 3d bd d3 55 f6 bc
       -0.009385534 -0.016013402 -0.046383813 -0.030070221
0000e0 b0 d0 90 bd 2b fe aa bd 3e 76 54 bd 6c 80 4b bd
       -0.07071054 -0.0834926 -0.051870577 -0.04968302
0000f0 42 bc 42 3d 26 88 f9 3b db f3 f1 bd 27 ed a5 bd
       0.047542818 0.007615107 -0.1181409 -0.08101874
000100 de 7c 5b bd 32 63 59 3c 77 4a cd b9 bb ea be bd
       -0.05358588 0.013268279 -0.00039156128 -0.09322115
000110 01 23 f8 bd 97 b3 7e bb 19 0a 87 bd ce f1 06 3d
       -0.121160515 -0.0038864368 -0.06593723 0.032945447
000120 a1 bb bb bc 36 fe 09 3d 6a 6f ba bd e5 5d cd 3b
       -0.022916617 0.0336897 -0.09103282 0.0062672966
000130 35 bb 55 bd 6a 71 5f bd 76 e3 cb bd 81 d2 d7 bc
       -0.052180488 -0.05455152 -0.09955494 -0.026345493
000140 f0 7c 81 bd 22 f0 48 bc ec 8f 3b bd f4 83 c8 bc
       -0.06322658 -0.012264283 -0.04579155 -0.024476983
000150 f6 ad 91 bc b0 01 90 bd b6 33 4f bd 36 5d 8c bb
       -0.017783146 -0.07031572 -0.050586425 -0.0042835725
000160 c9 2e bf bc 22 91 16 bd 3c 0d 9b bc ad 3e 4d bd
       -0.023337739 -0.036759503 -0.01892721 -0.0501086
000170 56 61 d7 bd e4 61 54 bd 6b a6 d3 bd 69 1b b7 bd
       -0.10516612 -0.05185117 -0.10334476 -0.08940775
000180 af 2c fe bc 78 06 55 bd 5e 55 2c 3c 4c 01 3c 3c
       -0.031027166 -0.052008122 0.0105184 0.011474919
000190 95 40 c9 bd 53 0c ba bc cd fb 12 3d 3f 00 a0 bc
       -0.09826771 -0.022710955 0.035884667 -0.019531367
0001a0 7e 78 aa 3c 8e fd 43 3d 6d d3 3e bc d2 ec 75 bc
       0.020809408 0.04784923 -0.0116470875 -0.015010076
0001b0 ce 69 f5 bc 8a 7d f3 bd 30 54 72 bd 45 da 1e bd
       -0.029957678 -0.11889179 -0.05916232 -0.038782377
0001c0 74 c1 09 bc 7d 96 9b bd 2f 09 74 bd ce 25 90 bd
       -0.008407939 -0.07597063 -0.05957907 -0.07038461
0001d0 a6 13 07 bd 04 20 19 3d 5a 96 47 bc 20 4e d9 3d
       -0.032977723 0.037384048 -0.012181843 0.10610604
0001e0 26 c5 71 bd 40 5b 1f 3b 55 ec 81 bd 64 88 2e bd
       -0.059025906 0.0024315864 -0.06343905 -0.04261054
0001f0 f3 eb 06 be ac 6b 27 3d b5 af 94 bd 6c d5 f2 bc
       -0.13175945 0.04087417 -0.07260076 -0.029642783
000200 5c ab 83 bd 65 8d 1b bd 7e 43 93 bd 25 ab 59 bd
       -0.064291686 -0.03797664 -0.071906075 -0.05314173
000210 38 7c 21 3c df c5 7e bd 92 f0 95 bd 57 ba 57 3d
       0.009856276 -0.062200423 -0.07321276 0.052667942
000220 12 5f 0c bc 00 36 da bc 04 37 07 bc a3 41 65 bc
       -0.008567588 -0.026637077 -0.008252863 -0.0139927
000230 ab 2d f9 bd f5 c8 ac bc bc ca 12 bc 2b 95 19 3e
       -0.121669136 -0.021091918 -0.008959468 0.1499831
000240 ce 86 90 bd f2 cc b9 bd 77 27 d9 bc 1c 29 f1 bc
       -0.07056962 -0.09072293 -0.026508076 -0.029438548
000250 fa 28 93 3b 4a 3c 2f bc 5a 18 35 bd e2 28 af bd
       0.004490969 -0.010695526 -0.044212677 -0.0855272
000260 7e 37 7e 3d 9b 24 78 bd 60 bb e6 bd 83 0a 2c bd
       0.06206464 -0.060581785 -0.11266208 -0.042002212
000270 7f 63 fb bc f6 f3 55 3d 99 c3 c2 bd c7 fb d6 bc
       -0.030687092 0.052234612 -0.095099635 -0.026243104
000280 a3 30 fb bd bf ac e2 bb 6e a3 6c bd 8d eb 08 bd
       -0.12265136 -0.0069175656 -0.057773046 -0.033427764
000290 e9 25 e7 bd 40 a9 21 bc c0 02 8b bd 9a 30 19 bd
       -0.11286528 -0.0098670125 -0.06787634 -0.037399866
0002a0 24 76 15 3d 79 d1 9d ba 74 f4 90 3c 9b 1e 9a bd
       0.03648962 -0.0012040577 0.01769469 -0.07525369
0002b0 8f 65 c5 bd db c4 89 bd fd 4b bb 39 02 88 9d 3b
       -0.096385114 -0.06727 0.00035724035 0.004807473
0002c0 4c c9 d3 bb c4 ae 36 bd 42 d6 17 bd e4 01 ac 3c
       -0.0064632054 -0.044600263 -0.037069567 0.020996995
0002d0 30 e3 8a bd 0f dc 45 bd a0 02 dd bb 96 d7 f4 bc
       -0.06781614 -0.048305567 -0.0067446977 -0.029887956
0002e0 9c b4 d6 bd 80 74 e3 bd 36 2e 66 bd ab 62 5f bd
       -0.10483667 -0.11106205 -0.056196414 -0.054537456
0002f0 7f 4f 9d bd 00 7c dd bd dd 3f 43 bd ce 96 75 3d
       -0.07681178 -0.10814667 -0.047668327 0.05995827
000300 5b 04 90 3d 3e 23 8c bd 24 97 e2 bd 08 12 77 bc
       0.07032081 -0.068426594 -0.11063984 -0.015079983
000310 67 15 8d bd 96 d3 3d 3c 70 73 d8 bd 61 07 9c bb
       -0.06888848 0.011586091 -0.10568893 -0.004761622
000320 a0 b0 93 bd 2e cd 01 bc e1 26 b9 3c 11 51 4d bd
       -0.07211423 -0.007922454 0.022601547 -0.05012614
000330 f6 ee ce bd c8 55 92 bd fa 07 38 3d b7 eb 46 3d
       -0.10104172 -0.07145268 0.044929482 0.04856464
000340 b7 10 dd bb fa 3d 2d bd 6a a6 be bd d2 d5 cb bc
       -0.0067463773 -0.042295434 -0.09309085 -0.02488223
000350 99 c5 f1 bd de 86 6f ba e8 76 c6 bd 84 d7 1a bd
       -0.11805267 -0.0009137223 -0.09690648 -0.037803188
000360 3d 85 e7 bd 4d 86 84 bc 54 00 b9 bd c8 ab ee bd
       -0.1130471 -0.01617732 -0.09033266 -0.116538584
000370 d0 cb e9 3c 08 f7 61 bd 30 c5 99 bc ec ea 90 bc
       0.028539568 -0.055167228 -0.018770784 -0.017690144
000380 7d ca dc bc ea db 67 bd d2 1e 69 bd d8 db a1 3d
       -0.026952023 -0.05660621 -0.05691416 0.0790326
000390 31 e2 da bd 46 b8 d9 bd 36 2e 7e bd f8 bc f0 3c
       -0.10687674 -0.106308505 -0.06205579 0.029386982
0003a0 c4 e5 d8 bd 3f 3d 90 bd 29 d4 c3 3b 0e 87 e2 bd
       -0.10590699 -0.07042932 0.005976219 -0.11060916
0003b0 94 ec 92 3b 13 51 68 bd 9d 69 d2 bd 6f 16 c7 bd
       0.0044837687 -0.056717943 -0.102740504 -0.09721076
0003c0 87 c5 f5 3a e0 94 69 3d a8 05 11 bd 4c 98 aa bc
       0.0018750884 0.057026744 -0.035405785 -0.020824574
0003d0 4e b7 bc bd 90 8a a2 3d a6 65 d1 bd 37 e1 c6 3d
       -0.0921465 0.07936585 -0.10224466 0.09710925
0003e0 14 81 83 bd 26 c4 90 bc 5a 2f bd bd 1d 7a a4 3c
       -0.06421104 -0.017671656 -0.09237547 0.02007776
0003f0 8c 2d 4e bd 33 c6 84 3b e1 7a 66 3c b7 a2 98 3d
       -0.050336406 0.0040519475 0.014067383 0.074529104

l2.bias f4 [256]
000000 0e 9b e7 bd 68 ab ea bc 3a 2f 8a bd 11 d3 b4 3d
       -0.11308871 -0.028646186 -0.06747289 0.0882932
000010 15 a1 88 bb 8c 76 c3 bd 40 d6 1d 3e 71 83 d2 ba
       -0.004169593 -0.095440954 0.15413761 -0.0016060901
000020 c4 9e b3 bd 4c 83 be 3c 02 55 04 bc 91 7c 3d bd
       -0.087705165 0.023255967 -0.008076908 -0.046261374
000030 ca fc f6 bc 5f 98 cc bb 41 d8 61 bd 16 61 b2 bd
       -0.030149836 -0.00624375 -0.055137876 -0.08709924
000040 a9 cb 8d 3d 10 bf 04 bd 83 7c 83 bd 3a fa 5a bd
       0.06923611 -0.032408774 -0.06420233 -0.05346129
000050 47 6d b8 bd a1 53 39 bd 57 3a 0f bc b7 af 99 bd
       -0.09005218 -0.04524577 -0.008741937 -0.07504218
000060 e1 8f fd bc e3 f8 01 be a4 c2 eb bb 9a 89 e1 bb
       -0.030952396 -0.12692599 -0.007194834 -0.0068828585
000070 ff bd c9 3c 33 03 2d bd 28 a5 d0 bd 84 09 8c bd
       0.02462673 -0.04223938 -0.10187751 -0.068377525
000080 ec 21 54 bc 3c bd 22 bd c9 02 f9 bd f8 1b 14 bd
       -0.012947541 -0.03973125 -0.12158734 -0.036159486
000090 d2 08 96 bd 7f a9 c9 bc 1e 3a 4c bd 52 b0 da bd
       -0.07325901 -0.024616955 -0.049860112 -0.10678162
0000a0 44 85 3d 3d a4 b1 22 bd d4 af a5 bc 57 d5 8a bd
       0.04626967 -0.039720193 -0.020225443 -0.067789726
0000b0 08 15 12 bc 52 c9 92 bc 04 91 43 bd 51 9d c5 bd
       -0.008916147 -0.017918263 -0.04774572 -0.09649146
0000c0 dc e9 da bd 6a a2 76 bd 61 19 3b bc 41 e1 ef bb
       -0.106891364 -0.060213484 -0.011419625 -0.0073205535
0000d0 22 14 df bd 7f f4 a3 bd ed d6 b0 bd 6c 1f de bd
       -0.10892512 -0.08005618 -0.08634744 -0.10845837
0000e0 73 0e 2c bd c7 33 94 3d 99 f0 7d bc 8c 1a 87 bc
       -0.042005967 0.07236438 -0.0154992575 -0.01649215
0000f0 5d cf 3e bd 6b 4a a8 3d 6f ea d5 bd a7 02 9a bd
       -0.046584476 0.08217319 -0.10445105 -0.07520037
000100 86 86 1d 3b 49 40 fe bd 90 21 e7 bc fe 0f 93 bd
       0.002403648 -0.12414605 -0.028214246 -0.07180785
000110 95 ab 54 bd 80 9d 62 bd ae 38 de bd 30 28 0d bd
       -0.051921446 -0.055325985 -0.108506545 -0.034462154
000120 98 06 78 bd ce a1 ba bd 7a ac 87 3b 53 e1 65 bd
       -0.060553163 -0.09112893 0.004140434 -0.05612309
000130 7b 8c 1a bd f5 48 0a bb 21 b6 b0 bc d7 53 df bd
       -0.03773163 -0.0021100615 -0.02157122 -0.10904663
000140 99 cd a1 bd 79 32 9c bd 53 b0 80 3c 52 ce ac bd
       -0.07900543 -0.076268144 0.015709078 -0.0843779
000150 11 33 59 3c f3 9f fa bc 7c fa 9b bd 4c 10 a0 bc
       0.013256804 -0.030593848 -0.076161355 -0.019539021
000160 7d 6d 11 bd 75 e8 b0 bd e0 7c 91 bd 0f e9 38 ba
       -0.035504807 -0.08638088 -0.07103896 -0.00070537714
000170 54 54 3b bd 3b 2f 27 bc 1f 7c 3d bd b1 15 26 bd
       -0.04573472 -0.010204132 -0.04626095 -0.04054803
000180 6b 10 9a bd f4 e2 12 3e dc 40 29 bd 21 e2 3b bd
       -0.07522663 0.14344388 -0.04132162 -0.04586995
000190 2c b7 82 bd 25 75 83 bd 81 0e b8 bd 16 3c fa bd
       -0.063825935 -0.06418828 -0.089871414 -0.12218492
0001a0 65 b1 af 3d 8c e5 91 bb 8b bb 99 bc f3 c4 c4 bd
       0.08578757 -0.004452413 -0.018766185 -0.096078776
0001b0 be ee be bd 2a d0 b9 bc af 6c 29 bc c7 4c 68 bd
       -0.0932288 -0.022682268 -0.010340854 -0.056713846
0001c0 43 fc 01 bd c4 2c c3 bd 4c 0f 94 bd 17 c6 2f bc
       -0.031734716 -0.09530023 -0.0722948 -0.010728381
0001d0 be f1 5f 3b 21 9e f1 bc c0 54 7e bd e8 76 a5 bd
       0.003417119 -0.029494347 -0.062092543 -0.0807932
0001e0 2c bb e0 bc f5 7c 5d 3c 61 aa bc bc 6a 24 ce bd
       -0.027433 0.013518562 -0.023030462 -0.10065539
0001f0 2e a0 9d bc 1f bb 05 3d 0a 35 9e bd 22 7f 1f 3d
       -0.019241419 0.032649156 -0.0772496 0.038939603
000200 45 39 d2 bd d2 47 09 be 6a c6 ca bd 30 01 8e bd
       -0.102648295 -0.13406304 -0.09901126 -0.0693382
000210 f7 f0 df bd 26 08 f8 bc 9d e9 61 bb d3 6c 18 3c
       -0.10934632 -0.030277323 -0.003447152 0.009303289
000220 d4 08 4a bd 84 fd 10 be 90 2a 97 bd 27 18 78 bd
       -0.049324825 -0.14159209 -0.07381165 -0.06056991
000230 4b 56 4e bd 23 65 c2 bd 27 96 12 bd 92 2c 5b bc
       -0.050375264 -0.094919465 -0.035787728 -0.013377326
000240 08 e4 71 bd 04 4f 1c bc 2d d9 5a bd 18 23 84 bd
       -0.05905536 -0.009540323 -0.05342977 -0.06452006
000250 1b 45 5f bc 14 c9 7d 3d 11 c3 50 bd cc a6 72 bd
       -0.013627316 0.06195934 -0.05096728 -0.0592411
000260 fc 31 a3 bd 8f a3 4d 3e 3c cb 16 bd 73 62 54 bd
       -0.07968518 0.20081924 -0.036814913 -0.0518517
000270 68 b6 20 bd b1 d0 08 be 4e 3a a0 3b 26 a8 26 bd
       -0.039236456 -0.1336086 0.004889763 -0.040687703
000280 50 c0 7c bd 37 1e d5 3c 77 88 93 bd a9 4c b0 bd
       -0.06170684 0.026015384 -0.07203763 -0.08608372
000290 59 d1 d2 bd 99 5c e2 3c 24 16 97 bd 74 9b ee bd
       -0.10293836 0.027632045 -0.0737727 -0.11650744
0002a0 11 4e 62 3c a7 04 f5 3c e2 de b8 bd 88 b7 5a bd
       0.013812558 0.029909445 -0.090268865 -0.053397685
0002b0 74 2f b0 bd 79 c4 22 bd 2b 18 81 bd 5a 73 99 bd
       -0.08602801 -0.039738152 -0.06303438 -0.07492705
0002c0 46 03 0e be 2d b3 4b bd 19 9e 42 3e b0 d9 79 bd
       -0.13868436 -0.049731422 0.19005622 -0.06099862
0002d0 9e 80 d3 bc 58 fb ab 3c bc b3 cb ba d4 5e ea bd
       -0.025818165 0.020993873 -0.0015541236 -0.11443868
0002e0 79 cf 62 bd 6b 2e 1c bd fc 64 0f bd f0 e2 6e 3d
       -0.055373643 -0.038130205 -0.035008416 0.058321893
0002f0 9a b5 ed bc 06 ec b4 bd 7a 40 69 bd cd 4d 11 bd
       -0.029017258 -0.088340804 -0.056946255 -0.035474587
000300 68 5a 24 bd b6 40 bc bd 2a 21 c0 bd df 8f e1 bd
       -0.04012528 -0.0919203 -0.093813255 -0.11013769
000310 41 e4 65 bc b5 e6 ed bc 00 f6 a3 bd f5 0c ec b9
       -0.014031471 -0.029040674 -0.08005905 -0.00045023081
000320 28 17 ad ba 19 07 a4 bd 8c da c4 bc 0d 9a e4 bd
       -0.0013205754 -0.08009166 -0.024029993 -0.11162195
000330 3b 3f d9 bd c1 1d 73 bd c9 0d 87 bd 69 79 35 bd
       -0.106077634 -0.059354547 -0.06594426 -0.04430524
000340 0e 9d 37 bd d8 c2 ee bd ea 83 f7 bd e6 f1 f0 bb
       -0.044827513 -0.11658257 -0.120857075 -0.0073530553
000350 b6 3f eb 3b 73 cc 9a bd 6c 60 37 bd e6 5c 80 bd
       0.007179226 -0.07558527 -0.04476969 -0.06267719
000360 2b c0 0a be ae 52 db bd 0a a8 71 bd a4 6a 60 bd
       -0.13549869 -0.10709129 -0.058998145 -0.0547892
000370 0b 30 f9 bd a2 fe 23 bd 75 f8 aa bd 63 d5 1c bd
       -0.121673666 -0.04003776 -0.08348171 -0.03828944
000380 e6 88 3d bd 18 25 ac 3d ee 14 5b 3c 0b d4 44 bd
       -0.046273135 0.084055126 0.013371689 -0.048053782
000390 fe d7 ba 3d a9 5a 09 bd 49 3d 6e bc e1 38 7e bd
       0.091232285 -0.033533726 -0.014540979 -0.062065963
0003a0 28 cd ee bd 62 2d 88 bd 67 b7 b9 bd ae 98 0a 40
       -0.11660224 -0.06649281 -0.09068184 2.1655688
0003b0 2f 1c 43 bd 48 b6 2b 3e be 05 6c bd ca 20 08 bd
       -0.0476343 0.16768754 -0.057622664 -0.033234395
0003c0 e3 86 d6 3c 1f c6 8b 3d 69 d1 bf bd b9 c7 15 bd
       0.026187366 0.06824898 -0.09366114 -0.036567423
0003d0 e1 1a 84 3c 87 87 10 bd 48 75 93 bc 65 06 83 bd
       0.016126098 -0.0352855 -0.01800026 -0.06397704
0003e0 24 e1 25 bd f1 e9 2e bd 75 00 9c bc 43 1f 5e bd
       -0.040497914 -0.042703573 -0.019043187 -0.054229032
0003f0 0a 0e da bd 85 c6 2a 3e b5 ed bc ba ab 68 cf bd
       -0.10647209 0.16677292 -0.0014414104 -0.10127386

l3.weight f4 [3, 256]
000000 0a c0 92 3d b3 27 51 bc c2 7d b1 bc 54 f9 de bd
       0.07165535 -0.012765813 -0.021666411 -0.10887399
000010 d4 46 35 bd fc f2 c8 bd 99 26 9f bf a0 fb 3a bd
       -0.044257 -0.098119706 -1.2433654 -0.045650125
000020 4a f2 7e bd e3 ec 1f bc 65 50 e0 bc 2b be 5a 3d
       -0.062242784 -0.009761068 -0.027382085 0.053404015
000030 ec 48 02 3e 13 7b ff 3b 83 20 94 bd 9a 9a be bd
       0.1272313 0.007796654 -0.072327636 -0.09306832
000040 d4 eb 31 3d 40 07 81 bd a5 47 76 bc a9 70 32 bd
       0.043437794 -0.06300211 -0.01503173 -0.043564472
000050 5f 98 07 3d bc 76 41 bd 80 6e e2 bc 20 20 0d bb
       0.033104297 -0.047232375 -0.027640581 -0.002153404
000060 27 9d 8f bc 8d 1d 86 bc 9e 86 66 3d 87 17 b2 ba
       -0.01753099 -0.016371513 0.056280725 -0.0013587334
000070 d4 c0 9d bd 46 ce b2 3c 7a 99 b3 bd 8d be 6d bd
       -0.07702795 0.021826874 -0.08769508 -0.05804305
000080 7a bf 3c bd 01 10 85 bc 46 63 eb bd 9a 7e 0a 3c
       -0.046081044 -0.016242983 -0.11493544 0.008453036
000090 52 52 0c 3b 5a 48 cc bc ab 78 c6 bc 02 ca 82 bd
       0.0021411371 -0.024936844 -0.02422746 -0.06386186
0000a0 21 04 04 3b 4e 4a 60 bd ba c9 f4 bc 6f 89 11 bc
       0.0020144063 -0.054758362 -0.029881347 -0.008882864
0000b0 d4 13 fd bb b4 c0 22 bd 23 1b 58 bd 71 08 4d bd
       -0.007723311 -0.039734557 -0.052760255 -0.05005688
0000c0 54 3e 4d 3d 1d a7 59 3b 81 50 58 3d 28 be 5c bd
       0.05010827 0.003321118 0.05281115 -0.053892285
0000d0 43 1f 45 be 69 e6 99 bd 07 25 7b be 0e 6b 9f bc
       -0.19250207 -0.075146504 -0.24525844 -0.019460227
0000e0 43 0c c0 bd c9 24 8e 3d 35 fa 08 bd 79 bf 19 3d
       -0.09377339 0.0694061 -0.03344174 0.03753612
0000f0 7e 16 63 bc cb 96 81 3d 7d 74 59 3d 8b f4 84 3c
       -0.013860343 0.063275896 0.053089608 0.016229888
000100 48 c8 f3 bc 81 71 80 bc c8 03 4b bc 0c e8 59 3d
       -0.029758587 -0.015679123 -0.012391038 0.053199813
000110 8a e6 36 3d 60 28 07 bd 74 89 9d bd a7 d9 e4 bd
       0.044653453 -0.03299749 -0.07692233 -0.111743264
000120 9e 52 9f bd e1 b9 1f bd b0 78 43 bd c1 76 b2 3c
       -0.0777943 -0.038995627 -0.04772252 0.021785142
000130 74 ab fc bc bb ce 98 bd b2 00 0b 3d 95 b8 41 3d
       -0.030843474 -0.07461306 0.03393621 0.04729517
000140 a6 57 d4 bc e1 81 b0 3b b0 7c 84 3c 3c 2a af bc
       -0.0259207 0.0053865765 0.016172737 -0.021382444
000150 c9 e8 4c bd 1e 9f 04 3d 91 72 6b bc 13 df 62 3d
       -0.05002669 0.03237831 -0.0143705765 0.05538852
000160 9c 9a cb bc 64 d6 7b 3d 90 46 2d bb f2 82 08 3d
       -0.024853997 0.061483756 -0.0026439764 0.033328004
000170 99 88 bd bc 12 72 a5 bd 34 77 95 3d 88 eb ab bd
       -0.023136424 -0.08078398 0.07298127 -0.083945334
000180 dd c5 1c 3d 33 92 03 3e e1 f5 f6 bc d2 b5 13 bd
       0.038274635 0.1284874 -0.030146541 -0.03606207
000190 92 3e d2 bd 7b b1 47 bc ba fa 23 3d 12 51 bb 3d
       -0.102658406 -0.012188311 0.040034033 0.09146322
0001a0 10 28 6d 3d 30 53 14 bd b4 59 5a bd 31 1e d7 bd
       0.057899535 -0.036212146 -0.053308204 -0.105038054
0001b0 d5 5f b9 3b b3 14 54 bc 5c b2 3b be 8d ac a9 bc
       0.005657176 -0.012944388 -0.18329757 -0.020712161
0001c0 96 30 d7 bd 37 f4 ad 3b 12 18 80 3d 38 b5 1d bd
       -0.10507314 0.0053086537 0.06254591 -0.0385029
0001d0 29 1a 53 bd 23 7c 09 3d 8b 88 86 bd ea 9d 3a 3d
       -0.05153862 0.03356565 -0.06569012 0.045560755
0001e0 a4 bd 54 bc 62 29 21 bd 92 be a6 bd 70 db f2 bc
       -0.012984667 -0.039346106 -0.08141817 -0.029645652
0001f0 73 3b 42 bb e7 ea 95 bc a3 5e ec bc e4 bf 3f 3d
       -0.0029637485 -0.018300487 -0.02885372 0.04681386
000200 64 00 df bd 68 cb ce bd cf 37 58 3d 01 42 8e bc
       -0.108887464 -0.100973904 0.0527876 -0.017365457
000210 c6 8c 96 bd d2 49 65 bd 6b 07 f8 bb fc 9e 42 3c
       -0.07351069 -0.055978604 -0.0075692437 0.011878725
000220 0c 3a 56 bd c7 94 ad bd 34 ee 31 bd 61 6f 97 bc
       -0.05230145 -0.08475643 -0.04344006 -0.018485727
000230 e3 ce bd bd 03 12 d4 3a e9 69 c1 bd 93 dd 17 bd
       -0.09267976 0.0016179684 -0.09444029 -0.037076544
000240 74 f1 38 3d 90 13 c6 bd 9c c6 3b 3c 0f dd 8b bd
       0.045152143 -0.096717 0.011460926 -0.06829273
000250 8a ec 09 bd 17 9c 04 be 9c 58 6e 3c 03 c2 10 be
       -0.033672847 -0.12950169 0.014547493 -0.1413651
000260 3b 7c e1 bc c3 ac 5a 3e 6a 9b 13 bd 71 8f d6 bd
       -0.027525058 0.21354966 -0.036036886 -0.10476578
000270 89 09 a8 bd 8f 68 29 bd 89 f4 c9 bc 1e 75 06 bd
       -0.08204944 -0.04135948 -0.024652736 -0.032826535
000280 10 5e 52 bd 9c 53 0b ba 13 0d 2c 3d 1f b9 14 3c
       -0.051359236 -0.0005314888 0.042004656 0.009077339
000290 05 ce 8d bc 15 de 14 bd 8a d6 52 bc 63 55 5c bd
       -0.017310152 -0.036344606 -0.012868533 -0.05379237
0002a0 f2 40 35 3d eb 3e 19 3d 56 09 25 bd 6f 6d 3c bc
       0.04425139 0.03741352 -0.040292107 -0.0115007
0002b0 7d 67 e6 bd ea 9d 20 3d 88 bc 6a bd 82 9f 95 bd
       -0.112502076 0.0392131 -0.057308704 -0.07305814
0002c0 0c 5a 02 be 0d 4d 05 bd da 41 8b 3e 83 af da bb
       -0.12729663 -0.032544184 0.27198678 -0.0066737547
0002d0 a8 1a 16 be 94 03 b2 bc b9 e0 aa bb 12 e3 07 bd
       -0.14658606 -0.021730222 -0.0052147773 -0.033175536
0002e0 42 b1 b5 bd 32 be ef bc 5a f8 85 bc e1 44 d3 3d
       -0.088717 -0.029265497 -0.016353775 0.10315872
0002f0 f0 ae b5 3c b5 e9 ca bd 58 7f 36 3d b2 6e 47 3b
       0.022178143 -0.09907857 0.04455504 0.003043097
000300 a2 17 06 be 84 5a d6 ba 6c c6 2b 3d 2c f1 a8 3c
       -0.13094953 -0.001635388 0.041937277 0.020622812
000310 2b f0 de bd 5b 80 15 bd 32 9b 3f bd 77 f0 ba 3d
       -0.10885652 -0.036499362 -0.046778865 0.09127896
000320 90 68 f9 bb 6e 19 3b bd e7 03 37 bd 28 9f c2 bc
       -0.007611342 -0.04567855 -0.044681456 -0.023757532
000330 1e 94 5c bd 2d 38 66 3c 37 e6 b5 3b 41 27 e6 bc
       -0.053852193 0.014051479 0.0055511254 -0.02809489
000340 25 7e c1 bd da 88 87 bd 3f 20 03 bd e4 9f ee bc
       -0.09447888 -0.06617899 -0.032013174 -0.029128976
000350 03 ae ab bd ae 77 a6 bd 64 98 f1 bd 4d f1 b7 3c
       -0.083827995 -0.08128296 -0.11796644 0.022453928
000360 4a 24 8c bd ae cb 97 3d 7e 47 86 bd 19 19 b9 3c
       -0.06842859 0.07411896 -0.06556605 0.022594975
000370 0f a4 6a bc 8a eb ab bd 5f 1c f4 bc c5 81 f8 bd
       -0.014321341 -0.08394535 -0.029798685 -0.121341266
000380 6a 66 9f 3d 4f c6 86 3d 08 97 3a bd 3b 70 c3 bb
       0.07783206 0.06580793 -0.04555419 -0.0059643066
000390 a3 23 05 3e 21 3e 9f bd a2 ba ba bd c8 a2 da bd
       0.13001876 -0.07775522 -0.09117629 -0.10675579
0003a0 4b b3 63 bc f1 82 f1 bc 67 78 3b 3d f0 36 01 c0
       -0.013897727 -0.029481383 0.04576912 -2.018978
0003b0 d4 d0 31 3d d7 77 07 3e e4 91 70 bd a0 2c 37 3d
       0.043412045 0.13229309 -0.058732882 0.044720292
0003c0 ef f6 c6 bd ae 0a a8 bd 6b 78 0a bd 14 e2 e1 bb
       -0.097150676 -0.08205162 -0.033806246 -0.0068934057
0003d0 6e 73 19 3c 35 ff c6 bc 41 7e 09 be f6 73 4e bd
       0.0093658995 -0.024291614 -0.13427068 -0.050403558
0003e0 98 9c d8 bc 1d 9f 5c bd 4b 1d 90 bd 08 83 be bd
       -0.026441857 -0.05386268 -0.07036837 -0.09302336
0003f0 28 43 8e bd a8 d1 72 3e f0 71 57 3d bc 99 2b bd
       -0.06946403 0.2371279 0.052598894 -0.04189466

l3.bias f4 [3]
000000 fd aa e6 3d 96 8d 4f bd 32 33 b6 bd
       0.11263082 -0.050672136 -0.088964835
