gespeicherte_Klassen/models/10.09.2022.19.17.34/5SAVE.pt (torch, 363287 bytes, 6 tensors)

l1.weight f4 [256, 83]
-0.008001283 -0.14717278 0.035680447 0.025320912 -0.07516335 -0.17263065 -0.07759464 0.038570315
-0.1405214 -0.104515836 -0.06323167 -0.10708287 0.0781354 0.102954865 0.037439987 -0.054763243
-0.09694257 -0.020386051 -0.080587655 0.031758066 -0.08163746 -0.0398342 -0.0026669428 -0.027918234
-0.05460329 -0.0873741 -0.017275821 0.020717252 -0.0075239916 -0.08427527 -0.022982553 0.0441341
-0.092673115 0.04962327 -0.039458845 0.142903 -0.07188852 0.20448945 -0.06878805 -0.09679954
0.27767864 -0.07796974 -0.049131 0.07315149 -0.017395088 0.097879946 0.04092083 0.15023543
0.07874354 -0.0030003095 0.06267691 -0.028431598 0.09748733 -0.070255786 -0.071046844 -0.067268714
0.09551613 0.13247378 0.17872547 -0.06519934 0.04137586 -0.055852015 -0.13151295 0.0070860577
-0.07842028 0.024535948 -0.0019203256 -0.09923649 -0.05935759 0.0559109 0.052242324 -0.008210982
0.017356128 -0.038878806 -0.051603783 -0.06759457 -0.08901167 -0.018955953 0.03526923 -0.02942954
-0.10125381 -0.05710115 0.0746274 -0.004653439 -0.045929123 -0.034311008 -0.0010407224 -0.021831008
-0.12270153 0.0017257929 0.010823758 -0.08508991 0.094794974 0.043663234 -0.0071455687 0.031742305
-0.104185335 -0.06834302 -0.019378453 -0.0127310995 -0.067790404 -0.043981306 -0.026675716 -0.09295918
0.0912558 -0.10858087 0.08960563 0.028797537 -0.051783606 0.028525267 -0.07942494 -0.09622409
0.027172415 -0.049278516 -0.10518657 -0.08971387 -0.075533025 -0.019381396 -0.028998464 -0.05536665
0.064787924 -0.038985096 0.041311592 -0.07699723 0.01589264 -0.07277273 0.15746874 0.05324489
0.12949654 0.023760743 0.14201638 0.064301535 0.038059995 -0.06975339 -0.09325518 -0.097469255
-0.074393004 -0.057800643 -0.105818674 -0.020978384 0.09549999 -0.08684523 -0.042092092 -0.06862351
0.02324766 -0.09923662 -0.026501454 -0.008994341 -0.06662737 0.10393222 -0.09966587 0.06843725
-0.10691977 -0.075602576 -0.0032039508 -0.049716573 -0.10175793 0.05010809 0.028533876 -0.01612918
-0.017881982 -0.033449925 -0.01005695 0.04626377 0.09382725 -0.09771966 -0.008663431 -0.03358391
0.0141150765 -0.106633715 -0.024158835 -0.081538044 -0.02765277 -0.043457106 -0.15059967 -0.052144244
-0.054330222 -0.102448925 0.07990326 0.042080864 -0.08731471 0.09553374 -0.05145146 -0.120600015
-0.05113588 -0.11836998 0.035209697 -0.08631532 0.055250306 -0.08527635 -0.08482855 -0.0053595733
-0.09198722 -0.1085947 0.061089337 -0.12083727 -0.03275644 0.016929429 -0.046940453 -0.09065189
-0.09044485 0.056844182 0.06727834 0.035129376 -0.028851628 -0.053461697 0.123230316 0.028953314
0.12185724 0.015749369 0.109238476 0.055757843 0.052759275 0.0508899 0.061209086 0.059553303
-0.11517728 0.0039352477 -0.031258643 0.045126915 -0.03529974 -0.06018427 -0.018913059 -0.06569724
-0.0017588999 -0.0027843267 -0.019833691 -0.09009496 -0.082528 -0.10874859 -0.07678802 -0.03608372
-0.08003236 -0.1428222 0.08684559 0.0768211 0.072329015 -0.041625194 -0.061740525 -0.080313444
0.0026265755 -0.05681424 0.0073599815 0.07228233 -0.023615856 -0.046756532 -0.050531276 0.004667691
-0.02918521 -0.07173573 -0.15367085 -0.11439846 -0.047470473 -0.08445206 -0.08504914 -0.0074803233
00000000: d017 03bc 76b4 16be a925 123d cd6d cf3c
00000010: 3eef 99bd 17c6 30be f0e9 9ebd e8fb 1d3d
00000020: d8e4 0fbe 660c d6bd 9b7f 81bd 444e dbbd
00000030: 7405 a03d 00da d23d ac5a 193d 6c4f 60bd
00000040: d389 c6bd a600 a7bc 240b a5bd bf14 023d
00000050: 8a31 a7bd 3029 23bd e0c7 2ebb c8b4 e4bc
00000060: b3a7 5fbd 31f1 b2bd 0686 8dbc 3ab7 a93c
00000070: d18b f6bb 8398 acbd e845 bcbc f5c5 343d
00000080: 67cb bdbd c541 4b3d 999f 21bd 2a55 123e
00000090: 4a3a 93bd af65 513e c0e0 8cbd d63e c6bd
000000a0: e52b 8e3e 99ae 9fbd 963d 49bd 73d0 953d
000000b0: 2580 8ebc 4875 c83d 9a9c 273d 51d7 193e
000000c0: 4b44 a13d d7a0 44bb c05c 803d 62e9 e8bc
000000d0: 70a7 c73d 44e2 8fbd 0281 91bd 2ec4 89bd
000000e0: f69d c33d 35a7 073e cf03 373e 3b87 85bd
000000f0: bc79 293d 15c5 64bd 55ab 06be 2932 e83b
00000100: d09a a0bd 9dff c83c 6fb3 fbba 803c cbbd
00000110: f220 73bd d402 653d 0cfc 553d 5b87 06bc
00000120: 702e 8e3c 623f 1fbd 7d5e 53bd 066f 8abd
00000130: c04b b6bd 8449 9bbc 7876 103d 3816 f1bc
00000140: 285e cfbd e5e2 69bd 40d6 983d e07b 98bb
00000150: 2d20 3cbd b389 0cbd d968 88ba f1d6 b2bc
00000160: f14a fbbd 0034 e23a 2256 313c 9e43 aebd
00000170: de23 c23d 38d8 323d 6025 eabb 3804 023d
00000180: 1f5f d5bd 6df7 8bbd 90bf 9ebc 1a96 50bc
00000190: b2d5 8abd be25 34bd 0887 dabc 6261 bebd
000001a0: 52e4 ba3d a65f debd 2883 b73d d0e8 eb3c
000001b0: 0c1b 54bd d2ad e93c 8ba9 a2bd 2311 c5bd
000001c0: af98 de3c 45d8 49bd 0e6c d7bd e8bb b7bd
000001d0: 0fb1 9abd bcc5 9ebc 308e edbc 24c8 62bd
000001e0: 88af 843d d6ae 1fbd 5836 293d b9b0 9dbd
000001f0: 4831 823c de09 95bd 7c3f 213e 5017 5a3d
00000200: be9a 043e e4a5 c23c be6c 113e 86b0 833d
00000210: cce4 1b3d deda 8ebd 92fc bebd f69d c7bd
00000220: 5c5b 98bd 5ec0 6cbd 76b7 d8bd dcda abbc
00000230: 8095 c33d e9db b1bd c268 2cbd 7c8a 8cbd
00000240: e071 be3c 923c cbbd 9419 d9bc 005d 13bc
00000250: ee73 88bd 6ada d43d 9f1d ccbd d428 8c3d
00000260: c1f8 dabd 86d5 9abd 60f9 51bb 9ba3 4bbd
00000270: 7666 d0bd 243e 4d3d e0bf e93c 5821 84bc
00000280: 3c7d 92bc ca02 09bd e8c5 24bc 147f 3d3d
00000290: 8028 c03d 3f21 c8bd 10f1 0dbc 488f 09bd
000002a0: ec42 673c c762 dabd c0e8 c5bc 6bfd a6bd
000002b0: 1088 e2bc 1400 32bd cd36 1abe 3495 55bd
000002c0: 5e89 5ebd bed0 d1bd 52a4 a33d fc5c 2c3d
000002d0: 0ed2 b2bd 32a7 c33d c4be 52bd 24fd f6bd
000002e0: db73 51bd f66b f2bd 0b38 103d 16c6 b0bd
000002f0: 254e 623d 5ea5 aebd 97ba adbd 5c9f afbb
00000300: cc63 bcbd e666 debd d038 7a3d 8879 f7bd
00000310: 9e2b 06bd 96af 8a3c a244 40bd b3a7 b9bd
00000320: 263b b9bd 72d5 683d 3ac9 893d d2e3 0f3d
00000330: 405a ecbc a7fa 5abd 2d60 fc3d 802f ed3c
00000340: 4a90 f93d d204 813c 6cb8 df3d 5662 643d
00000350: 1c1a 583d ee71 503d 61b6 7a3d 2aee 733d
00000360: 11e2 ebbd 40f3 803b 1009 00bd 00d7 383d
00000370: 7696 10bd c883 76bd 8fef 9abc 468c 86bd
00000380: e38a e6ba 4079 36bb 447a a2bc b583 b8bd
00000390: 7104 a9bd 95b7 debd 0a43 9dbd 86cc 13bd
000003a0: 02e8 a3bd fc3f 12be 1adc b13d 6254 9d3d
000003b0: 3c21 943d 2e7f 2abd a2e3 7cbd 607b a4bd
000003c0: a022 2c3b 0cb6 68bd 002c f13b c208 943d
000003d0: 0a76 c1bc c783 3fbd e2f9 4ebd 6ef3 983b
000003e0: d215 efbc 2fea 92bd e45b 1dbe bd49 eabd
000003f0: 6670 42bd 34f5 acbd 3e2e aebd 801d f5bb

l1.bias f4 [256]
-0.050964255 -0.1239818 -0.00040458044 -0.055263825 -0.053130873 -0.012803141 -0.0755918 0.04200792
0.058567435 -0.07564092 -0.1139028 -0.062341228 0.096054025 0.04879148 -0.081734054 0.0044550807
-0.03479057 -0.14249477 0.0016140396 -0.0815537 0.055214435 0.048864126 -0.02980056 0.13018717
-0.028648121 0.03092793 -0.2269709 0.08291127 -0.024210865 0.034959707 -0.0405391 0.03155046
-0.060719457 0.0015628142 -0.17873651 -0.14546178 0.117684826 0.034412235 -0.1466046 -0.029476644
9.4719275e-05 -0.051897485 -0.032594122 -0.1319345 0.099383734 0.014910266 0.13401787 -0.06346428
-0.04053373 0.0069757076 -0.0746492 0.03130488 0.025472496 0.044185597 -0.09328185 -0.030040339
0.11541333 -0.15278618 0.266036 -0.16944335 0.072224036 -0.17076895 -0.078263514 0.086935796
-0.10365971 -0.083177455 -0.18109576 -0.14033176 0.028577264 -0.026485335 -0.17141728 0.09640805
0.062237468 0.054796025 -0.035403688 -0.004853418 0.002711446 -0.036472652 0.078576736 -0.03356749
-0.11069123 0.047956195 0.022176223 -0.06497254 0.013409095 -0.087040775 0.031587407 -0.11327015
0.07310541 -0.0975648 0.008282323 -0.057445172 -0.117105894 -0.083599016 0.013618197 0.018481636
0.04746928 -0.14911447 0.053197242 0.07911961 0.049871862 0.029634845 -0.03579818 0.03415761
-0.12478482 0.08568085 -0.03322167 -0.014150164 0.040254544 -0.16622391 0.043464184 -0.10587676
0.03649392 -0.022611354 -0.03482481 -0.18410936 -0.05603361 -0.01814714 -0.09545523 -0.1426991
-0.16923973 -0.031846434 -0.03956499 -0.08640077 0.122579545 0.054915052 0.06775575 -0.18475164
-0.077722274 -0.052267406 -0.13406515 0.07306401 -0.034291767 0.13796848 -0.05381911 -0.20510963
-0.07161509 0.100204356 -0.106568344 -0.080262996 -0.07150121 -0.1205582 -0.08143666 -0.08809871
-0.10012213 0.099282384 0.07414575 0.023973968 -0.09768569 -0.10469661 -0.049494527 0.051877372
-0.038275927 -0.0848261 0.042286307 -0.093254484 0.07962199 -0.093632855 -0.14842474 -0.058673594
-0.1532807 0.018368626 0.0911269 -0.017890092 -0.031154787 0.12039912 -0.10182175 0.044309374
-0.0016790667 -0.016078737 -0.10763759 -0.14582206 0.002981063 0.2779531 0.08501679 0.23650034
0.08226933 -0.047141258 -0.007713106 0.111433804 0.091553286 -0.06382472 0.028467374 -0.13197985
-0.14421743 0.0037357647 0.025379634 -0.052344322 -0.14237832 0.009864998 0.017880525 -0.06159375
-0.014099795 -0.11167956 0.015479296 0.070657425 0.019067321 -0.10230302 -0.057083275 -0.0522817
0.07018842 0.011042256 0.04886922 0.07158802 0.06423731 -0.076185934 -0.14183281 -0.184727
-0.0063161114 0.037515268 -0.045021173 0.011570036 -0.029167086 -0.09022482 0.019283492 -0.009943542
-0.060535267 -0.08396807 -0.14474702 0.04348396 0.05949999 -0.029529167 -0.13526168 -0.098123044
0.0075307703 -0.0051015615 -0.08703515 -0.17831075 0.06436468 0.09080744 0.03185209 -0.14998733
0.041943766 0.051418144 -0.04088316 -0.00635636 0.07720304 0.038412314 -0.09586154 0.0035307147
-0.0022001963 -0.1680544 -0.09891734 0.018948637 -0.13757531 -0.09328771 0.012250928 -0.017193578
0.028364334 -0.13564308 -0.0120824 0.12738068 -0.123575255 -0.087498374 0.042176876 -0.119302504
00000000: e5bf 50bd 2cea fdbd de1d d4b9 525c 62bd
00000010: c29f 59bd 44c4 51bc e0cf 9abd 7f10 2c3d
00000020: 68e4 6f3d a0e9 9abd df45 e9bd 8459 7fbd
00000030: f9b7 c43d 93d9 473d 2f64 a7bd edfb 913b
00000040: 8f80 0ebd 26ea 11be 2f8e d33a a005 a7bd
00000050: 8828 623d c025 483d 4e20 f4bc c94f 053e
00000060: 77af eabc 925c fd3c 0f6b 68be 62cd a93d
00000070: dd55 c6bc e931 0f3d 540c 26bd 0e3b 013d
00000080: f7b4 78bd 58d7 cc3a b406 37be eff3 14be
00000090: be04 f13d d8f3 0c3d 841f 16be 0179 f1bc
000000a0: 06a4 c638 7592 54bd 6a81 05bd d619 07be
000000b0: b389 cb3d 304a 743c fb3b 093e 8ff9 81bd
000000c0: b206 26bd 7a94 e43b aee1 98bd 8c39 003d
000000d0: b2ab d03c f5fb 343d 8e0a bfbd 2817 f6bc
000000e0: d35d ec3d fb73 1cbe df35 883e 8f82 2dbe
000000f0: 32ea 933d 0ede 2ebe 9f48 a0bd 650b b23d
00000100: 8b4b d4bd f158 aabd 2b71 39be 21b3 0fbe
00000110: de1a ea3c c6f7 d8bc 0388 2fbe 9571 c53d
00000120: b7ec 7e3d cc71 603d 7503 11bd 6c09 9fbb
00000130: 84b2 313b 5964 15bd d7ec a03d 107e 09bd
00000140: 15b2 e2bd b76d 443d e9aa b53c 5310 85bd
00000150: d2b1 5b3c 6f42 b2bd cc61 013d 2efa e7bd
00000160: 4ab8 953d 0ed0 c7bd 95b2 073c a14b 6bbd
00000170: 37d5 efbd f635 abbd dc1e 5f3c cd66 973c
00000180: 266f 423d 77b1 18be 5ae5 593d 7609 a23d
00000190: 7046 4c3d c6c4 f23c 1da1 12bd dae8 0b3d
000001a0: 2f8f ffbd 7179 af3d 7213 08bd 17d6 67bc
000001b0: f3e1 243d 9a36 2abe 8007 323d ead5 d8bd
000001c0: a67a 153d 723b b9bc 76a4 0ebd 2a87 3cbe
000001d0: 8083 65bd 50a9 94bc 087e c3bd b61f 12be
000001e0: 2e4d 2dbe 6871 02bd e60e 22bd e3f2 b0bd
000001f0: fc0a fb3d 9bee 603d 87c3 8a3d 892f 3dbe
00000200: db2c 9fbd 5916 56bd 6048 09be 95a2 953d
00000210: 8675 0cbd 9c47 0d3e 6d71 5cbd 4208 52be
00000220: efaa 92bd f137 cd3d 8140 dabd ed60 a4bd
00000230: 3a6f 92bd 38e7 f6bd 43c8 a6bd 196d b4bd
00000240: d50c cdbd 9054 cb3d bad9 973d 0e65 c43c
00000250: 6f0f c8bd 2d6b d6bd c6ba 4abd 5e7d 543d
00000260: 38c7 1cbd 4eb9 adbd 6834 2d3d 35fc bebd
00000270: db10 a33d 95c2 bfbd a8fc 17be b953 70bd
00000280: 9ef5 1cbe cd79 963c bda0 ba3d 3e8e 92bc
00000290: 5338 ffbc d093 f63d ec87 d0bd bf7d 353d
000002a0: 2114 dcba 8eb7 83bc 1971 dcbd 6152 15be
000002b0: f05d 433b de4f 8e3e 481d ae3d 252d 723e
000002c0: d37c a83d 3117 41bd 39be fcbb 6837 e43d
000002d0: 4a80 bb3d 89b6 82bd 6934 e93c ba25 07be
000002e0: bcad 13be bbd3 743b f3e8 cf3c 0067 56bd
000002f0: 9fcb 11be cda0 213c 2e7a 923c ba49 7cbd
00000300: d402 67bc 41b8 e4bd e09c 7d3c d7b4 903d
00000310: 1233 9c3c 3f84 d1bd 27d0 69bd 5625 56bd
00000320: f2be 8f3d 94ea 343c 172b 483d bd9c 923d
00000330: da8e 833d 5f07 9cbd 9f3c 11be 1329 3dbe
00000340: 62f7 cebb 9ca9 193d 1f68 38bd 4090 3d3c
00000350: d0ef eebc cac7 b8bd 6af8 9d3c 3dea 22bc
00000360: d4f3 77bd 74f7 abbd 9038 14be 3d1c 323d
00000370: 43b6 733d 27e7 f1bc 0a82 0abe bcf4 c8bd
00000380: aec4 f63b 002b a7bb 7c3f b2bd 1897 36be
00000390: a1d1 833d 40f9 b93d 5677 023d 4796 19be
000003a0: 3acd 2b3d d59b 523d 1a75 27bd 0349 d0bb
000003b0: a11c 9e3d 3b56 1d3d 0e53 c4bd 9063 673b
000003c0: 2b31 10bb 7416 2cbe 2d95 cabd 2c3a 9b3c
000003d0: 8be0 0cbe a00d bfbd 1eb8 483c 8cd9 8cbc
000003e0: 525c e83c 05e6 0abe 42f5 45bc 1570 023e
000003f0: 0615 fdbd 5932 b3bd a9c1 2c3d df54 f4bd

l2.weight f4 [256, 256]
-0.075694226 0.13897565 -0.019568607 0.054059867 -0.061975088 -0.040257752 -0.0015760227 0.025267899
-0.108443454 -0.05726067 0.0047729383 -0.033134386 -0.051699575 -0.08514928 -0.08877889 -0.054498803
-0.05623352 -0.00051821023 -0.01987733 -0.10324017 0.008997065 -0.0936356 -0.09731322 -0.097882405
-0.03473686 0.03735018 0.0077603376 -0.00044113438 -0.024746193 -0.05179027 0.039004378 0.012811378
-0.038398333 0.0024663014 0.072116256 -0.043382447 -0.033110283 -0.034600038 -0.06139875 -0.02095077
-0.024627464 -0.06771831 -0.0068932166 -0.06112351 -0.08273619 -0.073992364 -0.023813253 0.0334189
-0.06643521 -0.043725584 -0.084367126 0.012590401 -0.009385534 -0.016013402 -0.046383813 -0.030070221
-0.07071054 -0.0834926 -0.051870577 -0.04968302 0.047542818 0.007615107 -0.1181409 -0.08101874
-0.05358588 0.013268279 -0.00039156128 -0.09322115 -0.121160515 -0.0038864368 -0.06593723 0.032945447
-0.022916617 0.0336897 -0.09103282 0.0062672966 -0.052180488 -0.05455152 -0.09955494 -0.026345493
-0.06322658 -0.012264283 -0.04579155 -0.024476983 -0.017783146 -0.07031572 -0.050586425 -0.0042835725
-0.023337739 -0.036759503 -0.01892721 -0.0501086 -0.10516612 -0.05185117 -0.10334476 -0.08940775
-0.031027166 -0.052008122 0.0105184 0.011474919 -0.09826771 -0.022710955 0.035884667 -0.019531367
0.020809408 0.04784923 -0.0116470875 -0.015010076 -0.029957678 -0.11889179 -0.05916232 -0.038782377
-0.008407939 -0.07597063 -0.05957907 -0.07038461 -0.032977723 0.037384048 -0.012181843 0.10610604
-0.059025906 0.0024315864 -0.06343905 -0.04261054 -0.13175945 0.04087417 -0.07260076 -0.029642783
-0.064291686 -0.03797664 -0.071906075 -0.05314173 0.009856276 -0.062200423 -0.07321276 0.052667942
-0.008567588 -0.026637077 -0.008252863 -0.0139927 -0.121669136 -0.021091918 -0.008959468 0.1499831
-0.07056962 -0.09072293 -0.026508076 -0.029438548 0.004490969 -0.010695526 -0.044212677 -0.0855272
0.06206464 -0.060581785 -0.11266208 -0.042002212 -0.030687092 0.052234612 -0.095099635 -0.026243104
-0.12265136 -0.0069175656 -0.057773046 -0.033427764 -0.11286528 -0.0098670125 -0.06787634 -0.037399866
0.03648962 -0.0012040577 0.01769469 -0.07525369 -0.096385114 -0.06727 0.00035724035 0.004807473
-0.0064632054 -0.044600263 -0.037069567 0.020996995 -0.06781614 -0.048305567 -0.0067446977 -0.029887956
-0.10483667 -0.11106205 -0.056196414 -0.054537456 -0.07681178 -0.10814667 -0.047668327 0.05995827
0.07032081 -0.068426594 -0.11063984 -0.015079983 -0.06888848 0.011586091 -0.10568893 -0.004761622
-0.07211423 -0.007922454 0.022601547 -0.05012614 -0.10104172 -0.07145268 0.044929482 0.04856464
-0.0067463773 -0.042295434 -0.09309085 -0.02488223 -0.11805267 -0.0009137223 -0.09690648 -0.037803188
-0.1130471 -0.01617732 -0.09033266 -0.116538584 0.028539568 -0.055167228 -0.018770784 -0.017690144
-0.026952023 -0.05660621 -0.05691416 0.0790326 -0.10687674 -0.106308505 -0.06205579 0.029386982
-0.10590699 -0.07042932 0.005976219 -0.11060916 0.0044837687 -0.056717943 -0.102740504 -0.09721076
0.0018750884 0.057026744 -0.035405785 -0.020824574 -0.0921465 0.07936585 -0.10224466 0.09710925
-0.06421104 -0.017671656 -0.09237547 0.02007776 -0.050336406 0.0040519475 0.014067383 0.074529104
00000000: 9305 9bbd a24f 0e3e 584e a0bc e16d 5d3d
00000010: 97d9 7dbd 50e5 24bd 8c92 ceba a0fe ce3c
00000020: 9a17 debd 2a8a 6abd 4f66 9c3b ecb7 07bd
00000030: efc2 53bd bf62 aebd b5d1 b5bd 233a 5fbd
00000040: 1f55 66bd 80d8 07ba c8d5 a2bc 956f d3bd
00000050: 6d68 133c 05c4 bfbd 274c c7bd 9276 c8bd
00000060: 3d48 0ebd 81fc 183d 6e4a fe3b 0e48 e7b9
00000070: 87b8 cabc 0922 54bd 0ec3 1f3d d0e6 513c
00000080: 9247 1dbd aca1 213b b0b1 933d cbb1 31bd
00000090: a69e 07bd c5b8 0dbd 417d 7bbd f3a0 abbc
000000a0: 89bf c9bc e6af 8abd 7ee0 e1bb a55c 7abd
000000b0: 9771 a9bd 4f89 97bd 0314 c3bc 42e2 083d
000000c0: 2f0f 88bd 9919 33bd acc8 acbd f847 4e3c
000000d0: c8c5 19bc 8a2e 83bc f4fc 3dbd d355 f6bc
000000e0: b0d0 90bd 2bfe aabd 3e76 54bd 6c80 4bbd
000000f0: 42bc 423d 2688 f93b dbf3 f1bd 27ed a5bd
00000100: de7c 5bbd 3263 593c 774a cdb9 bbea bebd
00000110: 0123 f8bd 97b3 7ebb 190a 87bd cef1 063d
00000120: a1bb bbbc 36fe 093d 6a6f babd e55d cd3b
00000130: 35bb 55bd 6a71 5fbd 76e3 cbbd 81d2 d7bc
00000140: f07c 81bd 22f0 48bc ec8f 3bbd f483 c8bc
00000150: f6ad 91bc b001 90bd b633 4fbd 365d 8cbb
00000160: c92e bfbc 2291 16bd 3c0d 9bbc ad3e 4dbd
00000170: 5661 d7bd e461 54bd 6ba6 d3bd 691b b7bd
00000180: af2c febc 7806 55bd 5e55 2c3c 4c01 3c3c
00000190: 9540 c9bd 530c babc cdfb 123d 3f00 a0bc
000001a0: 7e78 aa3c 8efd 433d 6dd3 3ebc d2ec 75bc
000001b0: ce69 f5bc 8a7d f3bd 3054 72bd 45da 1ebd
000001c0: 74c1 09bc 7d96 9bbd 2f09 74bd ce25 90bd
000001d0: a613 07bd 0420 193d 5a96 47bc 204e d93d
000001e0: 26c5 71bd 405b 1f3b 55ec 81bd 6488 2ebd
000001f0: f3eb 06be ac6b 273d b5af 94bd 6cd5 f2bc
00000200: 5cab 83bd 658d 1bbd 7e43 93bd 25ab 59bd
00000210: 387c 213c dfc5 7ebd 92f0 95bd 57ba 573d
00000220: 125f 0cbc 0036 dabc 0437 07bc a341 65bc
00000230: ab2d f9bd f5c8 acbc bcca 12bc 2b95 193e
00000240: ce86 90bd f2cc b9bd 7727 d9bc 1c29 f1bc
00000250: fa28 933b 4a3c 2fbc 5a18 35bd e228 afbd
00000260: 7e37 7e3d 9b24 78bd 60bb e6bd 830a 2cbd
00000270: 7f63 fbbc f6f3 553d 99c3 c2bd c7fb d6bc
00000280: a330 fbbd bfac e2bb 6ea3 6cbd 8deb 08bd
00000290: e925 e7bd 40a9 21bc c002 8bbd 9a30 19bd
000002a0: 2476 153d 79d1 9dba 74f4 903c 9b1e 9abd
000002b0: 8f65 c5bd dbc4 89bd fd4b bb39 0288 9d3b
000002c0: 4cc9 d3bb c4ae 36bd 42d6 17bd e401 ac3c
000002d0: 30e3 8abd 0fdc 45bd a002 ddbb 96d7 f4bc
000002e0: 9cb4 d6bd 8074 e3bd 362e 66bd ab62 5fbd
000002f0: 7f4f 9dbd 007c ddbd dd3f 43bd ce96 753d
00000300: 5b04 903d 3e23 8cbd 2497 e2bd 0812 77bc
00000310: 6715 8dbd 96d3 3d3c 7073 d8bd 6107 9cbb
00000320: a0b0 93bd 2ecd 01bc e126 b93c 1151 4dbd
00000330: f6ee cebd c855 92bd fa07 383d b7eb 463d
00000340: b710 ddbb fa3d 2dbd 6aa6 bebd d2d5 cbbc
00000350: 99c5 f1bd de86 6fba e876 c6bd 84d7 1abd
00000360: 3d85 e7bd 4d86 84bc 5400 b9bd c8ab eebd
00000370: d0cb e93c 08f7 61bd 30c5 99bc ecea 90bc
00000380: 7dca dcbc eadb 67bd d21e 69bd d8db a13d
00000390: 31e2 dabd 46b8 d9bd 362e 7ebd f8bc f03c
000003a0: c4e5 d8bd 3f3d 90bd 29d4 c33b 0e87 e2bd
000003b0: 94ec 923b 1351 68bd 9d69 d2bd 6f16 c7bd
000003c0: 87c5 f53a e094 693d a805 11bd 4c98 aabc
000003d0: 4eb7 bcbd 908a a23d a665 d1bd 37e1 c63d
000003e0: 1481 83bd 26c4 90bc 5a2f bdbd 1d7a a43c
000003f0: 8c2d 4ebd 33c6 843b e17a 663c b7a2 983d

l2.bias f4 [256]
-0.11308871 -0.028632836 -0.06747189 0.08843773 -0.0040987367 -0.095440954 0.16652775 -0.0016060901
-0.087705165 0.023246981 -0.00802801 -0.046261374 -0.029749935 -0.0062211906 -0.055137876 -0.08709924
0.0699842 -0.032408774 -0.06420233 -0.053426143 -0.09005218 -0.045154445 -0.008727225 -0.07504218
-0.030952396 -0.12692599 -0.0072866823 -0.0068828585 0.02476138 -0.04223938 -0.10187751 -0.068377525
-0.012878003 -0.03972411 -0.12158734 -0.036159486 -0.07325901 -0.024553034 -0.049794685 -0.10678162
0.046650447 -0.039720193 -0.020225443 -0.067789726 -0.008916147 -0.01786679 -0.04774572 -0.09649146
-0.106891364 -0.060213484 -0.011376939 -0.0073205535 -0.108542815 -0.08005618 -0.08610972 -0.10845837
-0.042005967 0.07298797 -0.015405361 -0.016291853 -0.046584386 0.0825504 -0.10445105 -0.07512625
0.0024408503 -0.12414605 -0.028034156 -0.07178841 -0.051921446 -0.055325985 -0.108506545 -0.034462154
-0.060553163 -0.09112893 0.0042039934 -0.05612309 -0.03773163 -0.0021100615 -0.02157122 -0.10904663
-0.07900543 -0.076268144 0.015709974 -0.0843779 0.013344859 -0.030601012 -0.076161355 -0.019540602
-0.035500254 -0.08638088 -0.07103896 -0.0007159255 -0.045708105 -0.010204132 -0.04626095 -0.04054803
-0.07522663 0.14418928 -0.04084595 -0.0457507 -0.06368311 -0.064135574 -0.08987173 -0.12218492
0.08664782 -0.0044296035 -0.018766185 -0.096078776 -0.0932288 -0.022647774 -0.009946497 -0.056713834
-0.031734716 -0.095076464 -0.0722948 -0.010669625 0.0034909179 -0.02950594 -0.062092543 -0.08079989
-0.027433 0.013556584 -0.023030462 -0.10065539 -0.019197397 0.03270528 -0.0772496 0.039114904
-0.102648295 -0.13407244 -0.09901126 -0.0693382 -0.10934632 -0.030277323 -0.0034761955 0.009293897
-0.049324825 -0.14154293 -0.07375229 -0.060569927 -0.050414085 -0.094919465 -0.035787728 -0.013323197
-0.05905536 -0.00941743 -0.05342595 -0.06452006 -0.013627316 0.062151156 -0.05096728 -0.0592411
-0.07968518 0.20100951 -0.036782384 -0.0518517 -0.039080396 -0.1336086 0.0049671493 -0.040687703
-0.06162354 0.026041018 -0.07203763 -0.08608372 -0.10293836 0.027711017 -0.0737727 -0.11650744
0.013828017 0.030414917 -0.090268865 -0.053397134 -0.08602801 -0.039738152 -0.06303438 -0.07486812
-0.13868436 -0.049731422 0.1902986 -0.06099862 -0.025507241 0.021042403 -0.0015541236 -0.11443868
-0.055373643 -0.038130205 -0.035008475 0.058535296 -0.029017258 -0.088340804 -0.056946255 -0.035474587
-0.039901555 -0.0919203 -0.093813255 -0.11013769 -0.014031471 -0.0289664 -0.07999607 -0.00045023081
-0.0013250144 -0.08009166 -0.02394501 -0.11162195 -0.106077634 -0.059354547 -0.065944254 -0.04430524
-0.044827513 -0.11658257 -0.120857075 -0.007275894 0.007179226 -0.07558527 -0.04476969 -0.06267719
-0.13549869 -0.10709129 -0.058998145 -0.05478775 -0.121673666 -0.04003776 -0.08348171 -0.03828944
-0.046273135 0.084607214 0.01342233 -0.048053782 0.09239211 -0.033520177 -0.014411923 -0.062065963
-0.11660224 -0.06649281 -0.09068184 2.2328749 -0.04760806 0.16810416 -0.057593636 -0.033234395
0.026395472 0.06837474 -0.09366114 -0.036541406 0.016130064 -0.0352855 -0.017715964 -0.06397704
-0.04036262 -0.042703573 -0.019043187 -0.054229032 -0.10647209 0.16710897 -0.0014635387 -0.10127386
00000000: 0e9b e7bd 698f eabc b42e 8abd d71e b53d
00000010: b24e 86bb 8c76 c3bd 4086 2a3e 7183 d2ba
00000020: c49e b3bd 7470 be3c ea87 03bc 917c 3dbd
00000030: 23b6 f3bc 21db cbbb 41d8 61bd 1661 b2bd
00000040: e053 8f3d 10bf 04bd 837c 83bd 5fd5 5abd
00000050: 476d b8bd def3 38bd a2fc 0ebc b7af 99bd
00000060: e18f fdbc e3f8 01be 1fc5 eebb 9a89 e1bb
00000070: 61d8 ca3c 3303 2dbd 28a5 d0bd 8409 8cbd
00000080: 42fe 52bc c0b5 22bd c902 f9bd f81b 14bd
00000090: d208 96bd 7223 c9bc 83f5 4bbd 52b0 dabd
000000a0: 8a14 3f3d a4b1 22bd d4af a5bc 57d5 8abd
000000b0: 0815 12bc 605d 92bc 0491 43bd 519d c5bd
000000c0: dce9 dabd 6aa2 76bd 5766 3abc 41e1 efbb
000000d0: b24b debd 7ff4 a3bd 4b5a b0bd 6c1f debd
000000e0: 730e 2cbd b87a 953d c466 7cbc 7e76 85bc
000000f0: 45cf 3ebd 2f10 a93d 6fea d5bd cbdb 99bd
00000100: acf6 1f3b 4940 febd e3a7 e5bc cd05 93bd
00000110: 95ab 54bd 809d 62bd ae38 debd 3028 0dbd
00000120: 9806 78bd cea1 babd a7c1 893b 53e1 65bd
00000130: 7b8c 1abd f548 0abb 21b6 b0bc d753 dfbd
00000140: 99cd a1bd 7932 9cbd 34b2 803c 52ce acbd
00000150: 65a4 5a3c f9ae fabc 7cfa 9bbd 9d13 a0bc
00000160: b768 11bd 75e8 b0bd e07c 91bd f2ac 3bba
00000170: 6c38 3bbd 3b2f 27bc 1f7c 3dbd b115 26bd
00000180: 6b10 9abd 5ba6 133e 154e 27bd 1665 3bbd
00000190: 4a6c 82bd 8359 83bd ab0e b8bd 163c fabd
000001a0: 6a74 b13d 3526 91bb 8bbb 99bc f3c4 c4bd
000001b0: beee bebd d387 b9bc a2f6 22bc c44c 68bd
000001c0: 43fc 01bd 73b7 c2bd 4c0f 94bd a7cf 2ebc
000001d0: e2c7 643b 71b6 f1bc c054 7ebd 6a7a a5bd
000001e0: 2cbb e0bc 6f1c 5e3c 61aa bcbc 6a24 cebd
000001f0: dc43 9dbc f9f5 053d 0a35 9ebd f336 203d
00000200: 4539 d2bd 494a 09be 6ac6 cabd 3001 8ebd
00000210: f7f0 dfbd 2608 f8bc e2d0 63bb 6e45 183c
00000220: d408 4abd a1f0 10be 710b 97bd 2c18 78bd
00000230: 007f 4ebd 2365 c2bd 2796 12bd 8a49 5abc
00000240: 08e4 71bd 904b 1abc 2bd5 5abd 1823 84bd
00000250: 1b45 5fbc 3692 7e3d 11c3 50bd cca6 72bd
00000260: fc31 a3bd 70d5 4d3e 20a9 16bd 7362 54bd
00000270: c412 20bd b1d0 08be 78c3 a23b 26a8 26bd
00000280: f768 7cbd f953 d53c 7788 93bd a94c b0bd
00000290: 59d1 d2bd 3702 e33c 2416 97bd 749b eebd
000002a0: e88e 623c b428 f93c e2de b8bd f4b6 5abd
000002b0: 742f b0bd 79c4 22bd 2b18 81bd 7554 99bd
000002c0: 4603 0ebe 2db3 4bbd a3dd 423e b0d9 79bd
000002d0: 90f4 d0bc 1e61 ac3c bcb3 cbba d45e eabd
000002e0: 79cf 62bd 6b2e 1cbd 0c65 0fbd b5c2 6f3d
000002f0: 9ab5 edbc 06ec b4bd 7a40 69bd cd4d 11bd
00000300: d06f 23bd b640 bcbd 2a21 c0bd df8f e1bd
00000310: 41e4 65bc f24a edbc fbd4 a3bd f50c ecb9
00000320: 1bac adba 1907 a4bd 5328 c4bc 0d9a e4bd
00000330: 3b3f d9bd c11d 73bd c80d 87bd 6979 35bd
00000340: 0e9d 37bd d8c2 eebd ea83 f7bd 9f6a eebb
00000350: b63f eb3b 73cc 9abd 6c60 37bd e65c 80bd
00000360: 2bc0 0abe ae52 dbbd 0aa8 71bd 1f69 60bd
00000370: 0b30 f9bd a2fe 23bd 75f8 aabd 63d5 1cbd
00000380: e688 3dbd 8c46 ad3d 55e9 5b3c 0bd4 44bd
00000390: 1338 bd3d 744c 09bd fc1f 6cbc e138 7ebd
000003a0: 28cd eebd 622d 88bd 67b7 b9bd 6ce7 0e40
000003b0: ab00 43bd 7f23 2c3e 4ee7 6bbd ca20 08bd
000003c0: 513b d83c 0e08 8c3d 69d1 bfbd 71ac 15bd
000003d0: 3223 843c 8787 10bd 1221 91bc 6506 83bd
000003e0: 4653 25bd f1e9 2ebd 7500 9cbc 431f 5ebd
000003f0: 0a0e dabd 9d1e 2b3e 36d4 bfba ab68 cfbd

l3.weight f4 [3, 256]
0.07165535 -0.014488428 -0.022752797 -0.115746126 -0.046699453 -0.098119706 -1.3622694 -0.045650125
-0.062242784 -0.0121319685 -0.029287284 0.053404015 0.1272313 0.006677583 -0.072327636 -0.09306832
0.040078755 -0.06300211 -0.01503173 -0.045621082 0.033104297 -0.0493831 -0.03324336 -0.002153404
-0.01753099 -0.016371513 0.05467748 -0.0013587334 -0.08324875 0.021826874 -0.08769508 -0.05804305
-0.048523456 -0.018222235 -0.11493544 0.008453036 0.0021411371 -0.0270004 -0.02556903 -0.06386186
-0.00048449414 -0.054758362 -0.029881347 -0.008882864 -0.007723311 -0.04217758 -0.052760255 -0.05005688
0.05010827 0.003321118 0.05074249 -0.053892285 -0.20839424 -0.075146504 -0.2488928 -0.019460227
-0.09377339 0.06745514 -0.040899187 0.03753612 -0.015884537 0.06278039 0.053089608 0.0138548855
-0.031490847 -0.015679123 -0.013259388 0.053199813 0.044653453 -0.03299749 -0.07692233 -0.111743264
-0.0777943 -0.038995627 -0.049618535 0.021785142 -0.030843474 -0.07461306 0.03393621 0.04729517
-0.0259207 0.0053865765 0.014266944 -0.021382444 -0.052189406 0.030466411 -0.0143705765 0.05330995
-0.026958358 0.061483756 -0.0026439764 0.032338854 -0.025215013 -0.08078398 0.07298127 -0.083945334
0.038274635 0.1284874 -0.035191536 -0.038049813 -0.10899972 -0.013642911 0.03821295 0.09146322
0.055610184 -0.038264934 -0.053308204 -0.105038054 0.005657176 -0.014865909 -0.1948682 -0.02276685
-0.10507314 0.0053086537 0.06254591 -0.039425626 -0.05357051 0.031949207 -0.06569012 0.043852944
-0.012984667 -0.04532607 -0.08141817 -0.029645652 -0.008493273 -0.024634028 -0.02885372 0.04165424
-0.108887464 -0.10851153 0.0527876 -0.017365457 -0.07351069 -0.055978604 -0.013422775 0.010093693
-0.05230145 -0.090869874 -0.044330124 -0.020490957 -0.104841374 0.0016179684 -0.09444029 -0.03936824
0.045152143 -0.10405773 0.009549369 -0.06829273 -0.033672847 -0.13765343 0.014547493 -0.1413651
-0.027525058 0.210058 -0.03784339 -0.10476578 -0.08952302 -0.04135948 -0.026414828 -0.032826535
-0.053755775 -0.0054295775 0.042004656 0.009077339 -0.017310152 -0.03854538 -0.012868533 -0.05379237
0.04314962 0.035704248 -0.040292107 -0.013577132 -0.112502076 0.0392131 -0.057308704 -0.07766018
-0.12729663 -0.032544184 0.26985732 -0.0066737547 -0.15868972 -0.023790834 -0.0052147773 -0.033175536
-0.088717 -0.029265497 -0.018264767 0.10088574 0.022178143 -0.09907857 0.04455504 0.003043097
-0.13900106 -0.001635388 0.041937277 0.020622812 -0.10885652 -0.044533588 -0.048318006 0.09127896
-0.009283719 -0.04567855 -0.045819204 -0.023757532 -0.053852193 0.014051479 0.0034750635 -0.02809489
-0.09447888 -0.06617899 -0.032013174 -0.030499546 -0.083827995 -0.08128296 -0.11796644 0.022453928
-0.06842859 0.07411896 -0.06556605 0.020615295 -0.014321341 -0.08394535 -0.029798685 -0.121341266
0.07783206 0.06449594 -0.047658443 -0.0059643066 0.13001876 -0.08033101 -0.09423188 -0.10675579
-0.013897727 -0.029481383 0.04576912 -2.4788818 0.043412045 0.12678546 -0.061310895 0.044720292
-0.10425246 -0.08805991 -0.033806246 -0.008248143 0.0075318594 -0.024291614 -0.140134 -0.050403558
-0.028695257 -0.05386268 -0.07036837 -0.09302336 -0.06946403 0.23623993 0.051172607 -0.04189466
00000000: 0ac0 923d df60 6dbc 1364 babc 4e0c edbd
00000010: ed47 3fbd fcf2 c8bd d85e aebf a0fb 3abd
00000020: 4af2 7ebd 2ac5 46bc e3eb efbc 2bbe 5a3d
00000030: ec48 023e a0cf da3b 8320 94bd 9a9a bebd
00000040: 9f29 243d 4007 81bd a547 76bc 2cdd 3abd
00000050: 5f98 073d ef45 4abd 312a 08bd 2020 0dbb
00000060: 279d 8fbc 8d1d 86bc 7ef5 5f3d 8717 b2ba
00000070: 527e aabd 46ce b23c 7a99 b3bd 8dbe 6dbd
00000080: 88c0 46bd cc46 95bc 4663 ebbd 9a7e 0a3c
00000090: 5252 0c3b f12f ddbc 2476 d1bc 02ca 82bd
000000a0: b403 feb9 4e4a 60bd bac9 f4bc 6f89 11bc
000000b0: d413 fdbb 66c2 2cbd 231b 58bd 7108 4dbd
000000c0: 543e 4d3d 1da7 593b 5bd7 4f3d 28be 5cbd
000000d0: 4d65 55be 69e6 99bd c1dd 7ebe 0e6b 9fbc
000000e0: 430c c0bd ec25 8a3d e885 27bd 79bf 193d
000000f0: 4a20 82bc 0193 803d 7d74 593d 9aff 623c
00000100: 8cfc 00bd 8171 80bc e73d 59bc 0ce8 593d
00000110: 8ae6 363d 6028 07bd 7489 9dbd a7d9 e4bd
00000120: 9e52 9fbd e1b9 1fbd ce3c 4bbd c176 b23c
00000130: 74ab fcbc bbce 98bd b200 0b3d 95b8 413d
00000140: a657 d4bc e181 b03b e6bf 693c 3c2a afbc
00000150: 8fc4 55bd b294 f93c 9172 6bbc 895b 5a3d
00000160: c6d7 dcbc 64d6 7b3d 9046 2dbb bf75 043d
00000170: b78f cebc 1272 a5bd 3477 953d 88eb abbd
00000180: ddc5 1c3d 3392 033e 0025 10bd 1fda 1bbd
00000190: 3f3b dfbd 8486 5fbc 2f85 1c3d 1251 bb3d
000001a0: 81c7 633d b1bb 1cbd b459 5abd 311e d7bd
000001b0: d55f b93b 2490 73bc 888b 47be 8c81 babc
000001c0: 9630 d7bd 37f4 ad3b 1218 803d c47c 21bd
000001d0: c06c 5bbd 2cdd 023d 8b88 86bd 259f 333d
000001e0: a4bd 54bc d4a7 39bd 92be a6bd 70db f2bc
000001f0: 5e27 0bbc 4dcd c9bc a35e ecbc a39d 2a3d
00000200: 6400 dfbd 4b3b debd cf37 583d 0142 8ebc
00000210: c68c 96bd d249 65bd 33eb 5bbc 0460 253c
00000220: 0c3a 56bd fc19 babd 8193 35bd a7dc a7bc
00000230: 13b7 d6bd 0312 d43a e969 c1bd 9740 21bd
00000240: 74f1 383d 381c d5bd f574 1c3c 0fdd 8bbd
00000250: 8aec 09bd 05f5 0cbe 9c58 6e3c 03c2 10be
00000260: 3b7c e1bc 7219 573e ac01 1bbd 718f d6bd
00000270: d857 b7bd 8f68 29bd e963 d8bc 1e75 06bd
00000280: 042f 5cbd 99ea b1bb 130d 2c3d 1fb9 143c
00000290: 05ce 8dbc c3e1 1dbd 8ad6 52bc 6355 5cbd
000002a0: a8bd 303d 9e3e 123d 5609 25bd 9e72 5ebc
000002b0: 7d67 e6bd ea9d 203d 88bc 6abd 4d0c 9fbd
000002c0: 0c5a 02be 0d4d 05bd bd2a 8a3e 83af dabb
000002d0: 8f7f 22be ffe4 c2bc b9e0 aabb 12e3 07bd
000002e0: 42b1 b5bd 32be efbc fe9f 95bc 2f9d ce3d
000002f0: f0ae b53c b5e9 cabd 587f 363d b26e 473b
00000300: 4b56 0ebe 845a d6ba 6cc6 2b3d 2cf1 a83c
00000310: 2bf0 debd da68 36bd 1ae9 45bd 77f0 ba3d
00000320: bd1a 18bc 6e19 3bbd ebac 3bbd 289f c2bc
00000330: 1e94 5cbd 2d38 663c e4bd 633b 4127 e6bc
00000340: 257e c1bd da88 87bd 3f20 03bd 2fda f9bc
00000350: 03ae abbd ae77 a6bd 6498 f1bd 4df1 b73c
00000360: 4a24 8cbd aecb 973d 7e47 86bd 68e1 a83c
00000370: 0fa4 6abc 8aeb abbd 5f1c f4bc c581 f8bd
00000380: 6a66 9f3d 7316 843d 8035 43bd 3b70 c3bb
00000390: a323 053e 9684 a4bd a5fc c0bd c8a2 dabd
000003a0: 4bb3 63bc f182 f1bc 6778 3b3d 00a6 1ec0
000003b0: d4d0 313d 0cd4 013e 2221 7bbd a02c 373d
000003c0: 5082 d5bd c158 b4bd 6b78 0abd 3823 07bc
000003d0: d1cd f63b 35ff c6bc 4a7f 0fbe f673 4ebd
000003e0: 5112 ebbc 1d9f 5cbd 4b1d 90bd 0883 bebd
000003f0: 2843 8ebd e1e8 713e 5e9a 513d bc99 2bbd

l3.bias f4 [3]
0.11148346 -0.05180668 -0.09012221
00000000: 7151 e43d 3e33 54bd fe91 b8bd
