gespeicherte_Klassen/models/10.09.2022.19.17.34/7SAVE.pt (torch, 363287 bytes, 6 tensors)

l1.weight f4 [256, 83]
-0.008001283 -0.14717278 0.035680447 0.025320912 -0.07510646 -0.17263065 -0.07759464 0.038570315
-0.1405214 -0.104515836 -0.06323167 -0.10708287 0.0781354 0.102954865 0.037439987 -0.054763243
-0.09694257 -0.020386051 -0.080587655 0.031758066 -0.08163746 -0.0398342 -0.0026669428 -0.027918234
-0.05460329 -0.0873741 -0.017275821 0.020717252 -0.007444984 -0.08427527 -0.022982553 0.0441341
-0.092673115 0.04970467 -0.039458845 0.142903 -0.07188852 0.20449026 -0.06878805 -0.09679954
0.27767864 -0.07796974 -0.049131 0.07315149 -0.017395088 0.097879946 0.04092083 0.15023543
0.07874354 -0.0030003095 0.06267691 -0.028431598 0.09748733 -0.070255786 -0.071046844 -0.067268714
0.09551613 0.13247378 0.17872547 -0.06519934 0.04137586 -0.055852015 -0.13151295 0.0070860577
-0.07842028 0.024535948 -0.0019203256 -0.09923649 -0.05935759 0.0559109 0.052242324 -0.008210982
0.017356128 -0.038878806 -0.051603783 -0.06759457 -0.08901167 -0.018955953 0.03526923 -0.02942954
-0.10125381 -0.05710115 0.0746274 -0.004653439 -0.045929123 -0.034311008 -0.0010407224 -0.021831008
-0.12270153 0.0017257929 0.010823758 -0.08508991 0.094794974 0.043663234 -0.0071455687 0.031742305
-0.104185335 -0.06834302 -0.019378453 -0.0127310995 -0.067790404 -0.043981306 -0.026675716 -0.09295918
0.0912558 -0.10858087 0.08960563 0.028797537 -0.051783606 0.028525267 -0.07942494 -0.09622409
0.027172415 -0.049278516 -0.10518657 -0.08971387 -0.075533025 -0.019381396 -0.028998464 -0.05536665
0.064787924 -0.038985096 0.041311592 -0.07699723 0.01589264 -0.07277273 0.15746874 0.05324489
0.12949654 0.023760743 0.14201638 0.064301535 0.038059995 -0.06975339 -0.09325518 -0.097469255
-0.074393004 -0.057800643 -0.105818674 -0.020978384 0.09549999 -0.08684523 -0.042092092 -0.06862351
0.02324766 -0.09923662 -0.026501454 -0.008994341 -0.06662737 0.10393222 -0.09966587 0.06843725
-0.10691977 -0.075602576 -0.0032039508 -0.049716573 -0.10175793 0.05010809 0.028533876 -0.01612918
-0.017881982 -0.033449925 -0.01005695 0.04626377 0.09382725 -0.09771966 -0.008663431 -0.03358391
0.0141150765 -0.106633715 -0.024131808 -0.081538044 -0.02765277 -0.043457106 -0.15059967 -0.052144244
-0.054330222 -0.102448925 0.07990326 0.042080864 -0.08731471 0.09553374 -0.05145146 -0.120600015
-0.05113588 -0.11836998 0.035209697 -0.08631532 0.055250306 -0.08527635 -0.08482855 -0.0053595733
-0.09198722 -0.1085947 0.061092652 -0.12083727 -0.03275644 0.016929429 -0.046940453 -0.09065189
-0.09044485 0.056844182 0.06727834 0.03513269 -0.028851628 -0.053461697 0.123230316 0.028953314
0.12185724 0.015749369 0.109238476 0.055757843 0.052759275 0.0508899 0.061209086 0.059553303
-0.11517728 0.0039352477 -0.031258643 0.045126915 -0.03529974 -0.06018427 -0.018913059 -0.06569724
-0.0017588999 -0.0027843267 -0.019833691 -0.09009496 -0.082528 -0.10874859 -0.07678802 -0.03608372
-0.08003236 -0.1428222 0.08684559 0.0768211 0.072329015 -0.041625194 -0.061740525 -0.080313444
0.0026265755 -0.05681424 0.0073599815 0.07228233 -0.023615856 -0.046756532 -0.050531276 0.004667691
-0.02918521 -0.07173573 -0.15367085 -0.11439846 -0.047470473 -0.084147885 -0.08504914 -0.0074803233
00000000: d017 03bc 76b4 16be a925 123d cd6d cf3c
00000010: 6ad1 99bd 17c6 30be f0e9 9ebd e8fb 1d3d
00000020: d8e4 0fbe 660c d6bd 9b7f 81bd 444e dbbd
00000030: 7405 a03d 00da d23d ac5a 193d 6c4f 60bd
00000040: d389 c6bd a600 a7bc 240b a5bd bf14 023d
00000050: 8a31 a7bd 3029 23bd e0c7 2ebb c8b4 e4bc
00000060: b3a7 5fbd 31f1 b2bd 0686 8dbc 3ab7 a93c
00000070: 0df5 f3bb 8398 acbd e845 bcbc f5c5 343d
00000080: 67cb bdbd 2097 4b3d 999f 21bd 2a55 123e
00000090: 4a3a 93bd e565 513e c0e0 8cbd d63e c6bd
000000a0: e52b 8e3e 99ae 9fbd 963d 49bd 73d0 953d
000000b0: 2580 8ebc 4875 c83d 9a9c 273d 51d7 193e
000000c0: 4b44 a13d d7a0 44bb c05c 803d 62e9 e8bc
000000d0: 70a7 c73d 44e2 8fbd 0281 91bd 2ec4 89bd
000000e0: f69d c33d 35a7 073e cf03 373e 3b87 85bd
000000f0: bc79 293d 15c5 64bd 55ab 06be 2932 e83b
00000100: d09a a0bd 9dff c83c 6fb3 fbba 803c cbbd
00000110: f220 73bd d402 653d 0cfc 553d 5b87 06bc
00000120: 702e 8e3c 623f 1fbd 7d5e 53bd 066f 8abd
00000130: c04b b6bd 8449 9bbc 7876 103d 3816 f1bc
00000140: 285e cfbd e5e2 69bd 40d6 983d e07b 98bb
00000150: 2d20 3cbd b389 0cbd d968 88ba f1d6 b2bc
00000160: f14a fbbd 0034 e23a 2256 313c 9e43 aebd
00000170: de23 c23d 38d8 323d 6025 eabb 3804 023d
00000180: 1f5f d5bd 6df7 8bbd 90bf 9ebc 1a96 50bc
00000190: b2d5 8abd be25 34bd 0887 dabc 6261 bebd
000001a0: 52e4 ba3d a65f debd 2883 b73d d0e8 eb3c
000001b0: 0c1b 54bd d2ad e93c 8ba9 a2bd 2311 c5bd
000001c0: af98 de3c 45d8 49bd 0e6c d7bd e8bb b7bd
000001d0: 0fb1 9abd bcc5 9ebc 308e edbc 24c8 62bd
000001e0: 88af 843d d6ae 1fbd 5836 293d b9b0 9dbd
000001f0: 4831 823c de09 95bd 7c3f 213e 5017 5a3d
00000200: be9a 043e e4a5 c23c be6c 113e 86b0 833d
00000210: cce4 1b3d deda 8ebd 92fc bebd f69d c7bd
00000220: 5c5b 98bd 5ec0 6cbd 76b7 d8bd dcda abbc
00000230: 8095 c33d e9db b1bd c268 2cbd 7c8a 8cbd
00000240: e071 be3c 923c cbbd 9419 d9bc 005d 13bc
00000250: ee73 88bd 6ada d43d 9f1d ccbd d428 8c3d
00000260: c1f8 dabd 86d5 9abd 60f9 51bb 9ba3 4bbd
00000270: 7666 d0bd 243e 4d3d e0bf e93c 5821 84bc
00000280: 3c7d 92bc ca02 09bd e8c5 24bc 147f 3d3d
00000290: 8028 c03d 3f21 c8bd 10f1 0dbc 488f 09bd
000002a0: ec42 673c c762 dabd 12b0 c5bc 6bfd a6bd
000002b0: 1088 e2bc 1400 32bd cd36 1abe 3495 55bd
000002c0: 5e89 5ebd bed0 d1bd 52a4 a33d fc5c 2c3d
000002d0: 0ed2 b2bd 32a7 c33d c4be 52bd 24fd f6bd
000002e0: db73 51bd f66b f2bd 0b38 103d 16c6 b0bd
000002f0: 254e 623d 5ea5 aebd 97ba adbd 5c9f afbb
00000300: cc63 bcbd e666 debd 4a3c 7a3d 8879 f7bd
00000310: 9e2b 06bd 96af 8a3c a244 40bd b3a7 b9bd
00000320: 263b b9bd 72d5 683d 3ac9 893d 4ce7 0f3d
00000330: 405a ecbc a7fa 5abd 2d60 fc3d 802f ed3c
00000340: 4a90 f93d d204 813c 6cb8 df3d 5662 643d
00000350: 1c1a 583d ee71 503d 61b6 7a3d 2aee 733d
00000360: 11e2 ebbd 40f3 803b 1009 00bd 00d7 383d
00000370: 7696 10bd c883 76bd 8fef 9abc 468c 86bd
00000380: e38a e6ba 4079 36bb 447a a2bc b583 b8bd
00000390: 7104 a9bd 95b7 debd 0a43 9dbd 86cc 13bd
000003a0: 02e8 a3bd fc3f 12be 1adc b13d 6254 9d3d
000003b0: 3c21 943d 2e7f 2abd a2e3 7cbd 607b a4bd
000003c0: a022 2c3b 0cb6 68bd 002c f13b c208 943d
000003d0: 0a76 c1bc c783 3fbd e2f9 4ebd 6ef3 983b
000003e0: d215 efbc 2fea 92bd e45b 1dbe bd49 eabd
000003f0: 6670 42bd ba55 acbd 3e2e aebd 801d f5bb

l1.bias f4 [256]
-0.0508815 -0.1239818 -0.00037835992 -0.054959197 -0.053130873 -0.012559749 -0.0755918 0.04200792
0.05955417 -0.0754983 -0.1139028 -0.06181013 0.09640975 0.04895179 -0.08110451 0.0044550807
-0.03479057 -0.14249477 0.0019506845 -0.0810268 0.056714304 0.049222436 -0.029237475 0.1311787
-0.026633792 0.031578995 -0.2269709 0.086200334 -0.0238011 0.03570312 -0.040054716 0.03155046
-0.060719457 0.0015628142 -0.17784417 -0.14546178 0.118476905 0.03504931 -0.14603996 -0.029476644
0.00032136624 -0.051476922 -0.03257022 -0.1316297 0.09957327 0.014904757 0.13627814 -0.06346428
-0.040361535 0.0069758613 -0.07421538 0.035387903 0.02640047 0.04603366 -0.09328185 -0.029279739
0.11618228 -0.15278618 0.27075392 -0.16944335 0.07327208 -0.17076895 -0.07765409 0.087693974
-0.10365971 -0.08312874 -0.18109576 -0.14033176 0.031670745 -0.026485335 -0.17141728 0.1008821
0.06618572 0.05525033 -0.035403688 -0.004722449 0.0031632353 -0.035631843 0.079917125 -0.03356749
-0.11069123 0.04810188 0.022774683 -0.06497254 0.01693637 -0.087040775 0.031587407 -0.11327015
0.07391943 -0.09736579 0.008971273 -0.05630894 -0.117105894 -0.08287353 0.014154651 0.019100416
0.049046278 -0.14911447 0.05554926 0.079599924 0.049871862 0.031489044 -0.03579818 0.03425435
-0.12413026 0.08660949 -0.03322167 -0.01364118 0.041025292 -0.16622391 0.043994147 -0.10587676
0.03649392 -0.019901056 -0.03482481 -0.18410936 -0.05603361 -0.01743901 -0.09545523 -0.1426991
-0.16923973 -0.031846434 -0.039129876 -0.08640077 0.12579687 0.055766407 0.070156135 -0.18475164
-0.07753555 -0.05154495 -0.13406515 0.07455507 -0.034291767 0.14250793 -0.05381911 -0.20510963
-0.07075698 0.10076945 -0.106368855 -0.080262996 -0.07150121 -0.1205582 -0.08093338 -0.08809871
-0.099613965 0.1000723 0.074837245 0.026557643 -0.097084254 -0.10469661 -0.048075106 0.05240068
-0.038275927 -0.084823176 0.04281725 -0.093254484 0.080141045 -0.093632855 -0.14842474 -0.058370948
-0.1532807 0.018462589 0.09150981 -0.017766396 -0.031154787 0.12713027 -0.10182175 0.046495885
-0.0016726361 -0.015762212 -0.10763759 -0.14582206 0.0040474827 0.2824695 0.09012777 0.24058613
0.08307677 -0.0466994 -0.007713106 0.11255102 0.09212796 -0.06301385 0.028467374 -0.13197985
-0.14421743 0.004286545 0.025583081 -0.052342147 -0.14237832 0.010679698 0.018229438 -0.06159375
-0.013582202 -0.11167956 0.016166382 0.07119181 0.019242348 -0.10229964 -0.057083275 -0.0522817
0.071485884 0.011284121 0.053351276 0.073704645 0.06467701 -0.076185934 -0.14183281 -0.184727
-0.0059531345 0.03761979 -0.044468366 0.011853274 -0.028848253 -0.09022482 0.019957816 -0.009670655
-0.060535267 -0.08370361 -0.14474702 0.043944936 0.060207393 -0.029529233 -0.13526168 -0.098123044
0.0081219645 -0.0043397723 -0.08703515 -0.17831075 0.06519355 0.09427292 0.032154825 -0.14998733
0.044514116 0.051418144 -0.040883154 -0.005646274 0.08039523 0.03899231 -0.09586154 0.004600576
-0.0022001963 -0.1680544 -0.09653112 0.01919084 -0.13757531 -0.09328771 0.015971804 -0.017193578
0.032101296 -0.1349494 -0.0120824 0.12803866 -0.12322244 -0.087498374 0.042306088 -0.119302504
00000000: 1f69 50bd 2cea fdbd 9c5e c6b9 e51c 61bd
00000010: c29f 59bd 68c7 4dbc e0cf 9abd 7f10 2c3d
00000020: 13ef 733d da9e 9abd df45 e9bd 9e2c 7dbd
00000030: 7a72 c53d ac81 483d 1f1a a6bd edfb 913b
00000040: 8f80 0ebd 26ea 11be 1cae ff3a 61f1 a5bd
00000050: 424d 683d 779d 493d 6e83 efbc b653 063e
00000060: 1c2f dabc fa58 013d 0f6b 68be cd89 b03d
00000070: 86fa c2bc 6f3d 123d 6a10 24bd 0e3b 013d
00000080: f7b4 78bd 58d7 cc3a c81c 36be eff3 14be
00000090: 05a4 f23d de8f 0f3d 808b 15be 0179 f1bc
000000a0: 0c7d a839 77d9 52bd 5a68 05bd f0c9 06be
000000b0: 12ed cb3d 1533 743c 7f8c 0b3e 8ff9 81bd
000000c0: 2352 25bd c495 e43b 3cfe 97bd e8f2 103d
000000d0: cc45 d83c cb8d 3c3d 8e0a bfbd 10dc efbc
000000e0: faf0 ed3d fb73 1cbe 42a0 8a3e 8f82 2dbe
000000f0: ac0f 963d 0ede 2ebe 1c09 9fbd e698 b33d
00000100: 8b4b d4bd 673f aabd 2b71 39be 21b3 0fbe
00000110: 2fb9 013d c6f7 d8bc 0388 2fbe 469b ce3d
00000120: 618c 873d 2c4e 623d 7503 11bd c6be 9abb
00000130: 484e 4f3b b2f2 11bd 97ab a33d 107e 09bd
00000140: 15b2 e2bd 7a06 453d f991 ba3c 5310 85bd
00000150: 24be 8a3c 6f42 b2bd cc61 013d 2efa e7bd
00000160: 1263 973d b767 c7bd 3ffc 123c 34a4 66bd
00000170: 37d5 efbd 99b9 a9bd e9e8 673c 7a78 9c3c
00000180: c0e4 483d 77b1 18be 9f87 633d 4905 a33d
00000190: 7046 4c3d a8fa 003d 1da1 12bd 4a4e 0c3d
000001a0: 0138 febd 5160 b13d 7213 08bd 417f 5fbc
000001b0: 230a 283d 9a36 2abe 3533 343d ead5 d8bd
000001c0: a67a 153d 8a07 a3bc 76a4 0ebd 2a87 3cbe
000001d0: 8083 65bd 41dc 8ebc 087e c3bd b61f 12be
000001e0: 2e4d 2dbe 6871 02bd a646 20bd e3f2 b0bd
000001f0: e5d0 003e 516b 643d 05ae 8f3d 892f 3dbe
00000200: f5ca 9ebd cc20 53bd 6048 09be 54b0 983d
00000210: 8675 0cbd 99ed 113e 6d71 5cbd 4208 52be
00000220: 09e9 90bd 3760 ce3d ead7 d9bd ed60 a4bd
00000230: 3a6f 92bd 38e7 f6bd 66c0 a5bd 196d b4bd
00000240: 6802 ccbd b5f2 cc3d 4544 993d 6a8f d93c
00000250: 1cd4 c6bd 2d6b d6bd 67ea 44bd 18a2 563d
00000260: 38c7 1cbd c6b7 adbd 2461 2f3d 35fc bebd
00000270: fd20 a43d 95c2 bfbd a8fc 17be 6016 6fbd
00000280: 9ef5 1cbe db3e 973c 7f69 bb3d d58a 91bc
00000290: 5338 ffbc 702e 023e ec87 d0bd 7872 3e3d
000002a0: 5b3c dbba c11f 81bc 1971 dcbd 6152 15be
000002b0: bfa0 843b d89f 903e e994 b83d 365c 763e
000002c0: 2724 aa3d df47 3fbd 39be fcbb 2681 e63d
000002d0: 95ad bc3d 680d 81bd 6934 e93c ba25 07be
000002e0: bcad 13be 2576 8c3b 9c93 d13c b864 56bd
000002f0: 9fcb 11be e6f9 2e3c e755 953c ba49 7cbd
00000300: e287 5ebc 41b8 e4bd 5c6f 843c 03cd 913d
00000310: 21a2 9d3c 7982 d1bd 27d0 69bd 5625 56bd
00000320: 3167 923d 09e1 383c de86 5a3d 76f2 963d
00000330: 6175 843d 5f07 9cbd 9f3c 11be 1329 3dbe
00000340: 8312 c3bb 3517 1a3d 7624 36bd 3c34 423c
00000350: 2c53 ecbc cac7 b8bd 937e a33c ab71 1ebc
00000360: d4f3 77bd cc6c abbd 9038 14be 9bff 333d
00000370: 079c 763d 4ae7 f1bc 0a82 0abe bcf4 c8bd
00000380: fd11 053c a634 8ebb 7c3f b2bd 1897 36be
00000390: 3284 853d 2912 c13d c7b4 033d 4796 19be
000003a0: 6f54 363d d59b 523d 1875 27bd 6104 b9bb
000003b0: 41a6 a43d 67b6 1f3d 0e53 c4bd 6ec0 963b
000003c0: 2b31 10bb 7416 2cbe 1cb2 c5bd 1c36 9d3c
000003d0: 8be0 0cbe a00d bfbd 4dd7 823c 8cd9 8cbc
000003e0: a67c 033d 2d30 0abe 42f5 45bc 911c 033e
000003f0: 0c5c fcbd 5932 b3bd 2649 2d3d df54 f4bd

l2.weight f4 [256, 256]
-0.075694226 0.13897565 -0.019568607 0.054059867 -0.061975088 -0.040257752 -0.0015760227 0.025267899
-0.108443454 -0.05726067 0.0047729383 -0.033134386 -0.051699575 -0.08514928 -0.08877889 -0.054498803
-0.05623352 -0.00051821023 -0.01987733 -0.10324017 0.008997065 -0.0936356 -0.09731322 -0.097882405
-0.03473686 0.03735018 0.0077603376 -0.00044113438 -0.024746193 -0.05179027 0.039004378 0.012811378
-0.038398333 0.0024663014 0.072116256 -0.043382447 -0.033110283 -0.034600038 -0.06139875 -0.02095077
-0.024627464 -0.06771831 -0.0068932166 -0.06112351 -0.08273619 -0.073992364 -0.023813253 0.0334189
-0.06643521 -0.043725584 -0.084367126 0.012590401 -0.009385534 -0.016013402 -0.046383813 -0.030070221
-0.07071054 -0.0834926 -0.051870577 -0.04968302 0.047542818 0.007615107 -0.1181409 -0.08101874
-0.05358588 0.013268279 -0.00039156128 -0.09322115 -0.121160515 -0.0038864368 -0.06593723 0.032945447
-0.022916617 0.0336897 -0.09103282 0.0062672966 -0.052180488 -0.05455152 -0.09955494 -0.026345493
-0.06322658 -0.012264283 -0.04579155 -0.024476983 -0.017783146 -0.07031572 -0.050586425 -0.0042835725
-0.023337739 -0.036759503 -0.01892721 -0.0501086 -0.10516612 -0.05185117 -0.10334476 -0.08940775
-0.031027166 -0.052008122 0.0105184 0.011474919 -0.09826771 -0.022710955 0.035884667 -0.019531367
0.020809408 0.04784923 -0.0116470875 -0.015010076 -0.029957678 -0.11889179 -0.05916232 -0.038782377
-0.008407939 -0.07597063 -0.05957907 -0.07038461 -0.032977723 0.037384048 -0.012181843 0.10610604
-0.059025906 0.0024315864 -0.06343905 -0.04261054 -0.13175945 0.04087417 -0.07260076 -0.029642783
-0.064291686 -0.03797664 -0.071906075 -0.05314173 0.009856276 -0.062200423 -0.07321276 0.052667942
-0.008567588 -0.026637077 -0.008252863 -0.0139927 -0.121669136 -0.021091918 -0.008959468 0.1499831
-0.07056962 -0.09072293 -0.026508076 -0.029438548 0.004490969 -0.010695526 -0.044212677 -0.0855272
0.06206464 -0.060581785 -0.11266208 -0.042002212 -0.030687092 0.052234612 -0.095099635 -0.026243104
-0.12265136 -0.0069175656 -0.057773046 -0.033427764 -0.11286528 -0.0098670125 -0.06787634 -0.037399866
0.03648962 -0.0012040577 0.01769469 -0.07525369 -0.096385114 -0.06727 0.00035724035 0.004807473
-0.0064632054 -0.044600263 -0.037069567 0.020996995 -0.06781614 -0.048305567 -0.0067446977 -0.029887956
-0.10483667 -0.11106205 -0.056196414 -0.054537456 -0.07681178 -0.10814667 -0.047668327 0.05995827
0.07032081 -0.068426594 -0.11063984 -0.015079983 -0.06888848 0.011586091 -0.10568893 -0.004761622
-0.07211423 -0.007922454 0.022601547 -0.05012614 -0.10104172 -0.07145268 0.044929482 0.04856464
-0.0067463773 -0.042295434 -0.09309085 -0.02488223 -0.11805267 -0.0009137223 -0.09690648 -0.037803188
-0.1130471 -0.01617732 -0.09033266 -0.116538584 0.028539568 -0.055167228 -0.018770784 -0.017690144
-0.026952023 -0.05660621 -0.05691416 0.0790326 -0.10687674 -0.106308505 -0.06205579 0.029386982
-0.10590699 -0.07042932 0.005976219 -0.11060916 0.0044837687 -0.056717943 -0.102740504 -0.09721076
0.0018750884 0.057026744 -0.035405785 -0.020824574 -0.0921465 0.07936585 -0.10224466 0.09710925
-0.06421104 -0.017671656 -0.09237547 0.02007776 -0.050336406 0.0040519475 0.014067383 0.074529104
00000000: 9305 9bbd a24f 0e3e 584e a0bc e16d 5d3d
00000010: 97d9 7dbd 50e5 24bd 8c92 ceba a0fe ce3c
00000020: 9a17 debd 2a8a 6abd 4f66 9c3b ecb7 07bd
00000030: efc2 53bd bf62 aebd b5d1 b5bd 233a 5fbd
00000040: 1f55 66bd 80d8 07ba c8d5 a2bc 956f d3bd
00000050: 6d68 133c 05c4 bfbd 274c c7bd 9276 c8bd
00000060: 3d48 0ebd 81fc 183d 6e4a fe3b 0e48 e7b9
00000070: 87b8 cabc 0922 54bd 0ec3 1f3d d0e6 513c
00000080: 9247 1dbd aca1 213b b0b1 933d cbb1 31bd
00000090: a69e 07bd c5b8 0dbd 417d 7bbd f3a0 abbc
000000a0: 89bf c9bc e6af 8abd 7ee0 e1bb a55c 7abd
000000b0: 9771 a9bd 4f89 97bd 0314 c3bc 42e2 083d
000000c0: 2f0f 88bd 9919 33bd acc8 acbd f847 4e3c
000000d0: c8c5 19bc 8a2e 83bc f4fc 3dbd d355 f6bc
000000e0: b0d0 90bd 2bfe aabd 3e76 54bd 6c80 4bbd
000000f0: 42bc 423d 2688 f93b dbf3 f1bd 27ed a5bd
00000100: de7c 5bbd 3263 593c 774a cdb9 bbea bebd
00000110: 0123 f8bd 97b3 7ebb 190a 87bd cef1 063d
00000120: a1bb bbbc 36fe 093d 6a6f babd e55d cd3b
00000130: 35bb 55bd 6a71 5fbd 76e3 cbbd 81d2 d7bc
00000140: f07c 81bd 22f0 48bc ec8f 3bbd f483 c8bc
00000150: f6ad 91bc b001 90bd b633 4fbd 365d 8cbb
00000160: c92e bfbc 2291 16bd 3c0d 9bbc ad3e 4dbd
00000170: 5661 d7bd e461 54bd 6ba6 d3bd 691b b7bd
00000180: af2c febc 7806 55bd 5e55 2c3c 4c01 3c3c
00000190: 9540 c9bd 530c babc cdfb 123d 3f00 a0bc
000001a0: 7e78 aa3c 8efd 433d 6dd3 3ebc d2ec 75bc
000001b0: ce69 f5bc 8a7d f3bd 3054 72bd 45da 1ebd
000001c0: 74c1 09bc 7d96 9bbd 2f09 74bd ce25 90bd
000001d0: a613 07bd 0420 193d 5a96 47bc 204e d93d
000001e0: 26c5 71bd 405b 1f3b 55ec 81bd 6488 2ebd
000001f0: f3eb 06be ac6b 273d b5af 94bd 6cd5 f2bc
00000200: 5cab 83bd 658d 1bbd 7e43 93bd 25ab 59bd
00000210: 387c 213c dfc5 7ebd 92f0 95bd 57ba 573d
00000220: 125f 0cbc 0036 dabc 0437 07bc a341 65bc
00000230: ab2d f9bd f5c8 acbc bcca 12bc 2b95 193e
00000240: ce86 90bd f2cc b9bd 7727 d9bc 1c29 f1bc
00000250: fa28 933b 4a3c 2fbc 5a18 35bd e228 afbd
00000260: 7e37 7e3d 9b24 78bd 60bb e6bd 830a 2cbd
00000270: 7f63 fbbc f6f3 553d 99c3 c2bd c7fb d6bc
00000280: a330 fbbd bfac e2bb 6ea3 6cbd 8deb 08bd
00000290: e925 e7bd 40a9 21bc c002 8bbd 9a30 19bd
000002a0: 2476 153d 79d1 9dba 74f4 903c 9b1e 9abd
000002b0: 8f65 c5bd dbc4 89bd fd4b bb39 0288 9d3b
000002c0: 4cc9 d3bb c4ae 36bd 42d6 17bd e401 ac3c
000002d0: 30e3 8abd 0fdc 45bd a002 ddbb 96d7 f4bc
000002e0: 9cb4 d6bd 8074 e3bd 362e 66bd ab62 5fbd
000002f0: 7f4f 9dbd 007c ddbd dd3f 43bd ce96 753d
00000300: 5b04 903d 3e23 8cbd 2497 e2bd 0812 77bc
00000310: 6715 8dbd 96d3 3d3c 7073 d8bd 6107 9cbb
00000320: a0b0 93bd 2ecd 01bc e126 b93c 1151 4dbd
00000330: f6ee cebd c855 92bd fa07 383d b7eb 463d
00000340: b710 ddbb fa3d 2dbd 6aa6 bebd d2d5 cbbc
00000350: 99c5 f1bd de86 6fba e876 c6bd 84d7 1abd
00000360: 3d85 e7bd 4d86 84bc 5400 b9bd c8ab eebd
00000370: d0cb e93c 08f7 61bd 30c5 99bc ecea 90bc
00000380: 7dca dcbc eadb 67bd d21e 69bd d8db a13d
00000390: 31e2 dabd 46b8 d9bd 362e 7ebd f8bc f03c
000003a0: c4e5 d8bd 3f3d 90bd 29d4 c33b 0e87 e2bd
000003b0: 94ec 923b 1351 68bd 9d69 d2bd 6f16 c7bd
000003c0: 87c5 f53a e094 693d a805 11bd 4c98 aabc
000003d0: 4eb7 bcbd 908a a23d a665 d1bd 37e1 c63d
000003e0: 1481 83bd 26c4 90bc 5a2f bdbd 1d7a a43c
000003f0: 8c2d 4ebd 33c6 843b e17a 663c b7a2 983d

l2.bias f4 [256]
-0.11308871 -0.028632836 -0.06747189 0.08843774 -0.004076564 -0.095440954 0.16701314 -0.0016060901
-0.087705165 0.023246981 -0.0080112135 -0.046261374 -0.029710714 -0.006214122 -0.055137876 -0.08709924
0.07011895 -0.032408774 -0.06420233 -0.053426143 -0.09005218 -0.04515248 -0.00872741 -0.07504218
-0.030952396 -0.12692599 -0.0073019327 -0.0068828585 0.024782777 -0.04223938 -0.10187751 -0.068377525
-0.012855349 -0.03972411 -0.12158734 -0.036159486 -0.07325901 -0.024540814 -0.049794685 -0.10678162
0.046710525 -0.039720193 -0.020225443 -0.067789726 -0.008916147 -0.01786062 -0.04774572 -0.09649146
-0.106891364 -0.060213484 -0.0113697415 -0.0073205535 -0.10851275 -0.08005618 -0.08609736 -0.10845837
-0.042005967 0.073074654 -0.015385197 -0.016270382 -0.046584386 0.08258177 -0.10445105 -0.07512625
0.0024514562 -0.12414605 -0.028013356 -0.07178841 -0.051921446 -0.055325985 -0.108506545 -0.034462154
-0.060553163 -0.09112893 0.004219756 -0.05612309 -0.03773163 -0.0021100615 -0.02157122 -0.10904663
-0.07900543 -0.076268144 0.015709974 -0.0843779 0.013369999 -0.030600987 -0.076161355 -0.019540612
-0.035500254 -0.08638088 -0.07103896 -0.0007158373 -0.045708105 -0.010204132 -0.04626095 -0.04054803
-0.07522663 0.14420544 -0.04075578 -0.045743868 -0.06368311 -0.064135574 -0.08987173 -0.12218492
0.08679669 -0.0044212313 -0.018766185 -0.096078776 -0.0932288 -0.022647329 -0.009897999 -0.056713834
-0.031734716 -0.095076464 -0.0722948 -0.010652109 0.0035111508 -0.02950594 -0.062092543 -0.08079989
-0.027433 0.013560149 -0.023030462 -0.10065539 -0.019195013 0.032705285 -0.0772496 0.039133985
-0.102648295 -0.13407244 -0.09901126 -0.0693382 -0.10934632 -0.030277323 -0.003484471 0.009293904
-0.049324825 -0.14154293 -0.07375229 -0.060569927 -0.050415017 -0.094919465 -0.035787728 -0.013303783
-0.05905536 -0.009397823 -0.05342595 -0.06452006 -0.013627316 0.062165607 -0.05096728 -0.0592411
-0.07968518 0.20101127 -0.036782384 -0.0518517 -0.03907897 -0.1336086 0.004988912 -0.040687703
-0.06162287 0.026041329 -0.07203763 -0.08608372 -0.10293836 0.027727053 -0.0737727 -0.11650744
0.013835748 0.030495506 -0.090268865 -0.053397134 -0.08602801 -0.039738152 -0.06303438 -0.07486812
-0.13868436 -0.049731422 0.19030315 -0.06099862 -0.025448196 0.021044308 -0.0015541236 -0.11443868
-0.055373643 -0.038130205 -0.035008475 0.058560252 -0.029017258 -0.088340804 -0.056946255 -0.035474587
-0.03989262 -0.0919203 -0.093813255 -0.11013769 -0.014031471 -0.02895996 -0.07999607 -0.00045023081
-0.001325293 -0.08009166 -0.023934353 -0.11162195 -0.106077634 -0.059354547 -0.065944254 -0.04430524
-0.044827513 -0.11658257 -0.120857075 -0.0072570187 0.007179226 -0.07558527 -0.04476969 -0.06267719
-0.13549869 -0.10709129 -0.058998145 -0.05478775 -0.121673666 -0.04003776 -0.08348171 -0.03828944
-0.046273135 0.0846719 0.013438842 -0.048053782 0.09247002 -0.033520173 -0.014386283 -0.062065963
-0.11660224 -0.06649281 -0.09068184 2.2342591 -0.04760806 0.16811244 -0.057593636 -0.033234395
0.026438259 0.06837474 -0.09366114 -0.036541406 0.016130066 -0.0352855 -0.017665148 -0.06397704
-0.040349398 -0.042703573 -0.019043187 -0.054229032 -0.10647209 0.16712199 -0.0014678949 -0.10127386
00000000: 0e9b e7bd 698f eabc b42e 8abd d91e b53d
00000010: b394 85bb 8c76 c3bd 7e05 2b3e 7183 d2ba
00000020: c49e b3bd 7470 be3c 7741 03bc 917c 3dbd
00000030: e263 f3bc d59f cbbb 41d8 61bd 1661 b2bd
00000040: 869a 8f3d 10bf 04bd 837c 83bd 5fd5 5abd
00000050: 476d b8bd cff1 38bd 69fd 0ebc b7af 99bd
00000060: e18f fdbc e3f8 01be 0d45 efbb 9a89 e1bb
00000070: 4005 cb3c 3303 2dbd 28a5 d0bd 8409 8cbd
00000080: 3e9f 52bc c0b5 22bd c902 f9bd f81b 14bd
00000090: d208 96bd d109 c9bc 83f5 4bbd 52b0 dabd
000000a0: 8953 3f3d a4b1 22bd d4af a5bc 57d5 8abd
000000b0: 0815 12bc 6f50 92bc 0491 43bd 519d c5bd
000000c0: dce9 dabd 6aa2 76bd 2748 3abc 41e1 efbb
000000d0: ef3b debd 7ff4 a3bd d053 b0bd 6c1f debd
000000e0: 730e 2cbd 2aa8 953d 3112 7cbc 7749 85bc
000000f0: 45cf 3ebd a220 a93d 6fea d5bd cbdb 99bd
00000100: 9ca8 203b 4940 febd 447c e5bc cd05 93bd
00000110: 95ab 54bd 809d 62bd ae38 debd 3028 0dbd
00000120: 9806 78bd cea1 babd e145 8a3b 53e1 65bd
00000130: 7b8c 1abd f548 0abb 21b6 b0bc d753 dfbd
00000140: 99cd a1bd 7932 9cbd 34b2 803c 52ce acbd
00000150: d70d 5b3c ecae fabc 7cfa 9bbd a213 a0bc
00000160: b768 11bd 75e8 b0bd e07c 91bd 07a7 3bba
00000170: 6c38 3bbd 3b2f 27bc 1f7c 3dbd b115 26bd
00000180: 6b10 9abd 97aa 133e 88ef 26bd ec5d 3bbd
00000190: 4a6c 82bd 8359 83bd ab0e b8bd 163c fabd
000001a0: 77c2 b13d fadf 90bb 8bbb 99bc f3c4 c4bd
000001b0: beee bebd e486 b9bc 382b 22bc c44c 68bd
000001c0: 43fc 01bd 73b7 c2bd 4c0f 94bd 2f86 2ebc
000001d0: 561b 663b 71b6 f1bc c054 7ebd 6a7a a5bd
000001e0: 2cbb e0bc 632b 5e3c 61aa bcbc 6a24 cebd
000001f0: dc3e 9dbc faf5 053d 0a35 9ebd f54a 203d
00000200: 4539 d2bd 494a 09be 6ac6 cabd 3001 8ebd
00000210: f7f0 dfbd 2608 f8bc b95b 64bb 7545 183c
00000220: d408 4abd a1f0 10be 710b 97bd 2c18 78bd
00000230: fa7f 4ebd 2365 c2bd 2796 12bd 1cf8 59bc
00000240: 08e4 71bd 54f9 19bc 2bd5 5abd 1823 84bd
00000250: 1b45 5fbc 5da1 7e3d 11c3 50bd cca6 72bd
00000260: fc31 a3bd e6d5 4d3e 20a9 16bd 7362 54bd
00000270: 4511 20bd b1d0 08be 077a a33b 26a8 26bd
00000280: 4368 7cbd a054 d53c 7788 93bd a94c b0bd
00000290: 59d1 d2bd d823 e33c 2416 97bd 749b eebd
000002a0: 55af 623c b6d1 f93c e2de b8bd f4b6 5abd
000002b0: 742f b0bd 79c4 22bd 2b18 81bd 7554 99bd
000002c0: 4603 0ebe 2db3 4bbd d4de 423e b0d9 79bd
000002d0: bc78 d0bc 1d65 ac3c bcb3 cbba d45e eabd
000002e0: 79cf 62bd 6b2e 1cbd 0c65 0fbd e0dc 6f3d
000002f0: 9ab5 edbc 06ec b4bd 7a40 69bd cd4d 11bd
00000300: 7266 23bd b640 bcbd 2a21 c0bd df8f e1bd
00000310: 41e4 65bc 703d edbc fbd4 a3bd f50c ecb9
00000320: 74b5 adba 1907 a4bd fa11 c4bc 0d9a e4bd
00000330: 3b3f d9bd c11d 73bd c80d 87bd 6979 35bd
00000340: 0e9d 37bd d8c2 eebd ea83 f7bd 49cc edbb
00000350: b63f eb3b 73cc 9abd 6c60 37bd e65c 80bd
00000360: 2bc0 0abe ae52 dbbd 0aa8 71bd 1f69 60bd
00000370: 0b30 f9bd a2fe 23bd 75f8 aabd 63d5 1cbd
00000380: e688 3dbd 7668 ad3d 972e 5c3c 0bd4 44bd
00000390: ec60 bd3d 734c 09bd 72b4 6bbc e138 7ebd
000003a0: 28cd eebd 622d 88bd 67b7 b9bd 1afe 0e40
000003b0: ab00 43bd ab25 2c3e 4ee7 6bbd ca20 08bd
000003c0: 0c95 d83c 0e08 8c3d 69d1 bfbd 71ac 15bd
000003d0: 3323 843c 8787 10bd 80b6 90bc 6506 83bd
000003e0: 6945 25bd f1e9 2ebd 7500 9cbc 431f 5ebd
000003f0: 0a0e dabd 0722 2b3e 6166 c0ba ab68 cfbd

l3.weight f4 [3, 256]
0.07165535 -0.01506624 -0.023118034 -0.11676511 -0.047511205 -0.098119706 -1.3660692 -0.045650125
-0.062242784 -0.01291626 -0.029921144 0.053404015 0.1272313 0.0062994254 -0.072327636 -0.09306832
0.0389251 -0.06300211 -0.01503173 -0.04629945 0.033104297 -0.05008749 -0.034431417 -0.002153404
-0.01753099 -0.016371513 0.054123458 -0.0013587334 -0.08462835 0.021826874 -0.08769508 -0.05804305
-0.049347546 -0.01886233 -0.11493544 0.008453036 0.0021411371 -0.027691267 -0.026021324 -0.06386186
-0.0013237174 -0.054758362 -0.029881347 -0.008882864 -0.007723311 -0.043004725 -0.052760255 -0.05005688
0.05010827 0.003321118 0.050044812 -0.053892285 -0.21241772 -0.075146504 -0.24979301 -0.019460227
-0.09377339 0.066831745 -0.042018685 0.03753612 -0.016545001 0.062604964 0.053089608 0.013191387
-0.03207343 -0.015679123 -0.013560533 0.053199813 0.044653453 -0.03299749 -0.07692233 -0.111743264
-0.0777943 -0.038995627 -0.050253846 0.021785142 -0.030843474 -0.07461306 0.03393621 0.04729517
-0.0259207 0.0053865765 0.013619513 -0.021382444 -0.05291645 0.029821308 -0.0143705765 0.052599136
-0.027652923 0.061483756 -0.0026439764 0.032000504 -0.025904633 -0.08078398 0.07298127 -0.083945334
0.038274635 0.1284874 -0.036834672 -0.03870189 -0.10977306 -0.014086286 0.03758746 0.09146322
0.05484203 -0.038964257 -0.053308204 -0.105038054 0.005657176 -0.015501154 -0.19622268 -0.023468759
-0.10507314 0.0053086537 0.06254591 -0.03972651 -0.054238845 0.031423654 -0.06569012 0.043282986
-0.012984667 -0.04669486 -0.08141817 -0.029645652 -0.009354475 -0.025561888 -0.02885372 0.0406686
-0.108887464 -0.11052385 0.0527876 -0.017365457 -0.07351069 -0.055978604 -0.014734333 0.009492688
-0.05230145 -0.09170916 -0.044568818 -0.02115747 -0.10695576 0.0016179684 -0.09444029 -0.040103897
0.045152143 -0.105976075 0.008919237 -0.06829273 -0.033672847 -0.13952003 0.014547493 -0.1413651
-0.027525058 0.20923842 -0.038431432 -0.10476578 -0.090417296 -0.04135948 -0.026994955 -0.032826535
-0.054534294 -0.0063972813 0.042004656 0.009077339 -0.017310152 -0.039294906 -0.012868533 -0.05379237
0.042777076 0.03516415 -0.040292107 -0.01426049 -0.112502076 0.0392131 -0.057308704 -0.07855687
-0.12729663 -0.032544184 0.26934338 -0.0066737547 -0.16205212 -0.02449997 -0.0052147773 -0.033175536
-0.088717 -0.029265497 -0.018906293 0.10008837 0.022178143 -0.09907857 0.04455504 0.003043097
-0.1400608 -0.001635388 0.041937277 0.020622812 -0.10885652 -0.045652725 -0.04882592 0.09127896
-0.009824858 -0.04567855 -0.046191797 -0.023757532 -0.053852193 0.014051479 0.0027811772 -0.02809489
-0.09447888 -0.06617899 -0.032013174 -0.030960428 -0.083827995 -0.08128296 -0.11796644 0.022453928
-0.06842859 0.07411896 -0.06556605 0.01994077 -0.014321341 -0.08394535 -0.029798685 -0.121341266
0.07783206 0.06407111 -0.048361022 -0.0059643066 0.13001876 -0.08105656 -0.095048904 -0.10675579
-0.013897727 -0.029481383 0.04576912 -2.5027397 0.043412045 0.12556021 -0.06217474 0.044720292
-0.10590987 -0.08896761 -0.033806246 -0.008698832 0.0069225603 -0.024291614 -0.14159404 -0.050403558
-0.02944659 -0.05386268 -0.07036837 -0.09302336 -0.06946403 0.23595965 0.050689027 -0.04189466
00000000: 0ac0 923d 64d8 76bc 0862 bdbc 8c22 efbd
00000010: 1c9b 42bd fcf2 c8bd 5bdb aebf a0fb 3abd
00000020: 4af2 7ebd b99e 53bc 301d f5bc 2bbe 5a3d
00000030: ec48 023e 696b ce3b 8320 94bd 9a9a bebd
00000040: ed6f 1f3d 4007 81bd a547 76bc 7ea4 3dbd
00000050: 5f98 073d 8a28 4dbd f507 0dbd 2020 0dbb
00000060: 279d 8fbc 8d1d 86bc 8fb0 5d3d 8717 b2ba
00000070: a151 adbd 46ce b23c 7a99 b3bd 8dbe 6dbd
00000080: a720 4abd 2c85 9abc 4663 ebbd 9a7e 0a3c
00000090: 5252 0c3b ccd8 e2bc ac2a d5bc 02ca 82bd
000000a0: 9680 adba 4e4a 60bd bac9 f4bc 6f89 11bc
000000b0: d413 fdbb b925 30bd 231b 58bd 7108 4dbd
000000c0: 543e 4d3d 1da7 593b cafb 4c3d 28be 5cbd
000000d0: 0884 59be 69e6 99bd bdc9 7fbe 0e6b 9fbc
000000e0: 430c c0bd 15df 883d c91b 2cbd 79bf 193d
000000f0: 6289 87bc 0837 803d 7d74 593d b020 583c
00000100: 6e5f 03bd 8171 80bc ff2c 5ebc 0ce8 593d
00000110: 8ae6 363d 6028 07bd 7489 9dbd a7d9 e4bd
00000120: 9e52 9fbd e1b9 1fbd fad6 4dbd c176 b23c
00000130: 74ab fcbc bbce 98bd b200 0b3d 95b8 413d
00000140: a657 d4bc e181 b03b 6124 5f3c 3c2a afbc
00000150: ebbe 58bd d14b f43c 9172 6bbc 3172 573d
00000160: 6288 e2bc 64d6 7b3d 9046 2dbb f612 033d
00000170: f435 d4bc 1272 a5bd 3477 953d 88eb abbd
00000180: ddc5 1c3d 3392 033e f4df 16bd df85 1ebd
00000190: b3d0 e0bd 2aca 66bc 4ff5 193d 1251 bb3d
000001a0: 09a2 603d fc98 1fbd b459 5abd 311e d7bd
000001b0: d55f b93b 8df8 7dbc 99ee 48be 8e41 c0bc
000001c0: 9630 d7bd 37f4 ad3b 1218 803d 44b8 22bd
000001d0: 8d29 5ebd 17b6 003d 8b88 86bd 8049 313d
000001e0: a4bd 54bc 1c43 3fbd 92be a6bd 70db f2bc
000001f0: 8343 19bc 2a67 d1bc a35e ecbc 1e94 263d
00000200: 6400 dfbd 545a e2bd cf37 583d 0142 8ebc
00000210: c68c 96bd d249 65bd 4668 71bc 3887 1b3c
00000220: 0c3a 56bd 03d2 bbbd cb8d 36bd 6e52 adbc
00000230: 9f0b dbbd 0312 d43a e969 c1bd fc43 24bd
00000240: 74f1 383d fc09 d9bd fe21 123c 0fdd 8bbd
00000250: 8aec 09bd 57de 0ebe 9c58 6e3c 03c2 10be
00000260: 3b7c e1bc 9942 563e 476a 1dbd 718f d6bd
00000270: b42c b9bd 8f68 29bd 8624 ddbc 1e75 06bd
00000280: 5a5f 5fbd 49a0 d1bb 130d 2c3d 1fb9 143c
00000290: 05ce 8dbc b2f3 20bd 8ad6 52bc 6355 5cbd
000002a0: 0437 2f3d 4908 103d 5609 25bd d5a4 69bc
000002b0: 7d67 e6bd ea9d 203d 88bc 6abd 6de2 a0bd
000002c0: 0c5a 02be 0d4d 05bd 60e7 893e 83af dabb
000002d0: fef0 25be 29b4 c8bc b9e0 aabb 12e3 07bd
000002e0: 42b1 b5bd 32be efbc 5fe1 9abc 22fb cc3d
000002f0: f0ae b53c b5e9 cabd 587f 363d b26e 473b
00000300: 196c 0fbe 845a d6ba 6cc6 2b3d 2cf1 a83c
00000310: 2bf0 debd 5afe 3abd b0fd 47bd 77f0 ba3d
00000320: 71f8 20bc 6e19 3bbd 9c33 3dbd 289f c2bc
00000330: 1e94 5cbd 2d38 663c 6944 363b 4127 e6bc
00000340: 257e c1bd da88 87bd 3f20 03bd b9a0 fdbc
00000350: 03ae abbd ae77 a6bd 6498 f1bd 4df1 b73c
00000360: 4a24 8cbd aecb 973d 7e47 86bd d35a a33c
00000370: 0fa4 6abc 8aeb abbd 5f1c f4bc c581 f8bd
00000380: 6a66 9f3d b737 833d 3516 46bd 3b70 c3bb
00000390: a323 053e fb00 a6bd 00a9 c2bd c8a2 dabd
000003a0: 4bb3 63bc f182 f1bc 6778 3b3d e32c 20c0
000003b0: d4d0 313d db92 003e f1aa 7ebd a02c 373d
000003c0: 46e7 d8bd a634 b6bd 6b78 0abd 8c85 0ebc
000003d0: a5d6 e23b 35ff c6bc 07fe 10be f673 4ebd
000003e0: fa39 f1bc 1d9f 5cbd 4b1d 90bd 0883 bebd
000003f0: 2843 8ebd 689f 713e 4c9f 4f3d bc99 2bbd

l3.bias f4 [3]
0.11114488 -0.052125603 -0.09044145
00000000: ed9f e33d a881 55bd 5e39 b9bd
