gespeicherte_Klassen/models/10.09.2022.19.17.34/9SAVE.pt (torch, 363287 bytes, 6 tensors)

l1.weight f4 [256, 83]
000000 d0 17 03 bc 76 b4 16 be a9 25 12 3d cd 6d cf 3c
       -0.008001283 -0.14717278 0.035680447 0.025320912
000010 df cb 99 bd 17 c6 30 be f0 e9 9e bd e8 fb 1d 3d
       -0.075095885 -0.17263065 -0.07759464 0.038570315
000020 d8 e4 0f be 66 0c d6 bd 9b 7f 81 bd 44 4e db bd
       -0.1405214 -0.104515836 -0.06323167 -0.10708287
000030 74 05 a0 3d 00 da d2 3d ac 5a 19 3d 6c 4f 60 bd
       0.0781354 0.102954865 0.037439987 -0.054763243
000040 d3 89 c6 bd a6 00 a7 bc 24 0b a5 bd bf 14 02 3d
       -0.09694257 -0.020386051 -0.080587655 0.031758066
000050 8a 31 a7 bd 30 29 23 bd e0 c7 2e bb c8 b4 e4 bc
       -0.08163746 -0.0398342 -0.0026669428 -0.027918234
000060 b3 a7 5f bd 31 f1 b2 bd 06 86 8d bc 3a b7 a9 3c
       -0.05460329 -0.0873741 -0.017275821 0.020717252
000070 27 1c f2 bb 83 98 ac bd e8 45 bc bc f5 c5 34 3d
       -0.00738861 -0.08427527 -0.022982553 0.0441341
000080 67 cb bd bd ee d4 4b 3d 99 9f 21 bd 2a 55 12 3e
       -0.092673115 0.049763612 -0.039458845 0.142903
000090 4a 3a 93 bd e5 65 51 3e c0 e0 8c bd d6 3e c6 bd
       -0.07188852 0.20449026 -0.06878805 -0.09679954
0000a0 e5 2b 8e 3e 99 ae 9f bd 96 3d 49 bd 73 d0 95 3d
       0.27767864 -0.07796974 -0.049131 0.07315149
0000b0 25 80 8e bc 48 75 c8 3d 9a 9c 27 3d 51 d7 19 3e
       -0.017395088 0.097879946 0.04092083 0.15023543
0000c0 4b 44 a1 3d d7 a0 44 bb c0 5c 80 3d 62 e9 e8 bc
       0.07874354 -0.0030003095 0.06267691 -0.028431598
0000d0 70 a7 c7 3d 44 e2 8f bd 02 81 91 bd 2e c4 89 bd
       0.09748733 -0.070255786 -0.071046844 -0.067268714
0000e0 f6 9d c3 3d 35 a7 07 3e cf 03 37 3e 3b 87 85 bd
       0.09551613 0.13247378 0.17872547 -0.06519934
0000f0 bc 79 29 3d 15 c5 64 bd 55 ab 06 be 29 32 e8 3b
       0.04137586 -0.055852015 -0.13151295 0.0070860577
000100 d0 9a a0 bd 9d ff c8 3c 6f b3 fb ba 80 3c cb bd
       -0.07842028 0.024535948 -0.0019203256 -0.09923649
000110 f2 20 73 bd d4 02 65 3d 0c fc 55 3d 5b 87 06 bc
       -0.05935759 0.0559109 0.052242324 -0.008210982
000120 70 2e 8e 3c 62 3f 1f bd 7d 5e 53 bd 06 6f 8a bd
       0.017356128 -0.038878806 -0.051603783 -0.06759457
000130 c0 4b b6 bd 84 49 9b bc 78 76 10 3d 38 16 f1 bc
       -0.08901167 -0.018955953 0.03526923 -0.02942954
000140 28 5e cf bd e5 e2 69 bd 40 d6 98 3d e0 7b 98 bb
       -0.10125381 -0.05710115 0.0746274 -0.004653439
000150 2d 20 3c bd b3 89 0c bd d9 68 88 ba f1 d6 b2 bc
       -0.045929123 -0.034311008 -0.0010407224 -0.021831008
000160 f1 4a fb bd 00 34 e2 3a 22 56 31 3c 9e 43 ae bd
       -0.12270153 0.0017257929 0.010823758 -0.08508991
000170 de 23 c2 3d 38 d8 32 3d 60 25 ea bb 38 04 02 3d
       0.094794974 0.043663234 -0.0071455687 0.031742305
000180 1f 5f d5 bd 6d f7 8b bd 90 bf 9e bc 1a 96 50 bc
       -0.104185335 -0.06834302 -0.019378453 -0.0127310995
000190 b2 d5 8a bd be 25 34 bd 08 87 da bc 62 61 be bd
       -0.067790404 -0.043981306 -0.026675716 -0.09295918
0001a0 52 e4 ba 3d a6 5f de bd 28 83 b7 3d d0 e8 eb 3c
       0.0912558 -0.10858087 0.08960563 0.028797537
0001b0 0c 1b 54 bd d2 ad e9 3c 8b a9 a2 bd 23 11 c5 bd
       -0.051783606 0.028525267 -0.07942494 -0.09622409
0001c0 af 98 de 3c 45 d8 49 bd 0e 6c d7 bd e8 bb b7 bd
       0.027172415 -0.049278516 -0.10518657 -0.08971387
0001d0 0f b1 9a bd bc c5 9e bc 30 8e ed bc 24 c8 62 bd
       -0.075533025 -0.019381396 -0.028998464 -0.05536665
0001e0 88 af 84 3d d6 ae 1f bd 58 36 29 3d b9 b0 9d bd
       0.064787924 -0.038985096 0.041311592 -0.07699723
0001f0 48 31 82 3c de 09 95 bd 7c 3f 21 3e 50 17 5a 3d
       0.01589264 -0.07277273 0.15746874 0.05324489
000200 be 9a 04 3e e4 a5 c2 3c be 6c 11 3e 86 b0 83 3d
       0.12949654 0.023760743 0.14201638 0.064301535
000210 cc e4 1b 3d de da 8e bd 92 fc be bd f6 9d c7 bd
       0.038059995 -0.06975339 -0.09325518 -0.097469255
000220 5c 5b 98 bd 5e c0 6c bd 76 b7 d8 bd dc da ab bc
       -0.074393004 -0.057800643 -0.105818674 -0.020978384
000230 80 95 c3 3d e9 db b1 bd c2 68 2c bd 7c 8a 8c bd
       0.09549999 -0.08684523 -0.042092092 -0.06862351
000240 e0 71 be 3c 92 3c cb bd 94 19 d9 bc 00 5d 13 bc
       0.02324766 -0.09923662 -0.026501454 -0.008994341
000250 ee 73 88 bd 6a da d4 3d 9f 1d cc bd d4 28 8c 3d
       -0.06662737 0.10393222 -0.09966587 0.06843725
000260 c1 f8 da bd 86 d5 9a bd 60 f9 51 bb 9b a3 4b bd
       -0.10691977 -0.075602576 -0.0032039508 -0.049716573
000270 76 66 d0 bd 24 3e 4d 3d e0 bf e9 3c 58 21 84 bc
       -0.10175793 0.05010809 0.028533876 -0.01612918
000280 3c 7d 92 bc ca 02 09 bd e8 c5 24 bc 14 7f 3d 3d
       -0.017881982 -0.033449925 -0.01005695 0.04626377
000290 80 28 c0 3d 3f 21 c8 bd 10 f1 0d bc 48 8f 09 bd
       0.09382725 -0.09771966 -0.008663431 -0.03358391
0002a0 ec 42 67 3c c7 62 da bd 0d 97 c5 bc 6b fd a6 bd
       0.0141150765 -0.106633715 -0.024119878 -0.081538044
0002b0 10 88 e2 bc 14 00 32 bd cd 36 1a be 34 95 55 bd
       -0.02765277 -0.043457106 -0.15059967 -0.052144244
0002c0 5e 89 5e bd be d0 d1 bd 52 a4 a3 3d fc 5c 2c 3d
       -0.054330222 -0.102448925 0.07990326 0.042080864
0002d0 0e d2 b2 bd 32 a7 c3 3d c4 be 52 bd 24 fd f6 bd
       -0.08731471 0.09553374 -0.05145146 -0.120600015
0002e0 db 73 51 bd f6 6b f2 bd 0b 38 10 3d 16 c6 b0 bd
       -0.05113588 -0.11836998 0.035209697 -0.08631532
0002f0 25 4e 62 3d 5e a5 ae bd 97 ba ad bd 5c 9f af bb
       0.055250306 -0.08527635 -0.08482855 -0.0053595733
000300 cc 63 bc bd e6 66 de bd 56 3c 7a 3d 88 79 f7 bd
       -0.09198722 -0.1085947 0.061092697 -0.12083727
000310 9e 2b 06 bd 96 af 8a 3c a2 44 40 bd b3 a7 b9 bd
       -0.03275644 0.016929429 -0.046940453 -0.09065189
000320 26 3b b9 bd 72 d5 68 3d 3a c9 89 3d 58 e7 0f 3d
       -0.09044485 0.056844182 0.06727834 0.035132736
000330 40 5a ec bc a7 fa 5a bd 2d 60 fc 3d 80 2f ed 3c
       -0.028851628 -0.053461697 0.123230316 0.028953314
000340 4a 90 f9 3d d2 04 81 3c 6c b8 df 3d 56 62 64 3d
       0.12185724 0.015749369 0.109238476 0.055757843
000350 1c 1a 58 3d ee 71 50 3d 61 b6 7a 3d 2a ee 73 3d
       0.052759275 0.0508899 0.061209086 0.059553303
000360 11 e2 eb bd 40 f3 80 3b 10 09 00 bd 00 d7 38 3d
       -0.11517728 0.0039352477 -0.031258643 0.045126915
000370 76 96 10 bd c8 83 76 bd 8f ef 9a bc 46 8c 86 bd
       -0.03529974 -0.06018427 -0.018913059 -0.06569724
000380 e3 8a e6 ba 40 79 36 bb 44 7a a2 bc b5 83 b8 bd
       -0.0017588999 -0.0027843267 -0.019833691 -0.09009496
000390 71 04 a9 bd 95 b7 de bd 0a 43 9d bd 86 cc 13 bd
       -0.082528 -0.10874859 -0.07678802 -0.03608372
0003a0 02 e8 a3 bd fc 3f 12 be 1a dc b1 3d 62 54 9d 3d
       -0.08003236 -0.1428222 0.08684559 0.0768211
0003b0 3c 21 94 3d 2e 7f 2a bd a2 e3 7c bd 60 7b a4 bd
       0.072329015 -0.041625194 -0.061740525 -0.080313444
0003c0 a0 22 2c 3b 0c b6 68 bd 00 2c f1 3b c2 08 94 3d
       0.0026265755 -0.05681424 0.0073599815 0.07228233
0003d0 0a 76 c1 bc c7 83 3f bd e2 f9 4e bd 6e f3 98 3b
       -0.023615856 -0.046756532 -0.050531276 0.004667691
0003e0 d2 15 ef bc 2f ea 92 bd e4 5b 1d be bd 49 ea bd
       -0.02918521 -0.07173573 -0.15367085 -0.11439846
0003f0 66 70 42 bd f5 e4 ab bd 3e 2e ae bd 80 1d f5 bb
       -0.047470473 -0.083932795 -0.08504914 -0.0074803233

l1.bias f4 [256]
000000 c1 29 50 bd 2c ea fd bd 47 85 bc b9 12 3a 60 bd
       -0.05082107 -0.1239818 -0.00035957454 -0.05474288
000010 c2 9f 59 bd 10 f3 4a bc e0 cf 9a bd 7f 10 2c 3d
       -0.053130873 -0.012387052 -0.0755918 0.04200792
000020 46 b7 76 3d 5e 77 9a bd df 45 e9 bd 85 af 7b bd
       0.060233377 -0.07542299 -0.1139028 -0.061446685
000030 94 f2 c5 3d 46 f8 48 3d e8 37 a5 bd ed fb 91 3b
       0.09665409 0.049064897 -0.08067304 0.0044550807
000040 8f 80 0e bd 26 ea 11 be a3 7d 0f 3b 48 2d a5 bd
       -0.03479057 -0.14249477 0.0021894954 -0.08065277
000050 61 6d 6c 3d 14 a7 4a 3d b6 41 ec bc 1b 05 07 3e
       0.0577215 0.049475744 -0.028839927 0.13185541
000060 0d cc ce bc 13 3c 03 3d 0f 6b 68 be 2a 16 b5 3d
       -0.025243783 0.032039713 -0.2269709 0.08842118
000070 ea 9a c0 bc 25 64 14 3d d7 ad 22 bd 0e 3b 01 3d
       -0.023511369 0.036228318 -0.039716568 0.03155046
000080 f7 b4 78 bd 58 d7 cc 3a 8a 7d 35 be ef f3 14 be
       -0.060719457 0.0015628142 -0.1772367 -0.14546178
000090 97 bf f3 3d 38 68 11 3d 4c 2f 15 be 01 79 f1 bc
       0.11901777 0.03549978 -0.14568824 -0.029476644
0000a0 b3 23 fb 39 e7 a5 51 bd 04 65 05 bd 46 9b 06 be
       0.0004790105 -0.051183607 -0.03256704 -0.1314517
0000b0 aa 44 cc 3d 61 30 74 3c 0a 15 0d 3e 8f f9 81 bd
       0.09974034 0.014904113 0.13777557 -0.06346428
0000c0 cc d2 24 bd ca 95 e4 3b 46 5e 97 bd 44 90 1c 3d
       -0.040240094 0.006975864 -0.07391028 0.03822352
0000d0 ba 78 dd 3c 82 d0 41 3d 8e 0a bf bd 22 74 eb bc
       0.027035106 0.04731799 -0.09328185 -0.0287419
0000e0 ee fc ee 3d fb 73 1c be ec 41 8c 3e 8f 82 2d be
       0.11669336 -0.15278618 0.27394044 -0.16944335
0000f0 20 8e 97 3d 0e de 2e be 1d 2e 9e bd 8c a8 b4 3d
       0.07400155 -0.17076895 -0.07723639 0.0882121
000100 8b 4b d4 bd 3f 3e aa bd 2b 71 39 be 21 b3 0f be
       -0.10365971 -0.08312654 -0.18109576 -0.14033176
000110 5b 37 0a 3d c6 f7 d8 bc 03 88 2f be 06 c7 d4 3d
       0.033744197 -0.026485335 -0.17141728 0.10389523
000120 c7 56 8d 3d b4 9b 63 3d 75 03 11 bd 6b b7 97 bb
       0.06901317 0.055568412 -0.035403688 -0.0046300194
000130 86 46 64 3b ab 96 0f bd 3c 92 a5 3d 10 7e 09 bd
       0.0034832074 -0.035055798 0.080845326 -0.03356749
000140 15 b2 e2 bd 4c 70 45 3d 43 ed bd 3c 53 10 85 bd
       -0.11069123 0.048202798 0.023184424 -0.06497254
000150 09 44 9e 3c 6f 42 b2 bd cc 61 01 3d 2e fa e7 bd
       0.019319551 -0.087040775 0.031587407 -0.11327015
000160 88 85 98 3d d7 13 c7 bd 97 b3 1a 3c 18 5d 63 bd
       0.07447344 -0.09720581 0.009442232 -0.055508703
000170 37 d5 ef bd 0b b8 a8 bd c5 1e 6e 3c b0 ed 9f 3c
       -0.117105894 -0.082382284 0.014533703 0.019522518
000180 82 2d 4d 3d 77 b1 18 be 27 f9 69 3d 52 b8 a3 3d
       0.050092228 -0.14911447 0.057122376 0.07994141
000190 70 46 4c 3d 4f 40 06 3d 1d a1 12 bd ad 9d 0c 3d
       0.049871862 0.032776173 -0.03579818 0.03433006
0001a0 89 45 fd bd 8e ac b2 3d 72 13 08 bd 52 9e 59 bc
       -0.123667784 0.087243184 -0.03322167 -0.013282375
0001b0 ea 45 2a 3d 9a 36 2a be a1 b9 35 3d ea d5 d8 bd
       0.04157058 -0.16622391 0.044366483 -0.10587676
0001c0 a6 7a 15 3d 30 1b 94 bc 76 a4 0e bd 2a 87 3c be
       0.03649392 -0.01807937 -0.03482481 -0.18410936
0001d0 80 83 65 bd 6e e6 8a bc 08 7e c3 bd b6 1f 12 be
       -0.05603361 -0.01695558 -0.09545523 -0.1426991
0001e0 2e 4d 2d be 68 71 02 bd 1d 04 1f bd e3 f2 b0 bd
       -0.16923973 -0.031846434 -0.038822282 -0.08640077
0001f0 6c 0a 03 3e 60 e1 66 3d 81 19 93 3d 89 2f 3d be
       0.12796944 0.056367278 0.07182599 -0.18475164
000200 d5 7c 9e bd 39 09 51 bd 60 48 09 be ce b6 9a 3d
       -0.077386536 -0.051034186 -0.13406515 0.075543985
000210 86 75 0c bd 84 11 15 3e 6d 71 5c bd 42 08 52 be
       -0.034291767 0.14557463 -0.05381911 -0.20510963
000220 b3 b5 8f bd 76 32 cf 3d 37 88 d9 bd ed 60 a4 bd
       -0.07017078 0.101170465 -0.10621684 -0.080262996
000230 3a 6f 92 bd 38 e7 f6 bd 68 ca a4 bd 19 6d b4 bd
       -0.07150121 -0.1205582 -0.080464184 -0.08809871
000240 35 48 cb bd 4b 0e ce 3d 24 3c 9a 3d 55 b2 e7 3c
       -0.09925882 0.1006132 0.07531002 0.028283278
000250 94 fc c5 bd 2d 6b d6 bd cf 10 41 bd 29 26 58 3d
       -0.09667316 -0.10469661 -0.04713517 0.052770767
000260 38 c7 1c bd c4 b7 ad bd bd ea 30 3d 35 fc be bd
       -0.038275927 -0.08482316 0.043192614 -0.093254484
000270 4c da a4 3d 95 c2 bf bd a8 fc 17 be a1 35 6e bd
       0.08049449 -0.093632855 -0.14842474 -0.058156613
000280 9e f5 1c be bc ca 97 3c f6 f4 bb 3d 01 ce 90 bc
       -0.1532807 0.018529288 0.09177582 -0.017676355
000290 53 38 ff bc 3c df 06 3e ec 87 d0 bd 27 62 44 3d
       -0.031154787 0.13171095 -0.10182175 0.047945168
0002a0 c3 9b da ba d0 92 7e bc 19 71 dc bd 61 52 15 be
       -0.0016678501 -0.0155379325 -0.10763759 -0.14582206
0002b0 8d c2 9b 3b 37 2f 92 3e 9f a4 bf 3d ab 30 79 3e
       0.004753417 0.28551647 0.09357571 0.24334972
0002c0 94 45 ab 3d 16 00 3e bd 39 be fc bb 45 05 e8 3d
       0.0836288 -0.0463868 -0.007713106 0.1132913
0002d0 2a 7c bd 3d 09 c1 7f bd 69 34 e9 3c ba 25 07 be
       0.09252198 -0.062439952 0.028467374 -0.13197985
0002e0 bc ad 13 be 15 da 98 3b 6c c1 d2 3c b1 64 56 bd
       -0.14421743 0.0046646693 0.025726996 -0.05234212
0002f0 9f cb 11 be de 18 38 3c 66 54 97 3c ba 49 7c bd
       -0.14237832 0.011236398 0.018472861 -0.06159375
000300 26 88 58 bc 41 b8 e4 bd 8d 46 88 3c b6 93 92 3d
       -0.013216054 -0.11167956 0.016635204 0.0715708
000310 50 a6 9e 3c 77 82 d1 bd 27 d0 69 bd 56 25 56 bd
       0.019366413 -0.10229962 -0.057083275 -0.0522817
000320 10 3f 94 3d 63 a3 3b 3c 4f e5 66 3d b7 fd 99 3d
       0.07238591 0.011452529 0.05637103 0.075190954
000330 f7 15 85 3d 5f 07 9c bd 9f 3c 11 be 13 29 3d be
       0.0649833 -0.076185934 -0.14183281 -0.184727
000340 6a c8 ba bb 0f 6c 1a 3d 61 8a 34 bd 28 70 45 3c
       -0.0057001607 0.03770071 -0.04407728 0.012050666
000350 f3 81 ea bc ca c7 b8 bd 60 66 a7 3c 9a 4e 1b bc
       -0.028626418 -0.09022482 0.020434558 -0.009479189
000360 d4 f3 77 bd 3b 0a ab bd 90 38 14 be 02 4f 35 3d
       -0.060535267 -0.08351561 -0.14474702 0.0442648
000370 88 97 78 3d 4a e7 f1 bc 0a 82 0a be bc f4 c8 bd
       0.060691386 -0.029529233 -0.13526168 -0.098123044
000380 fa e2 0b 3c f3 41 7a bb 7c 3f b2 bd 18 97 36 be
       0.008538002 -0.0038186281 -0.08703515 -0.17831075
000390 64 ad 86 3d 5e d6 c5 3d b4 90 04 3d 47 96 19 be
       0.065760404 0.09660028 0.032364562 -0.14998733
0003a0 e4 54 3d 3d d5 9b 52 3d 18 75 27 bd b2 13 a8 bb
       0.046223536 0.051418144 -0.040883154 -0.005129301
0003b0 b5 2a a9 3d 22 64 21 3d 0e 53 c4 bd 76 2a ae 3b
       0.08260099 0.039402135 -0.09586154 0.0053151203
0003c0 2b 31 10 bb 74 16 2c be 16 4c c2 bd bf 9d 9e 3c
       -0.0022001963 -0.1680544 -0.094871685 0.019362329
0003d0 8b e0 0c be a0 0d bf bd 03 59 97 3c 8c d9 8c bc
       -0.13757531 -0.09328771 0.018475061 -0.017193578
0003e0 f6 d7 0d 3d f0 b3 09 be 42 f5 45 bc 29 90 03 3e
       0.034629785 -0.13447547 -0.0120824 0.12847961
0003f0 a1 dd fb bd 59 32 b3 bd c0 ad 2d 3d df 54 f4 bd
       -0.12298132 -0.087498374 0.04240203 -0.119302504

l2.weight f4 [256, 256]
000000 93 05 9b bd a2 4f 0e 3e 58 4e a0 bc e1 6d 5d 3d
       -0.075694226 0.13897565 -0.019568607 0.054059867
000010 97 d9 7d bd 50 e5 24 bd 8c 92 ce ba a0 fe ce 3c
       -0.061975088 -0.040257752 -0.0015760227 0.025267899
000020 9a 17 de bd 2a 8a 6a bd 4f 66 9c 3b ec b7 07 bd
       -0.108443454 -0.05726067 0.0047729383 -0.033134386
000030 ef c2 53 bd bf 62 ae bd b5 d1 b5 bd 23 3a 5f bd
       -0.051699575 -0.08514928 -0.08877889 -0.054498803
000040 1f 55 66 bd 80 d8 07 ba c8 d5 a2 bc 95 6f d3 bd
       -0.05623352 -0.00051821023 -0.01987733 -0.10324017
000050 6d 68 13 3c 05 c4 bf bd 27 4c c7 bd 92 76 c8 bd
       0.008997065 -0.0936356 -0.09731322 -0.097882405
000060 3d 48 0e bd 81 fc 18 3d 6e 4a fe 3b 0e 48 e7 b9
       -0.03473686 0.03735018 0.0077603376 -0.00044113438
000070 87 b8 ca bc 09 22 54 bd 0e c3 1f 3d d0 e6 51 3c
       -0.024746193 -0.05179027 0.039004378 0.012811378
000080 92 47 1d bd ac a1 21 3b b0 b1 93 3d cb b1 31 bd
       -0.038398333 0.0024663014 0.072116256 -0.043382447
000090 a6 9e 07 bd c5 b8 0d bd 41 7d 7b bd f3 a0 ab bc
       -0.033110283 -0.034600038 -0.06139875 -0.02095077
0000a0 89 bf c9 bc e6 af 8a bd 7e e0 e1 bb a5 5c 7a bd
       -0.024627464 -0.06771831 -0.0068932166 -0.06112351
0000b0 97 71 a9 bd 4f 89 97 bd 03 14 c3 bc 42 e2 08 3d
       -0.08273619 -0.073992364 -0.023813253 0.0334189
0000c0 2f 0f 88 bd 99 19 33 bd ac c8 ac bd f8 47 4e 3c
       -0.06643521 -0.043725584 -0.084367126 0.012590401
0000d0 c8 c5 19 bc 8a 2e 83 bc f4 fc 3d bd d3 55 f6 bc
       -0.009385534 -0.016013402 -0.046383813 -0.030070221
0000e0 b0 d0 90 bd 2b fe aa bd 3e 76 54 bd 6c 80 4b bd
       -0.07071054 -0.0834926 -0.051870577 -0.04968302
0000f0 42 bc 42 3d 26 88 f9 3b db f3 f1 bd 27 ed a5 bd
       0.047542818 0.007615107 -0.1181409 -0.08101874
000100 de 7c 5b bd 32 63 59 3c 77 4a cd b9 bb ea be bd
       -0.05358588 0.013268279 -0.00039156128 -0.09322115
000110 01 23 f8 bd 97 b3 7e bb 19 0a 87 bd ce f1 06 3d
       -0.121160515 -0.0038864368 -0.06593723 0.032945447
000120 a1 bb bb bc 36 fe 09 3d 6a 6f ba bd e5 5d cd 3b
       -0.022916617 0.0336897 -0.09103282 0.0062672966
000130 35 bb 55 bd 6a 71 5f bd 76 e3 cb bd 81 d2 d7 bc
       -0.052180488 -0.05455152 -0.09955494 -0.026345493
000140 f0 7c 81 bd 22 f0 48 bc ec 8f 3b bd f4 83 c8 bc
       -0.06322658 -0.012264283 -0.04579155 -0.024476983
000150 f6 ad 91 bc b0 01 90 bd b6 33 4f bd 36 5d 8c bb
       -0.017783146 -0.07031572 -0.050586425 -0.0042835725
000160 c9 2e bf bc 22 91 16 bd 3c 0d 9b bc ad 3e 4d bd
       -0.023337739 -0.036759503 -0.01892721 -0.0501086
000170 56 61 d7 bd e4 61 54 bd 6b a6 d3 bd 69 1b b7 bd
       -0.10516612 -0.05185117 -0.10334476 -0.08940775
000180 af 2c fe bc 78 06 55 bd 5e 55 2c 3c 4c 01 3c 3c
       -0.031027166 -0.052008122 0.0105184 0.011474919
000190 95 40 c9 bd 53 0c ba bc cd fb 12 3d 3f 00 a0 bc
       -0.09826771 -0.022710955 0.035884667 -0.019531367
0001a0 7e 78 aa 3c 8e fd 43 3d 6d d3 3e bc d2 ec 75 bc
       0.020809408 0.04784923 -0.0116470875 -0.015010076
0001b0 ce 69 f5 bc 8a 7d f3 bd 30 54 72 bd 45 da 1e bd
       -0.029957678 -0.11889179 -0.05916232 -0.038782377
0001c0 74 c1 09 bc 7d 96 9b bd 2f 09 74 bd ce 25 90 bd
       -0.008407939 -0.07597063 -0.05957907 -0.07038461
0001d0 a6 13 07 bd 04 20 19 3d 5a 96 47 bc 20 4e d9 3d
       -0.032977723 0.037384048 -0.012181843 0.10610604
0001e0 26 c5 71 bd 40 5b 1f 3b 55 ec 81 bd 64 88 2e bd
       -0.059025906 0.0024315864 -0.06343905 -0.04261054
0001f0 f3 eb 06 be ac 6b 27 3d b5 af 94 bd 6c d5 f2 bc
       -0.13175945 0.04087417 -0.07260076 -0.029642783
000200 5c ab 83 bd 65 8d 1b bd 7e 43 93 bd 25 ab 59 bd
       -0.064291686 -0.03797664 -0.071906075 -0.05314173
000210 38 7c 21 3c df c5 7e bd 92 f0 95 bd 57 ba 57 3d
       0.009856276 -0.062200423 -0.07321276 0.052667942
000220 12 5f 0c bc 00 36 da bc 04 37 07 bc a3 41 65 bc
       -0.008567588 -0.026637077 -0.008252863 -0.0139927
000230 ab 2d f9 bd f5 c8 ac bc bc ca 12 bc 2b 95 19 3e
       -0.121669136 -0.021091918 -0.008959468 0.1499831
000240 ce 86 90 bd f2 cc b9 bd 77 27 d9 bc 1c 29 f1 bc
       -0.07056962 -0.09072293 -0.026508076 -0.029438548
000250 fa 28 93 3b 4a 3c 2f bc 5a 18 35 bd e2 28 af bd
       0.004490969 -0.010695526 -0.044212677 -0.0855272
000260 7e 37 7e 3d 9b 24 78 bd 60 bb e6 bd 83 0a 2c bd
       0.06206464 -0.060581785 -0.11266208 -0.042002212
000270 7f 63 fb bc f6 f3 55 3d 99 c3 c2 bd c7 fb d6 bc
       -0.030687092 0.052234612 -0.095099635 -0.026243104
000280 a3 30 fb bd bf ac e2 bb 6e a3 6c bd 8d eb 08 bd
       -0.12265136 -0.0069175656 -0.057773046 -0.033427764
000290 e9 25 e7 bd 40 a9 21 bc c0 02 8b bd 9a 30 19 bd
       -0.11286528 -0.0098670125 -0.06787634 -0.037399866
0002a0 24 76 15 3d 79 d1 9d ba 74 f4 90 3c 9b 1e 9a bd
       0.03648962 -0.0012040577 0.01769469 -0.07525369
0002b0 8f 65 c5 bd db c4 89 bd fd 4b bb 39 02 88 9d 3b
       -0.096385114 -0.06727 0.00035724035 0.004807473
0002c0 4c c9 d3 bb c4 ae 36 bd 42 d6 17 bd e4 01 ac 3c
       -0.0064632054 -0.044600263 -0.037069567 0.020996995
0002d0 30 e3 8a bd 0f dc 45 bd a0 02 dd bb 96 d7 f4 bc
       -0.06781614 -0.048305567 -0.0067446977 -0.029887956
0002e0 9c b4 d6 bd 80 74 e3 bd 36 2e 66 bd ab 62 5f bd
       -0.10483667 -0.11106205 -0.056196414 -0.054537456
0002f0 7f 4f 9d bd 00 7c dd bd dd 3f 43 bd ce 96 75 3d
       -0.07681178 -0.10814667 -0.047668327 0.05995827
000300 5b 04 90 3d 3e 23 8c bd 24 97 e2 bd 08 12 77 bc
       0.07032081 -0.068426594 -0.11063984 -0.015079983
000310 67 15 8d bd 96 d3 3d 3c 70 73 d8 bd 61 07 9c bb
       -0.06888848 0.011586091 -0.10568893 -0.004761622
000320 a0 b0 93 bd 2e cd 01 bc e1 26 b9 3c 11 51 4d bd
       -0.07211423 -0.007922454 0.022601547 -0.05012614
000330 f6 ee ce bd c8 55 92 bd fa 07 38 3d b7 eb 46 3d
       -0.10104172 -0.07145268 0.044929482 0.04856464
000340 b7 10 dd bb fa 3d 2d bd 6a a6 be bd d2 d5 cb bc
       -0.0067463773 -0.042295434 -0.09309085 -0.02488223
000350 99 c5 f1 bd de 86 6f ba e8 76 c6 bd 84 d7 1a bd
       -0.11805267 -0.0009137223 -0.09690648 -0.037803188
000360 3d 85 e7 bd 4d 86 84 bc 54 00 b9 bd c8 ab ee bd
       -0.1130471 -0.01617732 -0.09033266 -0.116538584
000370 d0 cb e9 3c 08 f7 61 bd 30 c5 99 bc ec ea 90 bc
       0.028539568 -0.055167228 -0.018770784 -0.017690144
000380 7d ca dc bc ea db 67 bd d2 1e 69 bd d8 db a1 3d
       -0.026952023 -0.05660621 -0.05691416 0.0790326
000390 31 e2 da bd 46 b8 d9 bd 36 2e 7e bd f8 bc f0 3c
       -0.10687674 -0.106308505 -0.06205579 0.029386982
0003a0 c4 e5 d8 bd 3f 3d 90 bd 29 d4 c3 3b 0e 87 e2 bd
       -0.10590699 -0.07042932 0.005976219 -0.11060916
0003b0 94 ec 92 3b 13 51 68 bd 9d 69 d2 bd 6f 16 c7 bd
       0.0044837687 -0.056717943 -0.102740504 -0.09721076
0003c0 87 c5 f5 3a e0 94 69 3d a8 05 11 bd 4c 98 aa bc
       0.0018750884 0.057026744 -0.035405785 -0.020824574
0003d0 4e b7 bc bd 90 8a a2 3d a6 65 d1 bd 37 e1 c6 3d
       -0.0921465 0.07936585 -0.10224466 0.09710925
0003e0 14 81 83 bd 26 c4 90 bc 5a 2f bd bd 1d 7a a4 3c
       -0.06421104 -0.017671656 -0.09237547 0.02007776
0003f0 8c 2d 4e bd 33 c6 84 3b e1 7a 66 3c b7 a2 98 3d
       -0.050336406 0.0040519475 0.014067383 0.074529104

l2.bias f4 [256]
000000 0e 9b e7 bd 69 8f ea bc b4 2e 8a bd d9 1e b5 3d
       -0.11308871 -0.028632836 -0.06747189 0.08843774
000010 5e 11 85 bb 8c 76 c3 bd dc 66 2b 3e 71 83 d2 ba
       -0.004060908 -0.095440954 0.16738456 -0.0016060901
000020 c4 9e b3 bd 74 70 be 3c a7 2b 03 bc 91 7c 3d bd
       -0.087705165 0.023246981 -0.008006013 -0.046261374
000030 1f 35 f3 bc 86 84 cb bb 41 d8 61 bd 16 61 b2 bd
       -0.029688416 -0.0062108664 -0.055137876 -0.08709924
000040 f0 c1 8f 3d 10 bf 04 bd 83 7c 83 bd 5f d5 5a bd
       0.070194125 -0.032408774 -0.06420233 -0.053426143
000050 47 6d b8 bd cf f1 38 bd a6 fd 0e bc b7 af 99 bd
       -0.09005218 -0.04515248 -0.008727467 -0.07504218
000060 e1 8f fd bc e3 f8 01 be c8 9f ef bb 9a 89 e1 bb
       -0.030952396 -0.12692599 -0.0073127486 -0.0068828585
000070 a6 10 cb 3c 33 03 2d bd 28 a5 d0 bd 84 09 8c bd
       0.024788212 -0.04223938 -0.10187751 -0.068377525
000080 4e 50 52 bc c0 b5 22 bd c9 02 f9 bd f8 1b 14 bd
       -0.012836529 -0.03972411 -0.12158734 -0.036159486
000090 d2 08 96 bd f8 07 c9 bc 83 f5 4b bd 52 b0 da bd
       -0.07325901 -0.024539933 -0.049794685 -0.10678162
0000a0 1c 74 3f 3d a4 b1 22 bd d4 af a5 bc 57 d5 8a bd
       0.04674159 -0.039720193 -0.020225443 -0.067789726
0000b0 08 15 12 bc 33 50 92 bc 04 91 43 bd 51 9d c5 bd
       -0.008916147 -0.017860508 -0.04774572 -0.09649146
0000c0 dc e9 da bd 6a a2 76 bd 6a 38 3a bc 41 e1 ef bb
       -0.106891364 -0.060213484 -0.011365989 -0.0073205535
0000d0 e2 3b de bd 7f f4 a3 bd cd 53 b0 bd 6c 1f de bd
       -0.108512655 -0.08005618 -0.08609734 -0.10845837
0000e0 73 0e 2c bd 73 bd 95 3d e4 d5 7b bc 42 33 85 bc
       -0.042005967 0.07311525 -0.01537082 -0.016259793
0000f0 45 cf 3e bd ac 23 a9 3d 6f ea d5 bd cb db 99 bd
       -0.046584386 0.08258757 -0.10445105 -0.07512625
000100 80 22 21 3b 49 40 fe bd f5 66 e5 bc cd 05 93 bd
       0.0024587214 -0.12414605 -0.028003195 -0.07178841
000110 95 ab 54 bd 80 9d 62 bd ae 38 de bd 30 28 0d bd
       -0.051921446 -0.055325985 -0.108506545 -0.034462154
000120 98 06 78 bd ce a1 ba bd 89 a8 8a 3b 53 e1 65 bd
       -0.060553163 -0.09112893 0.0042315167 -0.05612309
000130 7b 8c 1a bd f5 48 0a bb 21 b6 b0 bc d7 53 df bd
       -0.03773163 -0.0021100615 -0.02157122 -0.10904663
000140 99 cd a1 bd 79 32 9c bd 34 b2 80 3c 52 ce ac bd
       -0.07900543 -0.076268144 0.015709974 -0.0843779
000150 a0 69 5b 3c ec ae fa bc 7c fa 9b bd a2 13 a0 bc
       0.013391882 -0.030600987 -0.076161355 -0.019540612
000160 b7 68 11 bd 75 e8 b0 bd e0 7c 91 bd 49 b4 3a ba
       -0.035500254 -0.08638088 -0.07103896 -0.00071222015
000170 6c 38 3b bd 3b 2f 27 bc 1f 7c 3d bd b1 15 26 bd
       -0.045708105 -0.010204132 -0.04626095 -0.04054803
000180 6b 10 9a bd af aa 13 3e 58 b5 26 bd e1 5d 3b bd
       -0.07522663 0.1442058 -0.040700287 -0.045743827
000190 4a 6c 82 bd 83 59 83 bd ab 0e b8 bd 16 3c fa bd
       -0.06368311 -0.064135574 -0.08987173 -0.12218492
0001a0 0d ef b1 3d f2 b3 90 bb 8b bb 99 bc f3 c4 c4 bd
       0.086881734 -0.0044159824 -0.018766185 -0.096078776
0001b0 be ee be bd e4 86 b9 bc 8d a3 21 bc c4 4c 68 bd
       -0.0932288 -0.022647329 -0.009865654 -0.056713834
0001c0 43 fc 01 bd 73 b7 c2 bd 4c 0f 94 bd 96 6e 2e bc
       -0.031734716 -0.095076464 -0.0722948 -0.010646483
0001d0 3f 0b 67 3b 71 b6 f1 bc c0 54 7e bd 6a 7a a5 bd
       0.0035254506 -0.02950594 -0.062092543 -0.08079989
0001e0 2c bb e0 bc 38 30 5e 3c 61 aa bc bc 6a 24 ce bd
       -0.027433 0.013561301 -0.023030462 -0.10065539
0001f0 b5 3e 9d bc fa f5 05 3d 0a 35 9e bd 94 4d 20 3d
       -0.01919494 0.032705285 -0.0772496 0.039136484
000200 45 39 d2 bd 49 4a 09 be 6a c6 ca bd 30 01 8e bd
       -0.102648295 -0.13407244 -0.09901126 -0.0693382
000210 f7 f0 df bd 26 08 f8 bc 8a bb 64 bb 75 45 18 3c
       -0.10934632 -0.030277323 -0.003490182 0.009293904
000220 d4 08 4a bd a1 f0 10 be 71 0b 97 bd 2c 18 78 bd
       -0.049324825 -0.14154293 -0.07375229 -0.060569927
000230 05 80 4e bd 23 65 c2 bd 27 96 12 bd 70 c0 59 bc
       -0.050415058 -0.094919465 -0.035787728 -0.01329051
000240 08 e4 71 bd 7f c3 19 bc 2b d5 5a bd 18 23 84 bd
       -0.05905536 -0.009384989 -0.05342595 -0.06452006
000250 1b 45 5f bc 04 a2 7e 3d 11 c3 50 bd cc a6 72 bd
       -0.013627316 0.06216623 -0.05096728 -0.0592411
000260 fc 31 a3 bd e7 d5 4d 3e 20 a9 16 bd 73 62 54 bd
       -0.07968518 0.20101129 -0.036782384 -0.0518517
000270 45 11 20 bd b1 d0 08 be b3 f7 a3 3b 26 a8 26 bd
       -0.03907897 -0.1336086 0.0050038933 -0.040687703
000280 43 68 7c bd a1 54 d5 3c 77 88 93 bd a9 4c b0 bd
       -0.06162287 0.02604133 -0.07203763 -0.08608372
000290 59 d1 d2 bd 89 25 e3 3c 24 16 97 bd 74 9b ee bd
       -0.10293836 0.02772786 -0.0737727 -0.11650744
0002a0 1a bf 62 3c 9d 47 fa 3c e2 de b8 bd f4 b6 5a bd
       0.0138395075 0.030551726 -0.090268865 -0.053397134
0002b0 74 2f b0 bd 79 c4 22 bd 2b 18 81 bd 75 54 99 bd
       -0.08602801 -0.039738152 -0.06303438 -0.07486812
0002c0 46 03 0e be 2d b3 4b bd d8 de 42 3e b0 d9 79 bd
       -0.13868436 -0.049731422 0.1903032 -0.06099862
0002d0 cf 18 d0 bc 1d 65 ac 3c bc b3 cb ba d4 5e ea bd
       -0.025402455 0.021044308 -0.0015541236 -0.11443868
0002e0 79 cf 62 bd 6b 2e 1c bd 0c 65 0f bd dd e5 6f 3d
       -0.055373643 -0.038130205 -0.035008475 0.058568824
0002f0 9a b5 ed bc 06 ec b4 bd 7a 40 69 bd cd 4d 11 bd
       -0.029017258 -0.088340804 -0.056946255 -0.035474587
000300 58 66 23 bd b6 40 bc bd 2a 21 c0 bd df 8f e1 bd
       -0.039892524 -0.0919203 -0.093813255 -0.11013769
000310 41 e4 65 bc 35 3b ed bc fb d4 a3 bd f5 0c ec b9
       -0.014031471 -0.028958896 -0.07999607 -0.00045023081
000320 2a ba ad ba 19 07 a4 bd ce 11 c4 bc 0d 9a e4 bd
       -0.0013254334 -0.08009166 -0.023934271 -0.11162195
000330 3b 3f d9 bd c1 1d 73 bd c8 0d 87 bd 69 79 35 bd
       -0.106077634 -0.059354547 -0.065944254 -0.04430524
000340 0e 9d 37 bd d8 c2 ee bd ea 83 f7 bd ef 63 ed bb
       -0.044827513 -0.11658257 -0.120857075 -0.007244579
000350 b6 3f eb 3b 73 cc 9a bd 6c 60 37 bd e6 5c 80 bd
       0.007179226 -0.07558527 -0.04476969 -0.06267719
000360 2b c0 0a be ae 52 db bd 0a a8 71 bd 1f 69 60 bd
       -0.13549869 -0.10709129 -0.058998145 -0.05478775
000370 0b 30 f9 bd a2 fe 23 bd 75 f8 aa bd 63 d5 1c bd
       -0.121673666 -0.04003776 -0.08348171 -0.03828944
000380 e6 88 3d bd 7c 74 ad 3d 58 45 5c 3c 0b d4 44 bd
       -0.046273135 0.08469483 0.013444267 -0.048053782
000390 50 76 bd 3d 73 4c 09 bd ed 63 6b bc e1 38 7e bd
       0.09251082 -0.033520173 -0.014367086 -0.062065963
0003a0 28 cd ee bd 62 2d 88 bd 67 b7 b9 bd f7 fe 0e 40
       -0.11660224 -0.06649281 -0.09068184 2.2343118
0003b0 ab 00 43 bd b1 25 2c 3e 4e e7 6b bd ca 20 08 bd
       -0.04760806 0.16811253 -0.057593636 -0.033234395
0003c0 8e ce d8 3c 0e 08 8c 3d 69 d1 bf bd 71 ac 15 bd
       0.02646568 0.06837474 -0.09366114 -0.036541406
0003d0 58 23 84 3c 87 87 10 bd c3 58 90 bc 65 06 83 bd
       0.016130134 -0.0352855 -0.01762045 -0.06397704
0003e0 25 45 25 bd f1 e9 2e bd 75 00 9c bc 43 1f 5e bd
       -0.040349144 -0.042703573 -0.019043187 -0.054229032
0003f0 0a 0e da bd 27 22 2b 3e 81 c3 c0 ba ab 68 cf bd
       -0.10647209 0.16712247 -0.0014706702 -0.10127386

l3.weight f4 [3, 256]
000000 0a c0 92 3d b9 7b 7d bc 95 80 bf bc 18 7b f0 bd
       0.07165535 -0.015471392 -0.023376742 -0.11742228
000010 c9 ef 44 bd fc f2 c8 bd 59 3b af bf a0 fb 3a bd
       -0.04808024 -0.098119706 -1.3689986 -0.045650125
000020 4a f2 7e bd 64 a4 5c bc f4 c0 f8 bc 2b be 5a 3d
       -0.062242784 -0.013466928 -0.030365445 0.053404015
000030 ec 48 02 3e e0 a9 c5 3b 83 20 94 bd 9a 9a be bd
       0.1272313 0.0060322136 -0.072327636 -0.09306832
000040 0b 16 1c 3d 40 07 81 bd a5 47 76 bc 15 97 3f bd
       0.03810696 -0.06300211 -0.01503173 -0.046774942
000050 5f 98 07 3d 98 2e 4f bd a0 3a 10 bd 20 20 0d bb
       0.033104297 -0.050581545 -0.03521216 -0.002153404
000060 27 9d 8f bc 8d 1d 86 bc d7 14 5c 3d 87 17 b2 ba
       -0.01753099 -0.016371513 0.053730812 -0.0013587334
000070 ab 2b af bd 46 ce b2 3c 7a 99 b3 bd 8d be 6d bd
       -0.08553251 0.021826874 -0.08769508 -0.05804305
000080 c4 7e 4c bd 1c 30 9e bc 46 63 eb bd 9a 7e 0a 3c
       -0.04992558 -0.01931005 -0.11493544 0.008453036
000090 52 52 0c 3b a7 d2 e6 bc 77 c6 d7 bc 02 ca 82 bd
       0.0021411371 -0.028176619 -0.026339753 -0.06386186
0000a0 ff 6e fb ba 4e 4a 60 bd ba c9 f4 bc 6f 89 11 bc
       -0.001918286 -0.054758362 -0.029881347 -0.008882864
0000b0 d4 13 fd bb 7c 86 32 bd 23 1b 58 bd 71 08 4d bd
       -0.007723311 -0.043585286 -0.052760255 -0.05005688
0000c0 54 3e 4d 3d 1d a7 59 3b 77 f6 4a 3d 28 be 5c bd
       0.05010827 0.003321118 0.049551453 -0.053892285
0000d0 ec 61 5c be 69 e6 99 bd 1c 3b 80 be 0e 6b 9f bc
       -0.21521729 -0.075146504 -0.25045097 -0.019460227
0000e0 43 0c c0 bd 8a f5 87 3d bc 10 2f bd 79 bf 19 3d
       -0.09377339 0.0663863 -0.04274057 0.03753612
0000f0 61 54 8b bc df eb 7f 3d 7d 74 59 3d 36 83 50 3c
       -0.017008008 0.062480804 0.053089608 0.012726596
000100 04 0c 05 bd 81 71 80 bc 17 b6 61 bc 0c e8 59 3d
       -0.032482162 -0.015679123 -0.013776324 0.053199813
000110 8a e6 36 3d 60 28 07 bd 74 89 9d bd a7 d9 e4 bd
       0.044653453 -0.03299749 -0.07692233 -0.111743264
000120 9e 52 9f bd e1 b9 1f bd ad aa 4f bd c1 76 b2 3c
       -0.0777943 -0.038995627 -0.05069988 0.021785142
000130 74 ab fc bc bb ce 98 bd b2 00 0b 3d 95 b8 41 3d
       -0.030843474 -0.07461306 0.03393621 0.04729517
000140 a6 57 d4 bc e1 81 b0 3b eb ad 57 3c 3c 2a af bc
       -0.0259207 0.0053865765 0.013164024 -0.021382444
000150 9f d5 5a bd cc 95 f0 3c 91 72 6b bc b5 62 55 3d
       -0.05342638 0.029368304 -0.0143705765 0.052096087
000160 77 83 e6 bc 64 d6 7b 3d 90 46 2d bb db 17 02 3d
       -0.02813886 0.061483756 -0.0026439764 0.03176103
000170 43 2c d8 bc 12 72 a5 bd 34 77 95 3d 88 eb ab bd
       -0.026388293 -0.08078398 0.07298127 -0.083945334
000180 dd c5 1c 3d 33 92 03 3e ab 9d 1b bd 8e 65 20 bd
       0.038274635 0.1284874 -0.03799216 -0.03915935
000190 3e d6 e1 bd 51 e1 6b bc 13 26 18 3d 12 51 bb 3d
       -0.110271916 -0.014396981 0.037145685 0.09146322
0001a0 c4 65 5e 3d f2 9a 21 bd b4 59 5a bd 31 1e d7 bd
       0.05429627 -0.039454408 -0.053308204 -0.105038054
0001b0 d5 5f b9 3b 6e a3 82 bc a0 d3 49 be 3c 4b c4 bc
       0.005657176 -0.01594707 -0.19709635 -0.023961656
0001c0 96 30 d7 bd 37 f4 ad 3b 12 18 80 3d 0c 95 23 bd
       -0.10507314 0.0053086537 0.06254591 -0.039937064
0001d0 51 15 60 bd 76 66 fe 3c 8b 88 86 bd 48 a4 2f 3d
       -0.05470783 0.031054717 -0.06569012 0.04288128
0001e0 a4 bd 54 bc ff ef 42 bd 92 be a6 bd 70 db f2 bc
       -0.012984667 -0.04759216 -0.08141817 -0.029645652
0001f0 59 5d 22 bc 42 4f d6 bc a3 5e ec bc fa f8 23 3d
       -0.009909951 -0.02616084 -0.02885372 0.040032364
000200 64 00 df bd 1a 40 e5 bd cf 37 58 3d 01 42 8e bc
       -0.108887464 -0.11193867 0.0527876 -0.017365457
000210 c6 8c 96 bd d2 49 65 bd 55 87 7f bc b4 9c 14 3c
       -0.07351069 -0.055978604 -0.0155962305 0.009070564
000220 0c 3a 56 bd be ed bc bd b0 40 37 bd c5 27 b1 bc
       -0.05230145 -0.09225033 -0.044739425 -0.021625409
000230 1e f5 dd bd 03 12 d4 3a e9 69 c1 bd 70 60 26 bd
       -0.10837768 0.0016179684 -0.09444029 -0.040619314
000240 74 f1 38 3d bf ab db bd 6a e4 0a 3c 0f dd 8b bd
       0.045152143 -0.10726117 0.00847731 -0.06829273
000250 8a ec 09 bd f6 22 10 be 9c 58 6e 3c 03 c2 10 be
       -0.033672847 -0.14075837 0.014547493 -0.1413651
000260 3b 7c e1 bc c4 b5 55 3e 6a 1a 1f bd 71 8f d6 bd
       -0.027525058 0.2087012 -0.03884355 -0.10476578
000270 14 5b ba bd 8f 68 29 bd bd 79 e0 bc 1e 75 06 bd
       -0.09099403 -0.04135948 -0.0274018 -0.032826535
000280 47 9c 61 bd 34 15 e6 bb 13 0d 2c 3d 1f b9 14 3c
       -0.05508068 -0.0070215706 0.042004656 0.009077339
000290 05 ce 8d bc 1c 1d 23 bd 8a d6 52 bc 63 55 5c bd
       -0.017310152 -0.039822683 -0.012868533 -0.05379237
0002a0 44 22 2e 3d 0a 75 0e 3d 56 09 25 bd 43 80 71 bc
       0.042513147 0.034779586 -0.040292107 -0.014740053
0002b0 7d 67 e6 bd ea 9d 20 3d 88 bc 6a bd ac 11 a2 bd
       -0.112502076 0.0392131 -0.057308704 -0.07913527
0002c0 0c 5a 02 be 0d 4d 05 bd fe c9 89 3e 83 af da bb
       -0.12729663 -0.032544184 0.2691192 -0.0066737547
0002d0 90 58 28 be ab c7 cc bc b9 e0 aa bb 12 e3 07 bd
       -0.16440034 -0.024997553 -0.0052147773 -0.033175536
0002e0 42 b1 b5 bd 32 be ef bc 21 92 9e bc c5 d1 cb 3d
       -0.088717 -0.029265497 -0.019356789 0.0995212
0002f0 f0 ae b5 3c b5 e9 ca bd 58 7f 36 3d b2 6e 47 3b
       0.022178143 -0.09907857 0.04455504 0.003043097
000300 39 1f 10 be 84 5a d6 ba 6c c6 2b 3d 2c f1 a8 3c
       -0.1407441 -0.001635388 0.041937277 0.020622812
000310 2b f0 de bd ae f9 3d bd 1d 74 49 bd 77 f0 ba 3d
       -0.10885652 -0.04638069 -0.049183 0.09127896
000320 8d 2e 27 bc 6e 19 3b bd b1 44 3e bd 28 9f c2 bc
       -0.01020397 -0.04567855 -0.046452228 -0.023757532
000330 1e 94 5c bd 2d 38 66 3c f9 3f 16 3b 41 27 e6 bc
       -0.053852193 0.014051479 0.0022926314 -0.02809489
000340 25 7e c1 bd da 88 87 bd 3f 20 03 bd a6 24 00 bd
       -0.09447888 -0.06617899 -0.032013174 -0.03128495
000350 03 ae ab bd ae 77 a6 bd 64 98 f1 bd 4d f1 b7 3c
       -0.083827995 -0.08128296 -0.11796644 0.022453928
000360 4a 24 8c bd ae cb 97 3d 7e 47 86 bd 60 77 9f 3c
       -0.06842859 0.07411896 -0.06556605 0.019466102
000370 0f a4 6a bc 8a eb ab bd 5f 1c f4 bc c5 81 f8 bd
       -0.014321341 -0.08394535 -0.029798685 -0.121341266
000380 6a 66 9f 3d 80 97 82 3d 5d 1b 48 bd 3b 70 c3 bb
       0.07783206 0.063765526 -0.04885422 -0.0059643066
000390 a3 23 05 3e 51 0a a7 bd e6 d3 c3 bd c8 a2 da bd
       0.13001876 -0.081562646 -0.09561901 -0.10675579
0003a0 4b b3 63 bc f1 82 f1 bc 67 78 3b 3d 65 35 21 c0
       -0.013897727 -0.029481383 0.04576912 -2.518884
0003b0 d4 d0 31 3d c5 85 ff 3d 24 93 80 bd a0 2c 37 3d
       0.043412045 0.124766864 -0.06278065 0.044720292
0003c0 c5 28 db bd c0 67 b7 bd 6b 78 0a bd c0 bd 13 bc
       -0.107011355 -0.089553356 -0.033806246 -0.009017408
0003d0 f0 c3 d4 3b 35 ff c6 bc de 01 12 be f6 73 4e bd
       0.006493084 -0.024291614 -0.14258525 -0.050403558
0003e0 8f 8f f5 bc 1d 9f 5c bd 4b 1d 90 bd 08 83 be bd
       -0.02997568 -0.05386268 -0.07036837 -0.09302336
0003f0 28 43 8e bd 60 82 71 3e fc 36 4e 3d bc 99 2b bd
       -0.06946403 0.2358489 0.050345406 -0.04189466

l3.bias f4 [3]
000000 05 2e e3 3d c4 61 56 bd 09 af b9 bd
       0.11092762 -0.05233933 -0.090665884
