gespeicherte_Klassen/models/09.09.2022.16.06.41/0SAVE.pt (torch, 356311 bytes, 6 tensors)

l1.weight f4 [256, 83]
-0.08932112 -0.10213766 -0.08366891 -0.036411006 0.05786959 -0.16447222 0.034280628 -0.006952919
-0.11278847 0.015990838 -0.10102022 -0.059553448 -0.030716263 0.0025396124 -0.0870808 -0.045176223
0.060248967 -0.09095825 0.05351281 -0.12485629 -0.051723186 0.0022048354 -0.008965969 -0.026521683
-0.00023827702 0.00085845264 -0.043108463 -0.080029815 -0.025061734 0.10951422 -0.00021559314 0.08468206
-0.06943548 0.10565453 -0.0980997 0.058648966 -0.03963379 -0.023941942 -0.043840975 0.042010278
0.17671748 0.057504356 0.04638788 0.05706641 0.07785717 -0.038665257 -0.03286428 -0.037649937
-0.10143828 0.024309441 0.10719311 -0.052180253 0.0622759 0.0023349002 -0.07931054 -0.1064781
-0.099949054 0.075800374 0.05692099 -0.0063171014 0.062517345 0.1068978 -0.0022560358 0.051542334
0.054454975 -0.052052964 -0.088058 0.033190954 -0.014068931 -0.051639635 -0.069215655 0.01729761
-0.03446713 0.07283447 -0.067534156 0.03962188 -0.03952749 0.016276674 0.045016978 -0.06389881
-0.10128727 -0.038557313 -0.006617844 -0.033247486 0.10962135 0.039037883 -0.059741113 -0.078198366
-0.05622991 -0.008795291 -0.10334232 0.14241606 0.037130773 0.182413 -0.09677943 0.00485079
-0.10300024 0.047298938 -0.07858829 -0.07339257 -0.031240232 0.045115016 -0.08115275 0.015898198
0.0009986013 -0.045632653 0.043387175 0.054885656 -0.020448104 0.039543077 0.036870643 0.114055015
0.09518474 0.01633747 -0.021822244 0.018444851 0.00236224 0.08267456 0.02621051 -0.077659145
0.10807529 0.038314298 0.04382159 0.021132438 -0.0010548197 0.004663896 0.061835654 0.049887843
-0.02740005 0.04592842 -0.06123543 0.16678587 0.06427102 0.05744223 0.002545924 0.05138123
-0.067647256 -0.038671292 -0.06864835 -0.019298576 0.100749984 0.00820527 0.14246549 0.12179732
0.014085524 3.2701413e-05 -0.061413415 -0.03181543 -0.10696635 0.029928468 -0.15374449 0.081425756
0.07900776 -0.09722819 0.07701108 0.02470322 -0.005947016 0.011744328 -0.059624486 0.0641962
-0.070298225 -0.10001321 0.07746433 -0.0966186 0.07362738 -0.023214638 -0.04724983 0.030559175
-0.082759455 0.09734026 0.11825146 -0.012607165 0.05867601 -0.15263417 0.01728132 0.030649753
0.060008906 -0.1492747 -0.098004505 0.062633604 -0.05211453 -0.14004052 -0.028771976 -0.027947344
0.020898962 -0.06448687 -0.08074127 0.10706404 -0.09997982 -0.027334355 0.06602423 -0.104480796
0.07116194 -0.089908056 0.12178347 -0.054661416 0.047130764 0.070995554 -0.08641539 0.09834112
-0.053953573 0.09376124 0.0074876593 0.06372728 0.12952168 0.102071986 0.03090475 0.055103507
0.054626968 -0.039686654 0.13106833 0.023986107 0.12599745 0.11581105 0.05169903 0.105289444
-0.0015341914 0.16218364 0.082585424 0.12358113 0.07039504 0.1442669 0.12838241 0.13522331
0.033964936 0.00801736 -0.05211912 0.11657993 0.051949933 -0.0069115967 -0.02475679 -0.04030458
-0.04069025 -0.106483296 -0.064979956 0.09990464 -0.055771414 0.07545529 -0.07723451 0.10972515
0.026614591 -0.0533988 -0.010825209 -0.10956976 -0.10347797 -0.049564693 -0.08389431 0.01547724
0.03243573 -0.020240366 0.035836622 0.116943106 0.03835519 -0.11019638 -0.05992208 -0.052916933
00000000: feed b6bd 8d2d d1bd 9b5a abbd b523 15bd
00000010: aa08 6d3d 686b 28be d869 0c3d 50d5 e3bb
00000020: a4fd e6bd 38ff 823c b0e3 cebd 51ee 73bd
00000030: aca0 fbbc a06f 263b 6b57 b2bd b40a 39bd
00000040: 9fc7 763d 5248 babd 4030 5b3d a8b4 ffbd
00000050: b1db 53bd 007f 103b 00e6 12bc 0044 d9bc
00000060: 00da 79b9 c809 613a 8092 30bd ace6 a3bd
00000070: 444e cdbc fe48 e03d d810 62b9 ca6d ad3d
00000080: 3034 8ebd 6761 d83d 7fe8 c8bd e639 703d
00000090: 0a57 22bd e421 c4bc 9892 33bd f812 2c3d
000000a0: 6df5 343e b089 6b3d 3801 3e3d 78be 693d
000000b0: 9473 9f3d 765f 1ebd b29c 06bd d236 1abd
000000c0: dfbe cfbd 9824 c73c 1088 db3d f6ba 55bd
000000d0: 0415 7f3d 2005 193b 906d a2bd 3111 dabd
000000e0: 17b2 ccbd 3a3d 9b3d fc25 693d b0ff cebb
000000f0: 1809 803d 3ced da3d 00da 13bb 0e1e 533d
00000100: 2e0c 5f3d 7d35 55bd c157 b4bd 3df3 073d
00000110: 6081 66bc 1584 53bd f0c0 8dbd b8b3 8d3c
00000120: 682d 0dbd 3d2a 953d 594f 8abd 8d4a 223d
00000130: 94e7 21bd a956 853c b963 383d 61dd 82bd
00000140: b36f cfbd 46ee 1dbd 80da d8bb 842e 08bd
00000150: 2981 e03d 30e6 1f3d 19b3 74bd 7726 a0bd
00000160: 5651 66bd 201a 10bc 23a5 d3bd 84d5 113e
00000170: 7016 183d 79ca 3a3e 4b34 c6bd 60f3 9e3b
00000180: caf1 d2bd 88bc 413d e6f2 a0bd d84e 96bd
00000190: 84eb ffbc 86ca 383d 6a33 a6bd f03c 823c
000001a0: 80e3 823a 4ee9 3abd c0b6 313d c8cf 603d
000001b0: c882 a7bc ecf7 213d ac05 173d ad95 e93d
000001c0: 38f0 c23d 28d6 853c 90c4 b2bc a819 973c
000001d0: d0cf 1a3b 4851 a93d 6cb7 d63c c20b 9fbd
000001e0: 9456 dd3d 74ef 1c3d 447e 333d ef1d ad3c
000001f0: e041 8aba 98d3 983b 6247 7d3d 3257 4c3d
00000200: 1276 e0bc 701f 3c3d 01d2 7abd eac9 2a3e
00000210: 86a0 833d 8b48 6b3d 84d9 263b 2075 523d
00000220: a58a 8abd ca65 1ebd 8297 8cbd 0c18 9ebc
00000230: 0256 ce3d 666f 063c 79e2 113e e070 f93d
00000240: f8c6 663c e028 0938 a28c 7bbd e550 02bd
00000250: 2c11 dbbd 8c2c f53c 326f 1dbe 8cc2 a63d
00000260: d2ce a13d 931f c7bd fcb7 9d3d 685e ca3c
00000270: 30df c2bb 486b 403c ce38 74bd 4c79 833d
00000280: 84f8 8fbd bad3 ccbd 9ea5 9e3d f9df c5bd
00000290: f4c9 963d a02c bebc 0a89 41bd 3c57 fa3c
000002a0: ca7d a9bd 555a c73d d22d f23d 488e 4ebc
000002b0: 4256 703d 224c 1cbe 8e91 8d3c 3115 fb3c
000002c0: e6cb 753d 78db 18be 96b6 c8bd 0c46 803d
000002d0: 0c76 55bd c866 0fbe 35b3 ebbc d4f1 e4bc
000002e0: 4d34 ab3c b111 84bd ae5b a5bd 6444 db3d
000002f0: 38c2 ccbd 4cec dfbc b637 873d 07fa d5bd
00000300: 5abd 913d b721 b8bd 9d69 f93d a6e4 5fbd
00000310: 300c 413d 1e66 913d 8dfa b0bd 1267 c93d
00000320: 6cfe 5cbd e505 c03d 0a5b f53b 7383 823d
00000330: 55a1 043e 1e0b d13d f52b fd3c 37b4 613d
00000340: 87c0 5f3d 798e 22bd c736 063e 837e c43c
00000350: 7a05 013e 582e ed3d 5dc2 533d fea1 d73d
00000360: ec16 c9ba 7813 263e 8c22 a93d 1a18 fd3d
00000370: 462b 903d b4ba 133e ae76 033e fb77 0a3e
00000380: d11e 0b3d 3f5b 033c dc7a 55bd 75c1 ee3d
00000390: 74c9 543d ad7a e2bb c0ce cabc 6a16 25bd
000003a0: d2aa 26bd ea13 dabd 3614 85bd ce9a cc3d
000003b0: 9170 64bd 4e88 9a3d 202d 9ebd 94b7 e03d
000003c0: d806 da3c b3b8 5abd 385c 31bc 1c66 e0bd
000003d0: 42ec d3bd 5904 4bbd c8d0 abbd 4094 7d3c
000003e0: 54db 043d 20cf a5bc 6cc9 123d de7f ef3d
000003f0: 551a 1d3d a4ae e1bd db70 75bd 6dbf 58bd

l1.bias f4 [256]
-0.116209164 0.035136826 0.054697283 -0.028193658 0.08535121 -0.021661377 0.06709696 0.03817967
-0.10418454 0.062525384 -0.018157005 -0.05997102 0.08283842 0.087224044 -0.05703656 -0.0016030644
0.2182886 0.10305011 -0.16311683 0.03006603 -0.14159673 -0.05202804 -0.036693744 0.060000848
0.1419516 -0.05431082 0.1286729 -0.06900427 -0.04104906 -0.03868164 0.07921503 0.022724716
-0.12479938 -0.068310775 -0.025021888 0.061763335 -0.05429248 -0.088180624 -0.037950736 -0.14897431
-0.06362793 0.078406185 -0.012661099 -0.15917537 -0.06856747 0.02157678 -0.05253208 0.021655967
-0.15103549 -0.06811964 0.043520782 -0.076956026 -0.06602402 -0.14166605 -0.004169252 0.13449198
-0.12287048 -0.11561413 -0.11177778 -0.086441495 -0.12708965 -0.04326751 -0.031341 -0.11763193
-0.003683805 -0.14217149 0.1345187 0.02636373 0.038622838 -0.09529296 0.05935111 0.0012871011
-0.15328607 0.105672434 0.061468147 0.12207009 -0.032110676 0.0038224505 -0.11223887 0.06727697
0.0070522125 -0.17372358 0.074983425 -0.07567864 0.06935884 -0.10264659 -0.045761876 0.017062094
0.020461103 -0.07508329 -0.09471069 -0.08312696 -0.051445182 6.2393025e-05 0.042751282 0.014073766
-0.05671246 0.08054415 0.093613096 -0.016664373 0.07635492 0.036418304 -0.008659834 0.08851828
0.0019295539 -0.100510865 0.0031920462 0.08853436 0.032110415 -0.1160086 0.13080756 -0.025365114
0.012893126 -0.049671754 -0.049328886 -0.1637514 -0.017483078 0.07644255 -0.11531265 0.026689513
-0.04997176 -0.01736933 0.08589884 0.06659458 -0.110435985 0.029064104 -0.033095673 -0.020922348
0.023172632 -0.065558724 0.06348364 -0.08229249 0.13172302 -0.15067413 -0.067482226 -0.07258609
0.1092697 -0.04091601 -0.092884116 0.022237998 0.06954994 -0.14131886 -0.03308593 -0.06801203
0.072987154 -0.15520926 0.055011783 0.0408632 0.03706376 -0.08230804 -0.048552953 -0.13869481
0.121029116 -0.02417533 -0.041446064 0.04968222 -0.08140921 0.013912482 0.11658681 0.11382486
-0.016951336 -0.07664196 -0.0027845418 0.115740195 -0.023477264 0.15280005 0.025150632 0.047263023
-0.06599066 -0.016635029 0.06775658 -0.16851671 -0.16552617 -0.07777195 -0.04229545 0.045084424
-0.041862145 -0.10185141 -0.10176332 -0.01219272 -0.08841547 -0.05154341 -0.124624334 -0.15050216
-0.08777469 -0.09962653 0.1358709 0.024884218 0.14262545 -0.020627651 0.004679781 -0.032772113
-0.013120975 -0.09253575 -0.100963205 -0.08322781 -0.0035455856 -0.015563334 -0.037885472 -0.04463905
-0.046438828 0.035216484 0.016912907 -0.01551031 0.0076865405 -0.073555216 -0.07039139 -0.025746465
0.030633966 0.047805857 -0.12810887 -0.054693867 0.069988295 0.1071469 0.010722958 0.043663934
0.092823304 -0.09487409 -0.025108468 0.053408775 0.046719942 -0.09371214 0.010989161 0.019942852
-0.00013148849 0.05838879 -0.09810918 0.023358222 0.08011748 0.0022585161 -0.0686337 -0.05587681
0.008730071 -0.03283684 0.011781693 -0.051364925 0.10125135 -0.030250115 -0.008954657 -0.0048399465
0.098770015 -0.12207335 -0.1254811 0.045081463 -0.13121253 0.00082407333 -0.03942959 -0.05961373
-0.12315547 -0.021361256 0.049317498 0.016867038 -0.08814338 -0.104642674 0.140104 -0.012648878
00000000: 12ff edbd a2eb 0f3d 420a 603d 63f6 e6bc
00000010: 9dcc ae3d 3373 b1bc 226a 893d 4962 1c3d
00000020: b45e d5bd 4f0d 803d 00be 94bc 2ca4 75bd
00000030: 31a7 a93d 85a2 b23d 2b9f 69bd ea1d d2ba
00000040: 0c87 5f3e f00b d33d 1908 27be 094d f63c
00000050: bcfe 10be 5b1b 55bd 2e4c 16bd 73c3 753d
00000060: c35b 113e 0675 5ebd d4c2 033e 1c52 8dbd
00000070: 0f23 28bd a470 1ebd 7d3b a23d 2f29 ba3c
00000080: d196 ffbd 85e6 8bbd b4fa ccbc 8dfb 7c3d
00000090: cb61 5ebd 0b98 b4bd 3b72 1bbd b98c 18be
000000a0: 5c4f 82bd 6c93 a03d 8070 4fbc defe 22be
000000b0: 1a6d 8cbd cac1 b03c e12b 57bd db67 b13c
000000c0: 0ca9 1abe 4f82 8bbd d942 323d 1f9b 9dbd
000000d0: 9a37 87bd e810 11be 389e 88bb 44b8 093e
000000e0: 85a3 fbbd 1ac7 ecbd c0eb e4bd 3d08 b1bd
000000f0: ca23 02be 4639 31bd 6c5f 00bd 02e9 f0bd
00000100: fe6b 71bb 6795 11be 45bf 093e c0f8 d73c
00000110: fb32 1e3d f528 c3bd 261a 733d f2b3 a83a
00000120: 06f7 1cbe ca6a d83d 06c6 7b3d e2ff f93d
00000130: 7c86 03bd 1482 7a3b 7edd e5bd 82c8 893d
00000140: 3f16 e73b 98e4 31be e990 993d 67fd 9abd
00000150: 020c 8e3d 6038 d2bd ce70 3bbd cec5 8b3c
00000160: 0b9e a73c 45c5 99bd aef7 c1bd 783e aabd
00000170: 2fb8 52bd 00d9 8238 f81b 2f3d a795 663c
00000180: 534b 68bd 55f4 a43d 39b8 bf3d b983 88bc
00000190: f85f 9c3d 5c2b 153d fae1 0dbc 1249 b53d
000001a0: 16e9 fc3a a4d8 cdbd a631 513b 8151 b53d
000001b0: 3686 033d eb95 edbd 6bf2 053e 80ca cfbc
000001c0: b13d 533c 9c74 4bbd 160d 4abd 72ae 27be
000001d0: ac38 8fbc e98d 9c3d 0a29 ecbd f7a3 da3c
000001e0: 30af 4cbd 204a 8ebc bbeb af3d bd62 883d
000001f0: 432c e2bd d817 ee3c 548f 07bd 5865 abbc
00000200: 88d4 bd3c a743 86bd b603 823d f788 a8bd
00000210: 66e2 063e 524a 1abe 1f34 8abd 04a8 94bd
00000220: cbc8 df3d 8c97 27bd 073a bebd 762c b63c
00000230: 3370 8e3d e4b5 10be 1d85 07bd e449 8bbd
00000240: 4a7a 953d 2def 1ebe 0954 613d 2c60 273d
00000250: 2bd0 173d 1e91 a8bd 76df 46bd 0306 0ebe
00000260: 1dde f73d 570b c6bc 59c3 29bd 957f 4b3d
00000270: dfb9 a6bd 2ef1 633c 11c5 ee3d 021d e93d
00000280: 87dd 8abc 76f6 9cbd dc7c 36bb 3209 ed3d
00000290: 6453 c0bc 9e77 1c3e b308 ce3c df96 413d
000002a0: 1c26 87bd 2f46 88bc f6c3 8a3d a58f 2cbe
000002b0: b17f 29be e646 9fbd fe3d 2dbd 72aa 383d
000002c0: a477 2bbd 7997 d0bd 4a69 d0bd f9c3 47bc
000002d0: 2c13 b5bd 2f1f 53bd 0b3b ffbd 3d1d 1abe
000002e0: 37c3 b3bd ff08 ccbd be21 0b3e fdd9 cb3c
000002f0: 680c 123e 52fb a8bc d958 993b 0d3c 06bd
00000300: 5cf9 56bc 6283 bdbd ccc5 cebd 5873 aabd
00000310: 0e5d 68bb 5bfd 7ebc cc2d 1bbd 70d7 36bd
00000320: a436 3ebd 293f 103d f08c 8a3c f51e 7ebc
00000330: 60df fb3b 1ea4 96bd 5c29 90bd 40ea d2bc
00000340: 15f4 fa3c 13d0 433d f92e 03be ad06 60bd
00000350: 0656 8f3d d56f db3d 58af 2f3c f4d8 323d
00000360: 251a be3d 594d c2bd 46b0 cdbc 29c3 5a3d
00000370: 695d 3f3d 27ec bfbd e20b 343c 315f a33c
00000380: 2ce0 09b9 1529 6f3d 77ed c8bd be59 bf3c
00000390: a214 a43d 9d03 143b d38f 8cbd 15df 64bd
000003a0: 9208 0f3c ec7f 06bd 0108 413c 0764 52bd
000003b0: de5c cf3d 17cf f7bc 8eb6 12bc 6a98 9ebb
000003c0: ef47 ca3d 9801 fabd 1e7e 00be 57a7 383d
000003d0: 945c 06be a006 583a ec80 21bd 872d 74bd
000003e0: ef38 fcbd cdfd aebc 2501 4a3d be2c 8a3c
000003f0: 8484 b4bd e64e d6bd 6c77 0f3e 3d3d 4fbc

l2.weight f4 [256, 256]
-0.024197739 -0.042884238 -0.12254514 -0.0025781775 -0.039421853 0.051742055 0.12947527 -0.042734865
-0.053068068 0.087927364 -0.010746708 -0.0118009625 0.011354848 -0.051627494 -0.014400746 -0.04710504
0.016508972 -0.01865533 0.019549772 0.08511404 0.08934676 -0.021499319 -0.09992276 0.0074294577
0.1326501 0.066454336 -0.015587882 0.039769974 0.07423125 -0.04593492 0.06486935 -0.06816993
-0.00640592 0.048890457 0.04331611 0.06065592 -0.011006376 -9.482217e-05 -0.10295136 -0.0042095985
0.11096133 0.06688711 0.029809207 -0.0027610757 -0.027689887 0.020131914 0.056915663 0.055836625
0.031604767 0.02469444 0.038389016 0.015645277 0.09597606 0.03271085 0.07481901 0.07958408
0.002763698 0.08062697 0.056513485 -0.0021401565 -0.04804229 0.034577083 -0.039584592 -0.0033583492
0.043631606 0.090012014 0.07020049 0.035093334 0.010185138 -0.028153399 0.0394976 0.055143695
0.10873495 0.11502399 0.040467028 -0.042094953 0.031512864 -0.004795567 -0.07429042 -0.083572455
0.064810164 0.03837855 -0.0013344516 0.0199586 0.19212583 0.057950426 -0.054141674 -0.07190629
0.04757073 -0.085757114 0.030449323 -0.03256551 0.10196945 0.045887537 -0.048996113 -0.008523002
-0.026186127 -0.074955374 -0.099836275 0.033728186 0.010071958 0.02706125 -0.03316601 -0.067316875
0.06417798 -0.017241633 0.079467565 0.14008799 -0.019603668 0.08054187 -0.13340567 0.08810665
0.07244801 -0.040551905 0.039627235 0.020721316 -0.05591178 -0.008368266 -0.00025312632 0.057214238
-0.023364916 0.06457399 -0.12282577 -0.01622397 0.06705006 -0.081848785 0.045780264 -0.022361564
0.04941186 0.028185287 -0.062139213 0.0055898484 0.052705653 0.105996 0.05160279 -0.02934957
-0.05242435 0.07272624 -0.069789566 -0.108092524 0.048970737 0.066215195 0.08978855 0.010041347
0.00190641 -0.06739609 -0.05658411 0.07506727 0.048847467 -0.117010795 0.020797463 -0.06207226
-0.08539658 0.011359756 -0.08125942 0.13122687 0.00451933 0.002870166 -0.023832204 -0.08471564
-0.1106964 0.07598265 0.092132695 -0.023485752 0.10478576 0.05809817 0.057008006 -0.0054487474
-0.021315271 -0.083693616 0.080766745 -0.01745988 -0.0015272731 -0.08596419 -0.0028704593 0.110348515
-0.0050592716 -0.039322853 0.02730087 0.12403216 0.071022406 0.027611708 -0.043221936 -0.054980837
-0.017332494 0.08676319 -0.03501527 -0.051996566 0.16066349 0.003125543 0.11018982 0.023634275
-0.011907069 -0.007176652 0.04703404 0.09926968 0.06300005 0.14285123 -0.0453629 -0.0794818
-0.014292815 0.0042973324 0.03913022 0.002107561 0.1300402 0.04956504 -0.02992085 0.020814858
0.04829899 0.09608519 0.058292355 -0.040982343 -0.051045362 0.14644991 0.127769 -0.025116688
-0.10354819 0.1099451 0.0070992014 0.11248143 0.11045162 0.029679263 0.03721467 0.021608954
0.019207409 0.051486377 -0.08636779 -0.059254684 -0.05562632 0.0030093412 0.015609314 0.04676558
-0.102616705 0.10295987 0.014854178 0.0045424174 -0.07183395 0.04513265 0.1532621 0.087451436
0.006616028 -0.034824803 0.016328989 0.026337015 -0.055812202 0.015386092 -0.0050983815 -0.0041832686
0.036636684 0.037525006 0.067798994 -0.069658585 -0.035606954 -0.050144743 0.003728908 -0.033576917
00000000: 563a c6bc 62a7 2fbd f2f8 fabd a4f6 28bb
00000010: cf78 21bd 7aef 533d 2a95 043e c10a 2fbd
00000020: e75d 59bd 4313 b43d f612 30bc d358 41bc
00000030: af09 3a3c 5a77 53bd 1bf1 6bbc 37f1 40bd
00000040: d33d 873c 10d3 98bc d826 a03c 4550 ae3d
00000050: 6ffb b63d 571f b0bc 4ea4 ccbd cf72 f33b
00000060: 6ed5 073e 3619 883d 5164 7fbc d7e5 223d
00000070: 8e06 983d 4126 3cbd 39da 843d ad9c 8bbd
00000080: c0e8 d1bb 5c41 483d 3c6c 313d 5872 783d
00000090: 1654 34bc 44db c6b8 2ad8 d2bd acf0 89bb
000000a0: b23f e33d 1cfc 883d 7032 f43c 2af3 34bb
000000b0: e7d5 e2bc afeb a43c 6620 693d f2b4 643d
000000c0: 0074 013d ff4b ca3c cd3d 1d3d 862a 803c
000000d0: 198f c43d d0fb 053d b63a 993d fafc a23d
000000e0: 291f 353b c11f a53d af7a 673d de41 0cbb
000000f0: fec7 44bd b3a0 0d3d 7423 22bd c017 5cbb
00000100: 0eb7 323d 3858 b83d 46c5 8f3d 07be 0f3d
00000110: 91df 263c f5a1 e6bc 3cc8 213d 5bde 613d
00000120: 6eb0 de3d b391 eb3d c1c0 253d c26b 2cbd
00000130: a213 013d 2224 9dbb 9325 98bd 0928 abbd
00000140: 31bb 843d d432 1d3d c4e8 aeba 3880 a33c
00000150: a2bc 443e 6d5d 6d3d a9c3 5dbd 9b43 93bd
00000160: 87d9 423d 6da1 afbd dc70 f93c 6a63 05bd
00000170: 5cd5 d03d 92f4 3b3d 26b0 48bd 10a4 0bbc
00000180: 4a84 d6bc 3482 99bd f676 ccbd 9126 0a3d
00000190: db04 253c 8eaf dd3c 15d9 07bd 6edd 89bd
000001a0: bf6f 833d 533e 8dbc e4bf a23d 3a73 0f3e
000001b0: df97 a0bc 23f3 a43d 7f9b 08be 4271 b43d
000001c0: 9f5f 943d c119 26bd 2b50 223d c0bf a93c
000001d0: c003 65bd 0d1b 09bc 0ab6 84b9 7a59 6a3d
000001e0: c867 bfbc 5e3f 843d 148c fbbd 22e8 84bc
000001f0: 8b51 893d 56a0 a7bd 1684 3b3d 992f b7bc
00000200: 1764 4a3d d5e4 e63c b085 7ebd 0c2b b73b
00000210: e2e1 573d 6e14 d93d 725d 533d 826e f0bc
00000220: eaba 56bd 7ff1 943d d5ed 8ebd 9d5f ddbd
00000230: 8a95 483d d59b 873d 0fe3 b73d 7684 243c
00000240: 81e0 f93a f606 8abd bdc4 67bd debc 993d
00000250: 4814 483d 5ba3 efbd 715f aa3c 7b3f 7ebd
00000260: 67e4 aebd 451e 3a3c 576b a6bd 5660 063e
00000270: e316 943b 6519 3c3b c13b c3bc 657f adbd
00000280: cbb4 e2bd cb9c 9b3d 11b0 bc3d 3165 c0bc
00000290: eb99 d63d 59f8 6d3d 3a81 693d 688b b2bb
000002a0: 5d9d aebc 8f67 abbd 0969 a53d 0608 8fbc
000002b0: c82e c8ba fe0d b0bd 511e 3cbb 67fe e13d
000002c0: 3fc8 a5bb 0011 21bd 13a6 df3c 9304 fe3d
000002d0: 3274 913d f331 e23c 7c09 31bd 9633 61bd
000002e0: e0fc 8dbc e6b0 b13d 2c6c 0fbd 5afa 54bd
000002f0: f884 243e e9d5 4c3b 33ab e13d ab9c c13c
00000300: de15 43bc 1f2a ebbb c4a6 403d e74d cb3d
00000310: 2c06 813d 9847 123e 73ce 39bd 5bc7 a2bd
00000320: 692c 6abc a3d0 8c3b 0247 203d 021f 0a3b
00000330: 4229 053e b604 4b3d 921c f5bc ec83 aa3c
00000340: 29d5 453d 50c8 c43d f7c3 6e3d 1add 27bd
00000350: f114 51bd f7f6 153e e0d5 023e 83c1 cdbc
00000360: 1311 d4bd e62a e13d 6ba0 e83b aa5c e63d
00000370: 7534 e23d ed21 f33c 696e 183d 4305 b13c
00000380: db58 9d3c 61e3 523d 99e1 b0bd 0ab5 72bd
00000390: 6dd8 63bd 5e38 453b 35be 7f3c 448d 3f3d
000003a0: b528 d2bd a0dc d23d f05e 733c 8fd8 943b
000003b0: ae1d 93bd 03dd 383d bdf0 1c3e bd19 b33d
000003c0: 44cb d83b 74a4 0ebd 5fc4 853c b9c0 d73c
000003d0: 569b 64bd f215 7c3c 5310 a7bb cd13 89bb
000003e0: 5910 163d d2b3 193d 33da 8a3d 29a9 8ebd
000003f0: 99d8 11bd 9364 4dbd b260 743b f387 09bd

l2.bias f4 [256]
-0.030879278 0.030888522 -0.025777334 -0.035792083 0.046101637 0.051254 0.039554637 -0.03140413
0.0277159 -0.007003852 -0.073035665 -0.059906512 -0.014974915 0.015396783 0.040490795 -0.005220173
-0.021192933 -0.008396557 -0.036224097 -0.024908537 -0.10692736 -0.06289424 0.011551635 -0.051775202
0.03163278 -0.03748678 0.050867345 -0.035609324 0.04325285 -0.012187439 -0.019739093 0.00280079
-0.05798021 0.031354923 -0.031399846 0.029556926 0.061823763 -0.09068913 0.0018494463 -0.017362244
-0.0066341776 -0.07758121 -0.09281731 -0.111107424 -0.09317395 -0.051098697 -0.09928756 0.006175222
0.043438487 -0.07014394 -0.006579285 -0.04988297 -0.088745356 -0.107335836 0.070679754 0.03318146
-0.11115708 -0.07697293 0.027817806 0.013099726 -0.08376168 0.0017539525 -0.050594874 -0.092497095
0.062375166 -0.0003048458 -0.011114799 -0.04447979 -0.044705827 0.0006110702 -0.05687594 0.028494233
-0.011925992 -0.10518612 -0.09384095 -0.041724365 -0.068646826 0.03044974 -0.025859468 -0.032421283
0.0012076732 0.011858696 -0.051407523 0.017692128 -0.075714394 0.004847706 -0.11513115 -0.03157102
-0.017079271 -0.08706693 0.0077514923 0.04375435 -0.022609064 0.10034462 0.08496143 -0.034931917
-0.05655472 -0.014977265 0.03673148 0.04980196 -0.030421339 -0.01008198 0.039684493 -0.01327968
-0.04733823 0.0013100188 0.05880953 -0.055540584 -0.04457046 -0.061853 0.04292346 -0.010464989
-0.0032483605 -0.007831477 -0.0950421 -0.07894465 0.05030374 0.02958207 -0.0040689455 0.06354493
-0.06963085 -0.041278437 0.08342047 -0.05102202 -0.025708994 -0.11420251 -0.014487847 -0.036420368
-0.057313327 -0.04503485 -0.018789792 -0.08965227 -0.015990319 -0.029326877 -0.014185887 -0.0063848146
-0.085030444 0.023368249 -0.011222381 -0.043292858 -0.0021691127 0.041357804 -0.037794437 -0.008125914
-0.07998705 0.020100951 0.04196656 0.025305778 -0.08279507 0.019797035 0.032318763 -0.08737832
0.07359884 -0.050845426 -0.021068867 0.04212639 -0.040824816 0.06418838 0.01853718 -0.0002445822
0.053662326 -0.091575585 -0.0058669513 0.045800056 -0.07916085 -0.085654326 -0.009984446 -0.043847587
-0.014237883 -0.11036131 0.060227633 0.05334352 -0.009504622 -0.034198686 0.028672053 0.082802065
0.06520683 0.014617022 -0.018153585 0.053654585 0.07739538 -0.025228139 -0.0982347 -0.07430544
0.07921885 0.025718054 0.06180413 -0.06355245 0.042635877 0.014485685 0.0187128 -0.040479194
-0.09716424 -0.00019334565 0.05413691 -0.035541493 -0.01573623 0.008934168 -0.027192876 -0.09896843
-0.048540883 -0.044412836 -0.102510914 0.0023628694 -0.05195812 0.05683162 0.029877855 -0.042858027
-0.06512688 -0.0013688462 -0.029973103 -0.08610655 0.07207248 -0.0047785034 -0.11751131 -0.091910206
-0.010033034 0.062838785 -0.025417505 0.015858553 -0.037303437 0.029944452 0.010901934 -0.021772832
0.049856775 0.04407954 0.05231116 -0.103767894 -0.06952884 -0.03619725 -0.058845278 -0.027168186
0.042728372 -0.038281716 0.063737474 -0.08250597 -0.003521278 0.066745624 0.049559392 -0.089471415
-0.03380693 -0.04438248 0.034203056 0.047065888 -0.01864273 0.019771015 -0.046042155 -0.00042455218
-0.039717723 -0.055685923 0.04171417 0.0071294843 0.02726169 0.03076796 -0.061076105 -0.08686704
00000000: 8af6 fcbc ed09 fd3c fd2a d3bc b89a 12bd
00000010: 12d5 3c3d b7ef 513d 0b04 223d 9ea1 00bd
00000020: 750c e33c 9280 e5bb b993 95bd 8860 75bd
00000030: 5959 75bc ca42 7c3c add9 253d fc0d abbb
00000040: cd9c adbc b691 09bc b85f 14bd fd0c ccbc
00000050: bbfc dabd b2ce 80bd 1243 3d3c 3c12 54bd
00000060: 6091 013d bd8b 19bd 475a 503d 15db 11bd
00000070: e729 313d d3ad 47bc e1b3 a1bc 758d 373b
00000080: a87c 6dbd 056e 003d 209d 00bd 5e21 f23c
00000090: ea3a 7d3d 39bb b9bd 1f69 f23a 443b 8ebc
000000a0: 8463 d9bb e6e2 9ebd 0017 bebd 4a8c e3bd
000000b0: fcd1 bebd de4c 51bd 4757 cbbd 8459 ca3b
000000c0: 8eec 313d a0a7 8fbd 0b97 d7bb 1652 4cbd
000000d0: 20c0 b5bd e4d2 dbbd 8cc0 903d 48e9 073d
000000e0: 53a6 e3bd fca3 9dbd 2be2 e33c 3ca0 563c
000000f0: 3e8b abbd e1e4 e53a 923c 4fbd 1e6f bdbd
00000100: 1a7d 7f3d b6d3 9fb9 d91a 36bc 7130 36bd
00000110: 751d 37bd 3a30 203a bff6 68bd bd6c e93c
00000120: 3c65 43bc d26b d7bd af2f c0bd 2be7 2abd
00000130: b596 8cbd bc71 f93c 3cd7 d3bc 2ecc 04bd
00000140: ca4a 9e3a fa4a 423c b290 52bd 15ef 903c
00000150: 2610 9bbd 81d9 9e3b e1c9 ebbd 9d50 01bd
00000160: d4e9 8bbc 2650 b2bd 3b00 fe3b c337 333d
00000170: a536 b9bc 7b81 cd3d 4200 ae3d c514 0fbd
00000180: eca5 67bd 3463 75bc c073 163d 24fd 4b3d
00000190: 2c36 f9bc e42e 25bc 358c 223d 0493 59bc
000001a0: bbe5 41bd f0b4 ab3a 43e2 703d 867e 63bd
000001b0: 848f 36bd 9259 7dbd 83d0 2f3d 5875 2bbc
000001c0: 72e2 54bb 984f 00bc 6fa5 c2bd bcad a1bd
000001d0: 4b0b 4e3d 1956 f23c ca54 85bb d823 823d
000001e0: 9e9a 8ebd 9413 29bd 5ad8 aa3d 77fc 50bd
000001f0: ab9b d2bc 01e3 e9bd 6f5e 6dbc 862d 15bd
00000200: 61c1 6abd 7676 38bd 0ded 99bc 9c9b b7bd
00000210: 21fe 82bc eb3e f0bc ec6b 68bc b537 d1bb
00000220: 7124 aebd c56e bf3c 14de 37bc da53 31bd
00000230: ac27 0ebb cd66 293d 57ce 1abd 8e22 05bc
00000240: 40d0 a3bd c0aa a43c 21e5 2b3d 104e cf3c
00000250: 7690 a9bd 642d a23c ae60 043d 68f3 b2bd
00000260: fdba 963d 4b43 50bd 9e98 acbc b98c 2c3d
00000270: ec37 27bd 3375 833d 49db 973c 443b 80b9
00000280: 07cd 5b3d fb8b bbbd 8e3f c0bb d798 3b3d
00000290: 151f a2bd 896b afbd cd95 23bc 8799 33bd
000002a0: 0246 69bc 1c05 e2bd 40b1 763d bc7e 5a3d
000002b0: 46b9 1bbc ec13 0cbd a7e1 ea3c 2194 a93d
000002c0: 298b 853d 3c7c 6f3c d4b6 94bc e9c4 5b3d
000002d0: 7881 9e3d 3eab cebc 462f c9bd 732d 98bd
000002e0: 7e3d a23d abae d23c 5426 7d3d c927 82bd
000002f0: f5a2 2e3d 5e55 6d3c 964b 993c 83cd 25bd
00000300: 0cfe c6bd d4bc 4ab9 aabe 5d3d f593 11bd
00000310: 44e9 80bc 9e60 123c 98c3 debc f6af cabd
00000320: ced2 46bd 3cea 35bd 3ef1 d1bd 5fda 1a3b
00000330: 0ad2 54bd 46c8 683d 67c2 f43c e68b 2fbd
00000340: 3e61 85bd db6a b3ba 278a f5bc a258 b0bd
00000350: bd9a 933d fe94 9cbb c5a9 f0bd 6b3b bcbd
00000360: 9861 24bc 9fb1 803d 5f38 d0bc cce9 813c
00000370: 7dcb 18bd 114e f53c 069e 323c f05c b2bc
00000380: 9e36 4c3d bf8c 343d 3a44 563d 4384 d4bd
00000390: 2365 8ebd 9143 14bd bf07 71bd d18f debc
000003a0: f203 2f3d 4acd 1cbd cb88 823d e4f8 a8bd
000003b0: 3ec5 66bb eeb1 883d cafe 4a3d ca3c b7bd
000003c0: 2379 0abd 67ca 35bd 8118 0c3d 29c8 403d
000003d0: a3b8 98bc d3f6 a13c b396 3cbd 6e96 deb9
000003e0: 0daf 22bd ec16 64bd 7adc 2a3d 739e e93b
000003f0: e853 df3c 170d fc3c f02a 7abd 59e7 b1bd

l3.weight f4 [3, 256]
0.006156837 -0.08600806 -0.03556012 -0.05627308 -0.037543777 -0.10641723 -0.099822074 -0.083694994
0.0045147655 -0.008660896 0.042468883 -0.0062191677 0.01099229 -0.09774851 0.011104775 0.11649028
-0.0009932248 -0.05817911 -0.014472773 0.033020888 -0.045886148 0.018948188 -0.047153488 -0.094186015
0.096961655 -0.006322112 -0.10256565 -0.034534268 -0.00809205 0.057761174 0.07659839 -0.08216509
-0.018861335 -0.09358989 -0.034114905 -0.11040471 -0.054724436 -0.0657115 -0.09266747 7.860566e-05
-0.041608766 -0.06042343 0.021691076 -0.030222178 -0.09103286 -0.050986413 0.0095437765 -0.04752947
-0.094598815 0.03840656 -0.060915384 0.0044668736 0.011088194 0.01100548 -0.05397784 -0.063969485
0.011005737 0.023818847 -0.067427635 -0.07870765 -0.04001043 -0.055612635 -0.039534565 -0.022774585
-0.055123467 -0.040369313 0.0083760545 -0.07148337 0.007853985 -0.000115562434 0.015775438 -0.019807916
-0.05967202 -0.026802853 -0.057779916 -0.015520192 -0.043186247 -0.062081926 -0.022292756 -0.007294326
-0.040682785 -0.043994233 -0.044102732 -0.07155712 0.02758267 -0.036145996 0.005218407 -0.058107205
0.020095006 0.012717918 -0.06899549 0.01118362 0.0013286767 -0.08168223 -0.053319078 -0.049349695
0.009940416 -0.021075295 -0.004363487 -0.083400846 0.10974406 0.001279765 -0.0033957749 0.06900105
-0.003664169 -0.022093104 0.05342333 0.020217717 0.0040124934 -0.044075742 -0.05996712 0.0061977613
0.1282027 0.12964098 -0.037060063 -0.011753129 0.005088422 0.052228436 -0.07630163 -0.06557021
-0.020583484 -0.038302444 0.06228246 -0.045770198 -0.048035167 -0.0025767875 -0.08641007 -0.09317534
-0.0707617 0.017586099 -0.09342771 -0.017248346 -0.012608189 -0.029518533 -0.023490243 -0.057195015
0.019909628 -0.011097326 -0.10333185 -0.06264475 0.0012918096 -0.075737625 -0.013493804 -0.0940374
-0.082617484 -0.048061717 -0.092207395 -0.019688299 0.006255538 0.03460475 -0.037875395 -0.024808625
-0.022215506 -0.062232986 0.007182846 0.018864522 -0.017963825 -0.02003901 0.03532405 -0.10544296
-0.016229205 -0.064409584 -0.022982774 0.013054215 -0.06400154 0.047337018 0.062320888 -0.0016235145
-0.028502783 0.007260895 -0.031989355 -0.08423282 -0.13206385 -0.015476748 -0.085707344 0.029842917
-0.051353697 -0.06953844 -0.034874648 -0.029286413 0.058085818 0.043193683 -0.010770145 0.027435577
-0.08605708 -0.022763448 0.07263233 -0.0066075907 -0.062118683 -0.050800454 -0.03795571 0.0174725
-0.056262292 -0.017719232 -0.049299553 -0.073848195 -0.07003803 0.0069376086 -0.045529775 -0.038296502
-0.002473698 -0.031246902 0.046301965 -0.0804675 -0.051306237 -0.035743542 -0.032115683 -0.0077572227
-0.012759645 -0.031607576 -0.05127849 0.0028920919 -0.008601264 0.006461468 -0.0067267953 -0.05590587
-0.10760664 -0.043275766 0.0311736 -0.013622093 -0.060052384 -0.054086275 0.04379853 -0.048449058
-0.07374952 0.04606927 -0.06151155 -0.0934676 -0.05408093 -0.035978388 0.011356057 0.008130753
0.04366265 0.024985507 -0.07462022 -0.084418304 -0.06851044 -0.018418128 -0.015936818 -0.02801892
-0.009779344 -0.005445748 -0.04934142 -0.05934689 -0.04586271 -0.0067708776 -0.1025715 -0.0016301898
-0.029862301 0.0077640377 -0.059847195 -0.00018058071 0.07438033 -0.14729029 -0.059266258 -0.10485374
00000000: 4bbf c93b fe24 b0bd 7da7 11bd 9a7e 66bd
00000010: 81c7 19bd 47f1 d9bd 846f ccbd 4868 abbd
00000020: 99f0 933b 6ee6 0dbc daf3 2d3d 29ca cbbb
00000030: 0219 343c 5f30 c8bd cdf0 353c 7592 ee3d
00000040: 182f 82ba 384d 6ebd 361f 6dbc e940 073d
00000050: 1df3 3bbd 3b39 9b3c 0424 41bd 99e4 c0bd
00000060: d593 c63d b829 cfbb f10d d2bd ce73 0dbd
00000070: 8594 04bc fb96 6c3d 9edf 9c3d 2c46 a8bd
00000080: 1683 9abc 0eac bfbd 12bc 0bbd dd1b e2bd
00000090: bb26 60bd c093 86bd 71c8 bdbd 18d9 a438
000000a0: f46d 2abd 8f7e 77bd 7cb1 b13c 8094 f7bc
000000b0: 706f babd 21d7 50bd 805d 1c3c 43ae 42bd
000000c0: 06bd c1bd 3250 1d3d 6982 79bd da5e 923b
000000d0: 42ab 353c 5450 343c de17 5dbd 6f02 83bd
000000e0: 6851 343c be1f c33c 8017 8abd 7a31 a1bd
000000f0: fae1 23bd 13ca 63bd ffee 21bd c491 babc
00000100: 25c9 61bd 4b5a 25bd b83b 093c e065 92bd
00000110: 00ae 003c 1c5a f2b8 7e3b 813c 3644 a2bc
00000120: a66a 74bd a891 dbbc a2aa 6cbd 6748 7ebc
00000130: 10e4 30bd 9e49 7ebd 4c9f b6bc 3e05 efbb
00000140: fea2 26bd 4c33 34bd 11a5 34bd 8a8c 92bd
00000150: 0df5 e13c d30d 14bd 2cff aa3b d201 6ebd
00000160: 489e a43c d05e 503c 824d 8dbd 813b 373c
00000170: fe26 ae3a 0349 a7bd 1b65 5abd e822 4abd
00000180: 20dd 223c 19a6 acbc 95fb 8ebb 10ce aabd
00000190: 7ec1 e03d cabd a73a a68b 5ebb 6c50 8d3d
000001a0: 8e22 70bb 99fc b4bc 6cd2 5a3d a09f a53c
000001b0: 3c7b 833b c488 34bd 15a0 75bd 9716 cb3b
000001c0: 9247 033e 9bc0 043e 4bcc 17bd 3290 40bc
000001d0: c7bc a63b 7ced 553d 0744 9cbd ad49 86bd
000001e0: b29e a8bc 06e3 1cbd e51b 7f3d 8879 3bbd
000001f0: 86c0 44bd 52df 28bb c3f7 b0bd b6d2 bebd
00000200: 83eb 90bd b910 903c 0757 bfbd 674c 8dbc
00000210: 9492 4ebc dad0 f1bc 9c6e c0bc 5245 6abd
00000220: 8419 a33c 8fd1 35bc a69f d3bd e44b 80bd
00000230: f051 a93a 541c 9bbd 1e15 5dbc ae96 c0bd
00000240: 5b33 a9bd 5ddc 44bd 3bd7 bcbd 5b49 a1bc
00000250: 42fb cc3b b6bd 0d3d 3b23 1bbd 753b cbbc
00000260: 4bfd b5bc 04e8 7ebd 145e eb3b c589 9a3c
00000270: df28 93bc da28 a4bc f3af 103d 7bf2 d7bd
00000280: 1cf3 84bc 2ce9 83bd 5f46 bcbc 59e1 553c
00000290: 3d13 83bd 76e4 413d 3044 7f3d 1bcc d4ba
000002a0: ab7e e9bc cdec ed3b 4507 03bd 4282 acbd
000002b0: bf3b 07be 3092 7dbc 5587 afbd 2279 f43c
000002c0: 4158 52bd 2b6a 8ebd b8d8 0ebd 0fea efbc
000002d0: 65eb 6d3d dceb 303d 4375 30bc 93c0 e03c
000002e0: b23e b0bd 697a babc 42c0 943d 7d84 d8bb
000002f0: 2970 7ebd 2314 50bd 7277 1bbd 7d22 8f3c
00000300: 4a73 66bd ec27 91bc 54ee 49bd b93d 97bd
00000310: 1970 8fbd e154 e33b 6e7d 3abd cbdc 1cbd
00000320: c41d 22bb 81f9 ffbc 21a7 3d3d 25cc a4bd
00000330: 7d26 52bd d267 12bd bc8b 03bd 4d30 febb
00000340: d40d 51bc f276 01bd 6509 52bd 4089 3d3b
00000350: 51ec 0cbc b9ba d33b 736c dcbb 8efd 64bd
00000360: df60 dcbd ee41 31bd c75f ff3c 332f 5fbc
00000370: 7df9 75bd 9289 5dbd 1666 333d 8572 46bd
00000380: fd09 97bd 22b3 3c3d 89f3 7bbd f16b bfbd
00000390: f783 5dbd 135e 13bd c10e 3a3c da36 053c
000003a0: 9bd7 323d 68ae cc3c 7cd2 98bd 81e3 acbd
000003b0: 344f 8cbd 9de1 96bc ee8d 82bc ef87 e5bc
000003c0: 8b39 20bc 3f72 b2bb 3b1a 4abd b915 73bd
000003d0: 89da 3bbd 3dde ddbb 0211 d2bd 18ac d5ba
000003e0: c9a1 f4bc 7869 fe3b 5522 75bd 445a 3db9
000003f0: b754 983d 44d3 16be 2dc1 72bd 8fbd d6bd

l3.bias f4 [3]
0.047047824 0.024593454 -0.07095384
00000000: 38b5 403d 3678 c93c 3f50 91bd
