gespeicherte_Klassen/models/09.09.2022.16.06.41/1SAVE.pt (torch, 372375 bytes, 6 tensors)

l1.weight f4 [256, 83]
0	0xbdb6edfe	-0.08932112
1	0xbe001964	-0.12509686
2	0xbdda5fda	-0.106628135
3	0xbd732e34	-0.059370235
4	0x3d18f6a7	0.0373446
5	0xbe3fee01	-0.18743135
6	0x3d0c69d8	0.034280628
7	0xbbe3d550	-0.006952919
8	0xbdfb364d	-0.122662164
9	0x3c82ff38	0.015990838
10	0xbdcee3b0	-0.10102022
11	0xbd73ee51	-0.059553448
12	0xbcfba0ac	-0.030716263
13	0x3b266fa0	0.0025396124
14	0xbdc7283b	-0.0972447
15	0xbd390ab4	-0.045176223
16	0x3d4d25f7	0.050085034
17	0xbdcf1922	-0.101122156
18	0x3d5b3040	0.05351281
19	0xbe0a42bd	-0.13502021
20	0xbd7d7d59	-0.06188712
21	0x3b107f00	0.0022048354
22	0xbc12e600	-0.008965969
23	0xbcd94400	-0.026521683
24	0xb979da00	-0.00023827702
25	0xbc187612	-0.009305494
26	0xbd309280	-0.043108463
27	0xbda3e6ac	-0.080029815
28	0xbbe58df3	-0.007005447
29	0x3de048fe	0.10951422
30	0xbc2a0ef0	-0.010379538
31	0x3dad6dca	0.08468206
32	0xbd8e3430	-0.06943548
33	0x3dd61837	0.10453837
34	0xbdf7edbe	-0.121058926
35	0x3d46983e	0.048485033
36	0xbd22570a	-0.03963379
37	0xbbc0dc81	-0.005885661
38	0xbd339298	-0.043840975
39	0x3d2c12f8	0.042010278
40	0x3e476d98	0.194754
41	0x3dd0aaea	0.10188849
42	0x3db9e6af	0.090772025
43	0x3d69be78	0.05706641
44	0x3d9f7394	0.07785717
45	0xbd1e5f76	-0.038665257
46	0xbd069cb2	-0.03286428
47	0xbd1a36d2	-0.037649937
48	0xbdcfbedf	-0.10143828
49	0x3cc72498	0.024309441
50	0x3ddb8810	0.10719311
51	0xbd55baf6	-0.052180253
52	0x3d7f1504	0.0622759
53	0x3b190520	0.0023349002
54	0xbda26d90	-0.07931054
55	0xbdda1131	-0.1064781
56	0xbdccb217	-0.099949054
57	0x3d9b3d3a	0.075800374
58	0x3d6925fc	0.05692099
59	0xbbceffb0	-0.0063171014
60	0x3d800918	0.062517345
61	0x3ddaed3c	0.1068978
62	0xbb13da00	-0.0022560358
63	0x3cf8c29a	0.03036623
64	0x3d084f6d	0.03327887
65	0xbd55357d	-0.052052964
66	0xbdb457c1	-0.088058
67	0x3c44d9f2	0.012014853
68	0xbc668160	-0.014068931
69	0xbd538415	-0.051639635
70	0xbd8dc0f0	-0.069215655
71	0x3c8db3b8	0.01729761
72	0xbd0d2d68	-0.03446713
73	0x3d5397bb	0.051658373
74	0xbdb5adb5	-0.088710226
75	0x3c971b9a	0.018445779
76	0xbd78a455	-0.060703594
77	0xbba08b6d	-0.0048994333
78	0x3cc34def	0.023840873
79	0xbdae3bbd	-0.08507488
80	0xbdface0f	-0.12246334
81	0xbd74ab07	-0.059733417
82	0xbbd8da80	-0.006617844
83	0xbd082e84	-0.033247486
84	0x3ded831d	0.115972735
85	0x3d540cb3	0.051769923
86	0xbd6af1e4	-0.05735959
87	0xbd88578c	-0.06657323
88	0xbda12c46	-0.078697726
89	0xbc101a20	-0.008795291
90	0xbe275b66	-0.1634346
91	0x3e1e24ec	0.15443772
92	0x3d181670	0.037130773
93	0x3e47c5a6	0.1950899
94	0xbdc6344b	-0.09677943
95	0x3b9ef360	0.00485079
96	0xbdd2f1ca	-0.10300024
97	0x3d5ba9c8	0.053628713
98	0xbda0f2e6	-0.07858829
99	0xbe08b51b	-0.13350336
100	0xbdc03ef7	-0.093870096
101	0x3d43d1f6	0.047807656
102	0xbe133bba	-0.14378253
103	0xbd3f69b2	-0.04673166
104	0x3a82e380	0.0009986013
105	0xbd3ae94e	-0.045632653
106	0x3d31b6c0	0.043387175
107	0x3d60cfc8	0.054885656
108	0xbda4f7d7	-0.08055084
109	0xbca83257	-0.020531816
110	0xbcbe16d7	-0.02320425
111	0x3df887ed	0.12135301
112	0x3d0fcac8	0.035105497
113	0xbd3d9d16	-0.046292387
114	0xbcb2c490	-0.021822244
115	0x3c9719a8	0.018444851
116	0x3cabd642	0.02097619
117	0x3ca434c4	0.020044692
118	0x3d2ae1cf	0.041719254
119	0xbd121883	-0.035667907
120	0x3df613e4	0.120155126
121	0x3d0ef17a	0.03489826
122	0x3d233d54	0.03985341
123	0x3d242980	0.04007864
124	0x3d315d8b	0.0433021
125	0x3d48ca0d	0.049020816
126	0x3dc08c37	0.09401744
127	0x3da8141f	0.08206963
128	0x3b9cb026	0.0047817407
129	0x3d6a782d	0.057243515
130	0xbcee01eb	-0.029053649
131	0x3e3aa276	0.18226036
132	0x3da331e5	0.07968501
133	0x3d9535a5	0.072856225
134	0x3c63be1b	0.013900305
135	0x3d9d1053	0.07669129
136	0xbd2d695a	-0.0423368
137	0xbc5ae81d	-0.013361004
138	0xbd318316	-0.043337904
139	0xbc4eb17c	-0.012615558
140	0x3ddc0547	0.10743194
141	0x3c73ee02	0.014888288
142	0x3e1d717a	0.15375319
143	0x3e084770	0.13308501
144	0x3ccfea2a	0.025380213
145	0x3c399a47	0.0113282865
146	0xbd87c3fd	-0.06629179
147	0xbd164c4f	-0.036693867
148	0xbde50ed8	-0.11184472
149	0x3ccd35b1	0.025050016
150	0xbe226e09	-0.15862288
151	0x3da6c28c	0.081425756
152	0x3da1ced2	0.07900776
153	0xbdc71f93	-0.09722819
154	0x3d9db7fc	0.07701108
155	0x3ca2678d	0.019824767
156	0xbbc2df30	-0.005947016
157	0x3c406b48	0.011744328
158	0xbd7438ce	-0.059624486
159	0x3d83794c	0.0641962
160	0xbd8ff884	-0.070298225
161	0xbdccd3ba	-0.10001321
162	0x3d9ea59e	0.07746433
163	0xbdc5dff9	-0.0966186
164	0x3d96c9f4	0.07362738
165	0xbcbe2ca0	-0.023214638
166	0xbd41890a	-0.04724983
167	0x3d235b40	0.039881945
168	0xbd8e63c7	-0.06952625
169	0x3dd6d1ce	0.10489236
170	0x3e0721ac	0.13196439
171	0xbc2120ed	-0.00983451
172	0x3d57b140	0.052659273
173	0xbe222835	-0.1583565
174	0x3cd1ff8b	0.025634548
175	0x3cc9cb1f	0.024632988
176	0x3d8b0679	0.06788344
177	0xbe1f04b7	-0.15529142
178	0xbdd50917	-0.104021244
179	0x3d67e716	0.056616865
180	0xbd2f517c	-0.04280232
181	0xbe159007	-0.14605723
182	0xbd0d37fe	-0.034477226
183	0x3d35a754	0.04434903
184	0x3cd22089	0.02565028
185	0x3bffed5e	0.007810279
186	0xbc695edd	-0.014243809
187	0x3e20715d	0.15668245
188	0xbd4e435c	-0.050357208
189	0x3cb697ec	0.022289239
190	0x3e1972c8	0.14985192
191	0x3d1b32ab	0.037890118
192	0x3eaaf0ae	0.3338675
193	0x3e30f156	0.17279562
194	0x3e0f9246	0.14020643
195	0x3e550910	0.20804238
196	0x3dee2e9a	0.11629982
197	0x3e044ec6	0.12920675
198	0xbce6f54e	-0.028193142
199	0x3de803e7	0.11328869
200	0x3c796512	0.015221851
201	0x3de68cac	0.112573
202	0x3d499baf	0.049220737
203	0x3da0d3bf	0.07852887
204	0x3e122178	0.1427058
205	0x3ddb1f63	0.10699346
206	0x3d2564f2	0.040379472
207	0x3dcb9968	0.09941369
208	0x3dca9f90	0.098937154
209	0xbbf61dba	-0.007510868
210	0x3e272976	0.1632441
211	0x3d660a06	0.056161903
212	0x3e0c9a5b	0.13730757
213	0x3e1789da	0.1479868
214	0x3d905c27	0.07048827
215	0x3df58b67	0.119894795
216	0x3c564292	0.013077395
217	0x3e37578f	0.17904495
218	0x3dc2d76a	0.09513743
219	0x3e0b64f2	0.13612726
220	0x3da9e024	0.082947046
221	0x3e20939a	0.15681306
222	0x3e0a4e50	0.13506436
223	0x3e114f9d	0.14190526
224	0x3d267d56	0.040646873
225	0x3c9e2b63	0.019307798
226	0xbd273d8a	-0.040830173
227	0x3e02efba	0.12786761
228	0x3d8182b5	0.063237585
229	0xbd2ed496	-0.042683206
230	0xbd77eca0	-0.060528398
231	0xbd9bcdd7	-0.0760762
232	0xbd9c980c	-0.07646188
233	0xbdda13ea	-0.106483296
234	0xbd851436	-0.064979956
235	0x3dcc9ace	0.09990464
236	0xbdbb7aeb	-0.09154304
237	0x3d228b5e	0.039683692
238	0xbd9e2d20	-0.07723451
239	0x3de0b794	0.10972515
240	0x3cda06d8	0.026614591
241	0xbd5ab8b3	-0.0533988
242	0xbc315c38	-0.010825209
243	0xbde0661c	-0.10956976
244	0xbdd3ec42	-0.10347797
245	0xbd4b0459	-0.049564693
246	0xbdabd0c8	-0.08389431
247	0x3c7d9440	0.01547724
248	0x3d04db54	0.03243573
249	0xbca5cf20	-0.020240366
250	0x3dad7c2c	0.084709495
251	0x3e29c775	0.16579993
252	0x3db2a4fb	0.08722874
253	0xbda596a2	-0.080853716
254	0xbc54f5f3	-0.012998092
255	0x3d13b3cf	0.03606015

l1.bias f4 [256]
0	0xbe0c06e9	-0.13674511
1	0x3d3e95e8	0.04652968
2	0x3d8dbd3a	0.06920858
3	0xb90e846b	-0.00013591505
4	0x3dbf4d52	0.093409196
5	0xbce22163	-0.02760381
6	0x3da132fb	0.07871052
7	0x3d0a9ef5	0.033843
8	0xbdf14a84	-0.11781791
9	0x3da09d36	0.078424856
10	0xbca79fcd	-0.020461941
11	0xbd86a019	-0.06573505
12	0x3dacd55a	0.08439131
13	0x3db2ac6e	0.087242946
14	0xbd8254e4	-0.06363848
15	0x3c82b13a	0.015953649
16	0x3e75b353	0.23994188
17	0x3dd2463f	0.10267305
18	0xbe2b879b	-0.16750948
19	0x3d1f574e	0.03890162
20	0xbe1aa924	-0.15103585
21	0xbd757bbd	-0.05993246
22	0xbcf676ba	-0.03008591
23	0x3d92973b	0.07157751
24	0x3e3be0f9	0.18347539
25	0xbd1021dc	-0.03518854
26	0x3e0bad74	0.13640386
27	0xbd944f04	-0.072416335
28	0xbd319deb	-0.043363493
29	0xbd09a1e9	-0.033601675
30	0x3da66646	0.08124976
31	0x3d11693c	0.03550075
32	0xbe044aec	-0.12919205
33	0xbd966dcf	-0.07345163
34	0x3ce63d60	0.028105438
35	0x3d765ce7	0.060147192
36	0xbd725d2d	-0.05917089
37	0xbdb70f33	-0.08938446
38	0xbd2df298	-0.042467684
39	0xbe1fd246	-0.15607557
40	0xbd81df99	-0.06341476
41	0x3dc13e93	0.09435763
42	0xbc81b5d5	-0.015833775
43	0xbe2e192c	-0.1700179
44	0xbd72ea65	-0.059305567
45	0x3d041469	0.032246027
46	0xbd6e2b57	-0.0581468
47	0x3c96b8b0	0.018398613
48	0xbe22424e	-0.15845606
49	0xbda5b898	-0.08091849
50	0x3d676ad1	0.056498352
51	0xbd864d3b	-0.06557699
52	0xbd3fc518	-0.046818823
53	0xbe15906f	-0.14605878
54	0x3ca951b0	0.020668834
55	0x3e20b90e	0.15695593
56	0xbe093316	-0.13398394
57	0xbdf9198d	-0.121630765
58	0xbdeee953	-0.11665597
59	0xbdaa4477	-0.0831384
60	0xbe099048	-0.13433945
61	0xbd48f39c	-0.04906045
62	0xbd005f6c	-0.031341
63	0xbdf9e814	-0.122024685
64	0x3ab8140e	0.0014044063
65	0xbe115fe9	-0.14196743
66	0x3e23d8c2	0.16000655
67	0x3d11ca35	0.03559323
68	0x3d313c27	0.043270256
69	0xbde4d37d	-0.11173151
70	0x3da29e7c	0.07940385
71	0x3c64b736	0.0139596965
72	0xbe21f5dd	-0.15816446
73	0x3dd206f9	0.10255236
74	0x3d75d576	0.060018025
75	0x3e06ce92	0.13164738
76	0xbd2322ad	-0.03982799
77	0x3bebc2ec	0.0071948674
78	0xbdecf452	-0.11570038
79	0x3d9b0f7b	0.07571312
80	0x3daf63d3	0.08563962
81	0xbe3aee75	-0.18255027
82	0x3d9a8d4c	0.075464815
83	0xbd929aa0	-0.07158399
84	0x3ddc2f50	0.10751212
85	0xbdca8136	-0.09887926
86	0xbd5fe6ec	-0.054663584
87	0x3cb08732	0.021548841
88	0x3d3c0c5d	0.045910228
89	0xbd58e654	-0.052954033
90	0xbd999f53	-0.07501092
91	0xbdaa3e78	-0.08312696
92	0xbd7f7675	-0.06236883
93	0xb931b9ef	-0.00016949301
94	0x3d3580c4	0.044312254
95	0x3c61033a	0.013733679
96	0xbd58ad76	-0.0528998
97	0x3db784ed	0.089609005
98	0x3dd5fde0	0.104488134
99	0xbca58ca1	-0.020208659
100	0x3db78dbf	0.08962583
101	0x3d09a65c	0.03360592
102	0xbbfd718b	-0.0077344826
103	0x3dc42c8c	0.09578809
104	0x3c1f07f7	0.009706489
105	0xbddb87dd	-0.10719273
106	0x3c13cdaa	0.009021202
107	0x3df01938	0.1172356
108	0x3cc7d128	0.024391726
109	0xbdebff0a	-0.11523254
110	0x3e112229	0.14173187
111	0xbcac8558	-0.021059677
112	0x3ca547ad	0.02017578
113	0xbd5da933	-0.05411644
114	0xbd61f6dc	-0.055167064
115	0xbe2c2df9	-0.16814412
116	0xbcf304f8	-0.029665455
117	0x3d8952fa	0.0670528
118	0xbe011731	-0.12606503
119	0x3ca73bf9	0.02041434
120	0xbd6716fc	-0.056418404
121	0xbd59293c	-0.05301784
122	0x3dc96cdb	0.09835216
123	0x3d8202cc	0.0634819
124	0xbddcccd5	-0.10781256
125	0x3d22157e	0.039571278
126	0xbd239c79	-0.039944146
127	0xbcca94db	-0.024729183
128	0x3d356eca	0.04429511
129	0xbd004685	-0.031317253
130	0x3d830182	0.06396772
131	0xbd953af5	-0.07286636
132	0x3e143c82	0.14476207
133	0xbe20738e	-0.1566908
134	0xbd8bb18f	-0.06820976
135	0xbd9c2781	-0.07624722
136	0x3dfcc08c	0.12341413
137	0xbd48d279	-0.049028847
138	0xbdc9b87d	-0.098496415
139	0x3cf19a44	0.029492505
140	0x3dada517	0.08478754
141	0xbe208ac2	-0.15677932
142	0xbd1c7715	-0.038199503
143	0xbd8ee9db	-0.06978198
144	0x3d883141	0.066500194
145	0xbe247b62	-0.16062692
146	0x3d5157db	0.051109176
147	0x3d22dd4a	0.03976182
148	0x3cba2c9e	0.022726353
149	0xbd8d6541	-0.06904078
150	0xbd81dbfe	-0.06340788
151	0xbe1adc19	-0.15123023
152	0x3e06dc5e	0.13170001
153	0xbca2052d	-0.019777859
154	0xbd3a7c05	-0.04552843
155	0x3d3af123	0.045640122
156	0xbdb494dd	-0.08817456
157	0x3af7886e	0.0018885264
158	0x3df913eb	0.12162002
159	0x3de10788	0.109877646
160	0xbaf0d14f	-0.0018372926
161	0xbd957f8a	-0.07299717
162	0x3b4dad2b	0.0031383734
163	0x3dfdbd6d	0.12389646
164	0xbcdd664a	-0.027026314
165	0x3e30fc81	0.17283823
166	0x3cc21111	0.023689779
167	0x3d4691b4	0.048478797
168	0xbd8c5ee3	-0.06854036
169	0xbd0149e1	-0.031564597
170	0x3d95553c	0.07291648
171	0xbe39416a	-0.1809136
172	0xbe38e79e	-0.18057105
173	0xbdc8d8b7	-0.0980696
174	0xbd3d359b	-0.0461937
175	0x3d4d2891	0.050087515
176	0xbcddec36	-0.027090173
177	0xbde38dc1	-0.11111022
178	0xbdd7cbad	-0.10536895
179	0x3c8464dc	0.016161375
180	0xbd91c04c	-0.07116756
181	0xbd7775c5	-0.06041505
182	0xbdf922f8	-0.12164873
183	0xbe2d4b47	-0.16923247
184	0xbdb3c337	-0.08777469
185	0xbdb8d8a4	-0.09025696
186	0x3e1b071c	0.15139431
187	0x3d0204e6	0.031742953
188	0x3e340366	0.17579421
189	0xbcebf1bd	-0.028801793
190	0xb99195d4	-0.00027768186
191	0xbc952e1a	-0.01821046
192	0xbca35b68	-0.019941047
193	0xbdc9d5e1	-0.09855247
194	0xbdcec5cc	-0.100963205
195	0xbda5072d	-0.08058009
196	0xba5c688a	-0.00084079115
197	0xbb920972	-0.0044566924
198	0xbd177075	-0.03697248
199	0xbd128f63	-0.035781275
200	0xbd3956c5	-0.045248765
201	0x3cfd5f5b	0.030929258
202	0x3c8f2c39	0.017477142
203	0xbcb058c7	-0.021526707
204	0x3cf60011	0.030029329
205	0xbd96a41e	-0.073555216
206	0xbda8ebd7	-0.08248108
207	0xbceffe3c	-0.029296033
208	0x3d032a0f	0.032022532
209	0x3d8f40ad	0.06994758
210	0xbe0e10d6	-0.1387361
211	0xbd3f1322	-0.046649106
212	0x3d909f26	0.07061605
213	0x3dfea3cd	0.12433586
214	0x3c53bcd1	0.012923435
215	0x3d144eff	0.03620815
216	0x3dd504ac	0.10401282
217	0xbdcdbe19	-0.10046024
218	0xbce605b4	-0.028078891
219	0x3d84ed3d	0.06490562
220	0x3d50f21a	0.051012136
221	0xbdb230d2	-0.08700718
222	0x3905577f	0.00012716463
223	0x3ca61f06	0.020278465
224	0x3ba6b9e6	0.005088079
225	0x3d87f0bc	0.06637713
226	0xbdc47a1a	-0.095936015
227	0x3d05e1e6	0.032686137
228	0x3dc44c11	0.09584821
229	0xbc13eef3	-0.009029138
230	0xbd9675da	-0.07346697
231	0xbd29c4d7	-0.041447487
232	0x3c2b19e9	0.010443189
233	0xbcea5314	-0.028604068
234	0x3b75e8c1	0.0037522765
235	0xbd477afb	-0.048701268
236	0x3dcc90eb	0.099885784
237	0xbce5cc23	-0.028051442
238	0x3c9ab8a5	0.018886873
239	0xbb8d54fc	-0.0043131094
240	0x3dd2766c	0.102764934
241	0xbe07710e	-0.1322672
242	0xbe06b80d	-0.13156147
243	0x3d877c2b	0.0661548
244	0xbe184696	-0.14870676
245	0xbc497aa9	-0.012297311
246	0xbd3a3442	-0.045459993
247	0xbd86a5ce	-0.065745935
248	0xbe13cb74	-0.1443308
249	0xbcb4d98b	-0.022076389
250	0x3d5b9875	0.05361219
251	0x3c888cea	0.016668756
252	0xbdc233c2	-0.09482528
253	0xbde6e05b	-0.11273261
254	0x3e192de8	0.14958918
255	0xbc96b5ce	-0.018397238

l2.weight f4 [256, 256]
0	0xbb4b229e	-0.0030995975
1	0xbd47ccf4	-0.048779443
2	0xbe0d7f63	-0.13818125
3	0x3d10c7aa	0.035346664
4	0xbd54416d	-0.051820207
5	0x3d6c944b	0.05775861
6	0x3e2fcfe3	0.17169146
7	0xbd39b813	-0.045341562
8	0xbd82b178	-0.06381506
9	0x3e058ac0	0.1304121
10	0xbc2364ae	-0.009972734
11	0xbc6d3e9a	-0.014480257
12	0x3c9ca6c6	0.019122493
13	0xbd1ecaa4	-0.038767472
14	0xbbeef8cf	-0.007292844
15	0xbd7fb2a1	-0.062426213
16	0x3ce8c543	0.028414374
17	0xbc9a7891	-0.018856319
18	0x3ca026d8	0.019549772
19	0x3dd4b12e	0.10385357
20	0x3de13ffe	0.10998534
21	0xbcd1ffe2	-0.02563471
22	0xbdd924fc	-0.10602757
23	0xbba6b9e3	-0.0050880774
24	0x3e36eb2d	0.1786315
25	0x3dc9689b	0.09834405
26	0xbc3307a4	-0.010927115
27	0x3d1dab86	0.038493656
28	0x3de18b36	0.110128805
29	0xbd3a90d9	-0.045548294
30	0x3da44d32	0.08022536
31	0xbda29bba	-0.07939859
32	0xbbd1e8c0	-0.00640592
33	0x3d67fe33	0.056638908
34	0x3dc70067	0.097168736
35	0x3d8636d7	0.065534286
36	0xbbc8cd4a	-0.006127988
37	0xbb4a8cd7	-0.00309067
38	0xbddb0a65	-0.10695342
39	0xbc0beb8e	-0.008540047
40	0x3e09035f	0.13380192
41	0x3d8e8513	0.06958976
42	0x3d16b8cb	0.036797326
43	0x3bc2c173	0.005943471
44	0xbc8d942f	-0.017282574
45	0x3d04e7c0	0.032447577
46	0x3d7115b8	0.058858603
47	0x3d6e9a0e	0.058252387
48	0x3d1fd912	0.039025374
49	0x3c9f170f	0.019420175
50	0x3d31cd16	0.043408476
51	0x3d1baf47	0.038008954
52	0x3ded5f1a	0.11590405
53	0x3d05fbd0	0.03271085
54	0x3db714ce	0.08939515
55	0x3db97f6f	0.09057509
56	0xbc0ba567	-0.008523322
57	0x3db171f9	0.08664317
58	0x3d7b7605	0.06139185
59	0x3c278989	0.010225662
60	0xbd4586b6	-0.048224173
61	0x3d0cc8d8	0.034371227
62	0xbd222374	-0.039584592
63	0xbb5c17c0	-0.0033583492
64	0x3d10b424	0.035328045
65	0x3ddc1662	0.10746457
66	0x3db4f164	0.08835104
67	0x3d2a7204	0.04161264
68	0x3cbfe15e	0.023422893
69	0xbce5a505	-0.028032789
70	0x3d5e4fe7	0.05427542
71	0x3d997662	0.07493283
72	0x3de8ae10	0.11361325
73	0x3e0ac29e	0.13550803
74	0x3d3bd470	0.045856893
75	0xbd4475d1	-0.04796392
76	0x3d01daed	0.031702925
77	0x3ae08084	0.0017128144
78	0xbdacbb75	-0.08434192
79	0xbda0ebd9	-0.07857484
80	0x3de35e4e	0.111019716
81	0x3d530a1f	0.051523324
82	0xbc34cf8e	-0.011035813
83	0x3c584f5a	0.013202513
84	0x3e798c4d	0.24369927
85	0x3d68f766	0.056876563
86	0xbd75f672	-0.06004948
87	0xbd9d026e	-0.07666479
88	0x3d97eb96	0.07417981
89	0xbdaaaf38	-0.083342016
90	0x3d26668c	0.04062514
91	0xbd05636a	-0.03256551
92	0x3de7194e	0.11284123
93	0x3d602151	0.054719273
94	0xbd6efca5	-0.05834641
95	0xbc3c0190	-0.011474982
96	0xbcaad752	-0.020854626
97	0xbd9e013d	-0.0771508
98	0xbde27c23	-0.110588335
99	0x3d1d95f9	0.038473103
100	0x3bbbf885	0.005736413
101	0x3cdb7770	0.02679035
102	0xbcdb8626	-0.026797365
103	0xbdabd830	-0.08390844
104	0x3dc347f4	0.09535208
105	0xbcc3fac5	-0.023923287
106	0x3dc87760	0.09788394
107	0x3e2a2ea7	0.16619359
108	0xbca3f3f7	-0.020013792
109	0x3ddd623c	0.10809752
110	0xbe190b3d	-0.14945693
111	0x3deaadaa	0.11458905
112	0x3db02ab8	0.08601898
113	0xbd23a4d5	-0.039952118
114	0x3d23cac7	0.039988305
115	0x3ca9bfc0	0.020721316
116	0xbd568c75	-0.052380044
117	0xba9aca01	-0.001180947
118	0x3bda8fd0	0.006669976
119	0x3d7e54dd	0.06209265
120	0xbb10344a	-0.0022003823
121	0x3dcd76cd	0.10032425
122	0xbe0c1623	-0.1368032
123	0xbc6a8eca	-0.01431627
124	0x3daf77db	0.085677825
125	0xbdaf414e	-0.08557378
126	0x3d4b0c7b	0.04957245
127	0xbc60620a	-0.013695249
128	0x3d53afe1	0.051681403
129	0x3d9dfd27	0.077143006
130	0xbd9ae9d7	-0.07564133
131	0x3cb5ad34	0.022177316
132	0x3d6d4eb1	0.057936374
133	0x3de56692	0.11201204
134	0x3d47ea74	0.048807576
135	0xbce6be7e	-0.028167006
136	0xbd819eca	-0.06329115
137	0x3d93dbfd	0.07219694
138	0xbda046fd	-0.0782604
139	0xbdebfd7b	-0.11522957
140	0x3d5264ab	0.051365536
141	0x3da744fd	0.08167455
142	0x3dc72bdc	0.097251624
143	0x3c8026cf	0.015643505
144	0xbab835a2	-0.001405407
145	0xbd951f5c	-0.07281372
146	0xbd787b22	-0.060664304
147	0x3daa2d26	0.08309393
148	0x3d4e28fd	0.05033206
149	0xbe09932f	-0.13435052
150	0x3cc3291d	0.023823315
151	0xbd98cbda	-0.074607566
152	0xbdcb7fe2	-0.09936501
153	0x3ce6e158	0.028183624
154	0xbdb2d5d8	-0.08732194
155	0x3e1c95cb	0.15291516
156	0xbb782190	-0.0037861802
157	0xbc01ef61	-0.007930608
158	0xbc798e73	-0.015231716
159	0xbda4a627	-0.080395035
160	0xbded5aad	-0.11589561
161	0x3dc81949	0.09770448
162	0x3df38799	0.118910976
163	0xbc7a5d6f	-0.015281065
164	0x3dea261f	0.11433052
165	0x3d8ad769	0.067793675
166	0x3d769c28	0.060207516
167	0xbc6d06c5	-0.014466946
168	0xbcdeecd0	-0.02721253
169	0xbdb1e204	-0.08685687
170	0x3da8e861	0.08247448
171	0xbc932dc9	-0.017966168
172	0xbc4fca68	-0.012682535
173	0xbdad9f4a	-0.084776476
174	0xb9db1e17	-0.00041793354
175	0x3e07f4d0	0.13276982
176	0x3cbac1fa	0.022797573
177	0xbcf6874c	-0.030093811
178	0x3cab03fe	0.020875927
179	0x3e29e006	0.16589364
180	0x3dc11672	0.09428109
181	0x3cdd482f	0.027011959
182	0xbd1db0f0	-0.03849882
183	0xbd902e9e	-0.070401415
184	0xbc8dfce0	-0.017332494
185	0x3dde18ab	0.10844549
186	0xbd253503	-0.04033376
187	0xbd365db9	-0.044522975
188	0x3e4849de	0.19559428
189	0x3be726ca	0.0070541846
190	0x3deba8dc	0.11506817
191	0x3d536dda	0.051618434
192	0xbbc1082e	-0.0058908677
193	0xba983af6	-0.0011614251
194	0x3d40a6c4	0.04703404
195	0x3ddec927	0.108782105
196	0x3da41009	0.08010871
197	0x3e38c9c9	0.18045725
198	0xbd2c1748	-0.04201439
199	0xbd919ff4	-0.07110587
200	0xbc36e52f	-0.01116304
201	0xb95998ca	-0.00020751651
202	0x3d3b3f90	0.045714915
203	0x3c0513a5	0.008122359
204	0x3e1c9e5c	0.15294784
205	0x3d4b04b6	0.04956504
206	0xbd2310db	-0.039810997
207	0x3d3dd5d8	0.046346515
208	0x3d7681ac	0.06018226
209	0x3deadc80	0.11467838
210	0x3da2c01a	0.07946797
211	0xbd121360	-0.03566301
212	0xbd7b9566	-0.061421774
213	0x3e2bb35f	0.16767643
214	0x3e1c7a96	0.15281138
215	0xbcd3f047	-0.02587141
216	0xbddcea7d	-0.107869126
217	0x3e08656f	0.13319944
218	0x3cbf2c49	0.023336546
219	0x3e12f097	0.1434959
220	0x3e023d72	0.12718752
221	0x3d390b43	0.045176756
222	0x3d30bc5c	0.043148383
223	0x3d09eb11	0.033671442
224	0x3c9a8d36	0.018866163
225	0x3d810249	0.06299264
226	0xbdba7188	-0.091036856
227	0xbd9101ad	-0.07080398
228	0xbd828883	-0.06373694
229	0xbc07a0cd	-0.008278084
230	0x3cb2bb6a	0.021817882
231	0x3d48b045	0.04899623
232	0xbdeac46c	-0.11463246
233	0x3dfacd68	0.122462094
234	0x3c4a4f4a	0.012348006
235	0x3c0ab12e	0.0084650945
236	0xbd856eae	-0.06515251
237	0x3d75ced3	0.060011696
238	0x3e3a4c13	0.18193083
239	0x3dcb8313	0.0993711
240	0x3b7c1f13	0.003847067
241	0xbcee61d4	-0.029099382
242	0x3cc0c9fa	0.02353381
243	0x3d5391a5	0.05165257
244	0xbd84b992	-0.06480707
245	0x3cbec9d1	0.023289593
246	0xba7e052e	-0.0009690103
247	0x3af04170	0.0018330049
248	0x3d6cccbb	0.057812434
249	0x3d6edab2	0.058314033
250	0x3daa9663	0.08329465
251	0xbd950a8b	-0.072774015
252	0xbd2d36f5	-0.04228874
253	0xbd68bfeb	-0.056823652
254	0xb9800815	-0.00024420084
255	0xbd2a2274	-0.041536763

l2.bias f4 [256]
0	0xbcce8cbc	-0.025213592
1	0xbc0680ae	-0.008209391
2	0xbcf72762	-0.030170146
3	0xbd129ab8	-0.035792083
4	0x3d466302	0.048434265
5	0x3d73809d	0.059448827
6	0x3d2c8da6	0.042127274
7	0xbd1f06a5	-0.038824696
8	0x3d0e669e	0.034765832
9	0x3bd999c3	0.0066406443
10	0xbd9965c7	-0.074901156
11	0xbd83af57	-0.06429928
12	0xbcd72470	-0.026262492
13	0x3cc5f041	0.024162414
14	0x3d30035b	0.04297195
15	0x3b48619f	0.0030575765
16	0xbcd74755	-0.026279131
17	0xbc518a0c	-0.012789261
18	0xbd4a4c3e	-0.049389116
19	0xbcd19721	-0.02558476
20	0xbde3fbc6	-0.11132006
21	0xbdb3d28e	-0.087803945
22	0x3c891b3d	0.016736621
23	0xbd798eec	-0.060927317
24	0x3d2215c3	0.039571535
25	0xbd2d871f	-0.04236519
26	0x3d6e9727	0.05824962
27	0xbd23d93c	-0.040002093
28	0x3d32583e	0.043541186
29	0xbbe783e9	-0.0070652855
30	0xbc5f32e4	-0.013622973
31	0xbad0ab22	-0.0015920142
32	0xbd7f7ad2	-0.06237299
33	0x3d377d84	0.044797435
34	0xbdbc0f73	-0.09182634
35	0x3d204eb9	0.039137576
36	0x3d7b5820	0.06136334
37	0xbdc2ba4b	-0.09508189
38	0x3bc41d96	0.005984972
39	0xbc27b9f7	-0.010237209
40	0xbb07ffb0	-0.0020751767
41	0xbda8e092	-0.082459584
42	0xbde522b2	-0.11188258
43	0xbdec8b5d	-0.11550019
44	0xbdcb8a78	-0.0993852
45	0xbd634b07	-0.055491474
46	0xbdd7a9c6	-0.105304286
47	0x3c18e9b3	0.009333062
48	0x3d4bc435	0.049747664
49	0xbda5ab42	-0.080893055
50	0xbb665e6d	-0.0035151497
51	0xbd67b095	-0.056564886
52	0xbdbfbdcd	-0.093623735
53	0xbde82563	-0.11335256
54	0x3d9b65a2	0.07587744
55	0x3cf102e3	0.029420322
56	0xbdeda3f8	-0.1160354
57	0xbdd19c4d	-0.1023489
58	0x3d29175a	0.041282035
59	0x3cabc032	0.02096567
60	0xbdceb367	-0.10092812
61	0x3c6c4462	0.014420601
62	0xbd613abc	-0.054987654
63	0xbdb2832f	-0.087164275
64	0x3d84134d	0.06448994
65	0xbba9d8b3	-0.0051833033
66	0xbc830449	-0.015993254
67	0xbd361b17	-0.04445943
68	0xbd4b18e2	-0.049584277
69	0xbb77d6b1	-0.0037817175
70	0xbd855c09	-0.06511695
71	0x3cdbb1fe	0.026818272
72	0xbd8c45cf	-0.068492524
73	0xbde3ca54	-0.111225754
74	0xbdc92ec3	-0.09823372
75	0xbd3fb959	-0.04680762
76	0xbdb14bda	-0.08657046
77	0x3cfe6bb4	0.031057216
78	0xbcf7d39f	-0.030252276
79	0xbd16ca4b	-0.036814015
80	0xbb50bda3	-0.0031851314
81	0x3c007995	0.007841487
82	0xbd648edc	-0.055800304
83	0x3cb29fc0	0.02180469
84	0xbdabf0d0	-0.08395541
85	0x39ee8281	0.0004549213
86	0xbdf4c8ec	-0.11952385
87	0xbce44b19	-0.02786784
88	0x3e0e3291	0.13886477
89	0xbdc93a8a	-0.098256186
90	0x3cc4fe8a	0.024047155
91	0x3d5d10fa	0.05397127
92	0xbceff3b4	-0.029291011
93	0x3dda4f08	0.10659605
94	0x3dc018c4	0.09379724
95	0xbd2112e2	-0.03932465
96	0xbd6ad437	-0.05733129
97	0xbca71387	-0.020395054
98	0x3d065781	0.032798294
99	0x3d797013	0.060897898
100	0xbcc6d251	-0.024270209
101	0xbc6d27ac	-0.014474791
102	0x3d4647c0	0.04840827
103	0xbbd15383	-0.006388129
104	0xbd53e3e5	-0.05173101
105	0xbac05eaa	-0.001467665
106	0x3d81b32f	0.06333005
107	0xbd6ff94c	-0.058587357
108	0xbd603139	-0.054734442
109	0xbd87abdc	-0.066245764
110	0x3d3dd60c	0.04634671
111	0xbc736e1e	-0.014857797
112	0x3b91a764	0.0044450033
113	0x3af6a061	0.0018816107
114	0xbdd9c31d	-0.10632918
115	0xbdabab68	-0.083823025
116	0x3d564a92	0.05231721
117	0x3d14c3a1	0.03631938
118	0xbb6f013f	-0.0036469249
119	0x3d85f898	0.06541556
120	0xbd989834	-0.074509054
121	0xbd291394	-0.041278437
122	0x3dc319bc	0.09526393
123	0xbd672d51	-0.0564397
124	0xbcfa9286	-0.030587446
125	0xbdf2e213	-0.118595265
126	0xbc9f696b	-0.019459447
127	0xbd272bad	-0.040813137
128	0xbd7e6f24	-0.06211771
129	0xbd511b76	-0.05105158
130	0xbcbde818	-0.02318196
131	0xbdc09ab0	-0.09404504
132	0xbcaaf4fb	-0.020868769
133	0xbd11a24a	-0.03555516
134	0xbc983249	-0.018578665
135	0x3a0113a9	0.0004923889
136	0xbdcaa740	-0.09895182
137	0x3ce86574	0.02836869
138	0xbc7fd6ad	-0.015615148
139	0xbd4784cf	-0.04871064
140	0xbbd7055d	-0.0065619186
141	0x3d42fd89	0.04760507
142	0xbd27c1ee	-0.04095643
143	0xbc47fb17	-0.012205861
144	0xbdb17f81	-0.086668976
145	0x3cacd01b	0.021095326
146	0x3d6791ea	0.05653564
147	0x3cf7a8f1	0.030231925
148	0xbdb38e23	-0.08767345
149	0x3cf6cf97	0.030128283
150	0x3d0392a3	0.032122266
151	0xbdc28e57	-0.094998054
152	0x3d9e0da8	0.077174485
153	0xbd8b4ab8	-0.06801361
154	0xbcd48f72	-0.025947306
155	0x3d5b3a37	0.053522315
156	0xbd393613	-0.045217585
157	0x3d9eb681	0.077496536
158	0x3cd77ef6	0.026305657
159	0xbb97f973	-0.004637891
160	0x3d6e1ac0	0.05813098
161	0xbdf6992a	-0.120409325
162	0xbbd7d25e	-0.006586357
163	0x3d45aa2b	0.048257988
164	0xbdab1e29	-0.08355362
165	0xbdbbbdfc	-0.09167096
166	0x391bb8c6	0.00014850785
167	0xbd4597b1	-0.048240367
168	0xbc9c99d9	-0.019116329
169	0xbdec02c8	-0.11523968
170	0x3d7de93c	0.061990008
171	0x3d681e72	0.05666966
172	0xbba39143	-0.004991682
173	0xbd1e1216	-0.038591467
174	0x3cfb318e	0.030663278
175	0x3db06f2a	0.08614953
176	0x3d90ef2e	0.0707687
177	0x3cb9c896	0.022678655
178	0x380eba95	3.4029206e-05
179	0x3d5ee204	0.054414764
180	0x3db41425	0.08792905
181	0xbcc18396	-0.023622315
182	0xbdda6616	-0.106640026
183	0xbda226cb	-0.079175554
184	0x3db4d36a	0.088293865
185	0x3cc7adf6	0.024374943
186	0x3d8ccfe8	0.068755925
187	0xbd8b26dc	-0.06794521
188	0x3d2d306e	0.042282514
189	0x3c692e82	0.01423228
190	0x3dc93aaa	0.098256424
191	0xbce9c648	-0.02853693
192	0xbdd4ad4b	-0.103846155
193	0xbb96476d	-0.0045861513
194	0x3d7746ff	0.06037044
195	0xbcf79e31	-0.030226799
196	0xbc74172f	-0.0148981055
197	0x3c9e7371	0.019342156
198	0xbca28f0d	-0.019843603
199	0xbde732a4	-0.11288956
200	0xbd623152	-0.055222817
201	0xbd47e866	-0.048805617
202	0xbde6c20e	-0.11267482
203	0x3bfd9c81	0.007739604
204	0xbd66d034	-0.0563509
205	0x3d824e70	0.06362617
206	0x3cff064e	0.031130936
207	0xbd55c351	-0.05218822
208	0xbd8e604e	-0.069519624
209	0xbb77e61b	-0.0037826363
210	0xbd0cc33e	-0.034365885
211	0xbdb957b4	-0.09049931
212	0x3d9a0121	0.075197466
213	0xbc270e5c	-0.010196295
214	0xbdf9a8d9	-0.12190408
215	0xbdc53a7f	-0.09630298
216	0xbc744f3f	-0.014911472
217	0x3d96e067	0.0736702
218	0xbd00c12e	-0.03143423
219	0x3d116b85	0.03550293
220	0xbd0b6d8b	-0.034040015
221	0x3d093bfa	0.033504464
222	0x3c882ca2	0.016622845
223	0xbcda53cb	-0.026651284
224	0x3d51e0f7	0.051239934
225	0x3d44e2bc	0.048067793
226	0x3d551c17	0.05202874
227	0xbdde81ef	-0.108646266
228	0xbd9862cd	-0.0744072
229	0xbd283efb	-0.041075688
230	0xbd8d54ad	-0.06900916
231	0xbd03434a	-0.032046594
232	0x3d4e9180	0.05043173
233	0xbd1ccd4a	-0.038281716
234	0x3d876040	0.06610155
235	0xbdb6a828	-0.08918792
236	0xbc01a9ad	-0.007913989
237	0x3d888321	0.06665636
238	0x3d464cc4	0.048413053
239	0xbdc03bde	-0.09386419
240	0xbd1c774d	-0.03819971
241	0xbd47c88d	-0.048775245
242	0x3d1e9ca9	0.03872362
243	0x3d5db8fc	0.054131493
244	0xbcd88e14	-0.026434936
245	0x3c47cbd3	0.012194592
246	0xbd4e94d7	-0.050434913
247	0x3ba27d41	0.004958779
248	0xbd34ad37	-0.044110503
249	0xbd7a47de	-0.061103694
250	0x3d1f8f83	0.038955223
251	0x3c011561	0.007878632
252	0x3ce045fc	0.027377121
253	0x3d19e05f	0.037567493
254	0xbd871323	-0.06595447
255	0xbdbbe505	-0.091745414

l3.weight f4 [3, 256]
0	0x3a910da3	0.0011066686
1	0xbd7e9ae2	-0.062159427
2	0xbd23a5a7	-0.0399529
3	0xbd667e9a	-0.05627308
4	0xbd2ed762	-0.042685874
5	0xbe0042ce	-0.12525484
6	0xbdea53bf	-0.114417545
7	0xbdba9a39	-0.09111447
8	0xbcc6b5dd	-0.024256641
9	0xbcd77c40	-0.026304364
10	0x3d323a01	0.043512348
11	0xbc2dddda	-0.010611976
12	0xb99ad742	-0.00029533549
13	0xbe18fbf6	-0.14939865
14	0x3bba206d	0.005680135
15	0x3e1aa1cd	0.15100785
16	0xbbcd8e4d	-0.006273067
17	0xbd80259f	-0.06257176
18	0xbab530b7	-0.0013823722
19	0x3d4dadeb	0.05021469
20	0xbd4df147	-0.050278928
21	0x3cd904d7	0.026491566
22	0xbd824477	-0.06360715
23	0xbdd3a2d1	-0.10333789
24	0x3e067352	0.13129929
25	0xbc37825a	-0.011200512
26	0xbdf9b356	-0.12192409
27	0xbd1f71f5	-0.038927037
28	0xbcb9d4f9	-0.022684561
29	0x3da1bfe6	0.0789793
30	0x3dd8bfe2	0.10583474
31	0xbdb14540	-0.086557865
32	0xbcbe7f7d	-0.02325415
33	0xbe0c1471	-0.13679673
34	0x3cd78a61	0.026311101
35	0xbe14f06b	-0.14544837
36	0xbd76a8ed	-0.060219694
37	0xbd8f92d3	-0.07010426
38	0xbde1142c	-0.109901756
39	0xbb52778b	-0.003211471
40	0xbd4866ad	-0.048926044
41	0xbd85bcf3	-0.0653018
42	0x3b2ebc4a	0.0026662522
43	0xbd0dc865	-0.03461494
44	0xbdc2bfd2	-0.09509243
45	0xbd62d54b	-0.055379193
46	0x3c7ef1ab	0.015560548
47	0xbd641e4f	-0.055692967
48	0xbe0d1f35	-0.13781436
49	0x3d3dd361	0.046344165
50	0xbd9efe19	-0.07763309
51	0xbb11260c	-0.0022147922
52	0x3bcb7b13	0.00620974
53	0x3c8b723a	0.01702224
54	0xbd82804b	-0.06372126
55	0xbdba4e88	-0.0909701
56	0x3bc8c787	0.006127301
57	0x3d3c21b9	0.045930598
58	0xbddcca89	-0.10780818
59	0xbdd8d744	-0.10587934
60	0xbd6a3424	-0.05717863
61	0xbdb4c434	-0.08826485
62	0xbd33ed29	-0.043927345
63	0xbe80a3f7	-0.25125095
64	0xbd816723	-0.063185
65	0xbd3955b3	-0.045247745
66	0x3b653824	0.003497609
67	0xbda53f25	-0.080686845
68	0x3b4302df	0.002975635
69	0xbb93baef	-0.004508368
70	0x3cc4be36	0.02401648
71	0xbceaf885	-0.028682956
72	0xbc3f3590	-0.011670485
73	0xbd0402e3	-0.032229315
74	0xbd7ea8cc	-0.062172696
75	0xbc4db85c	-0.012556162
76	0xbd161370	-0.03663963
77	0xbd94746a	-0.07248767
78	0xbcda9ba8	-0.02668555
79	0xbc3f7b67	-0.011687136
80	0xbd38a128	-0.045075566
81	0xbd4cec8f	-0.050030287
82	0xbd46a33b	-0.048495512
83	0xbdb5c270	-0.08874977
84	0x3d12bbe2	0.03582371
85	0xbd260bfa	-0.040538765
86	0x3a587551	0.00082572276
87	0xbd7cc46b	-0.061710756
88	0x3ec09a9c	0.37617958
89	0x3cbfac33	0.02339754
90	0xbdcfcd9d	-0.101466395
91	0x3cc0961d	0.02350908
92	0xbbaf6a5f	-0.0053532566
93	0xbdcb11bf	-0.09915494
94	0xbda72406	-0.08161168
95	0xbd5c2112	-0.053742476
96	0x3c0a1580	0.008427978
97	0xbcd907f9	-0.02649306
98	0xbc70e89b	-0.014703895
99	0xbdeb7326	-0.11496572
100	0x3e1226e5	0.1427265
101	0xbb4c041b	-0.0031130377
102	0xbc8acc65	-0.016943166
103	0x3dc9ad5f	0.09847521
104	0xbc04016d	-0.008056981
105	0xbcfc5ac6	-0.030805003
106	0x3d8a7e06	0.06762318
107	0x3ca43006	0.02004243
108	0x3c684478	0.0141764805
109	0xbd4686ee	-0.048468523
110	0xbd94a4cd	-0.07257996
111	0x3aec941a	0.0018049509
112	0x3e1f36fe	0.15548322
113	0x3e22b0df	0.15887783
114	0xbd4606c5	-0.0483463
115	0xbc883eeb	-0.016631564
116	0x3b2b4a20	0.0026136711
117	0x3d84900a	0.06472786
118	0xbdaf9b17	-0.08574503
119	0xbd8f016c	-0.06982693
120	0xbcd0957b	-0.025461903
121	0xbd1ce306	-0.038302444
122	0x3db2ff9f	0.08740162
123	0xbd51aa77	-0.05118796
124	0xbd58bbee	-0.0529136
125	0xbbe4600f	-0.006969459
126	0xbdbd25aa	-0.092356995
127	0xbdc7d1c9	-0.0975681
128	0xbd9167d0	-0.07099879
129	0x3cc15ac8	0.023602858
130	0xbdc8561b	-0.09782048
131	0xbcb14768	-0.021640494
132	0xbc8f4025	-0.017486641
133	0xbd109e45	-0.035307188
134	0xbce46b01	-0.027883055
135	0xbd9960ef	-0.07489192
136	0x3bc43a79	0.005988416
137	0xbbf86a3a	-0.0075810226
138	0xbddc9eb9	-0.107724614
139	0xbd8b6454	-0.068062454
140	0xbb4b39ce	-0.0031009796
141	0xbda57bfd	-0.080802895
142	0xbc98b9b1	-0.018643232
143	0xbda23d94	-0.07921901
144	0xbdb6e29a	-0.089299396
145	0xbd525fc9	-0.05136088
146	0xbe032fc4	-0.1281119
147	0xbcb89d8d	-0.022536064
148	0x3ab47fb7	0.0013770972
149	0x3d519a32	0.051172443
150	0xbd391e05	-0.045194644
151	0xbc9dfba4	-0.01928503
152	0xbcc69f5d	-0.024245912
153	0xbda29adb	-0.079396926
154	0x3b170572	0.0023044017
155	0x3d27fc5e	0.04101216
156	0xbcb72541	-0.022356631
157	0xbd57e13c	-0.052705035
158	0x3d35e9b8	0.044412345
159	0xbde0f0e0	-0.10983443
160	0xbcbd71f9	-0.023125635
161	0xbdb42394	-0.087958485
162	0xbd3fc5d3	-0.04681952
163	0x3bf05c76	0.007335241
164	0xbd8c1250	-0.0683943
165	0x3d5a8977	0.053353753
166	0x3dca18da	0.09868021
167	0xbbc52482	-0.006016315
168	0xbd08baad	-0.033381153
169	0x3b1c234b	0.0023824747
170	0xbd28eac1	-0.041239504
171	0xbdd66126	-0.10467748
172	0xbe412506	-0.1886178
173	0xbca2c57a	-0.019869555
174	0xbde65cf4	-0.11248198
175	0x3d56e0c4	0.052460447
176	0xbd9b2937	-0.075762205
177	0xbddf7e7d	-0.109127976
178	0xbd99ef86	-0.075163886
179	0xbcecae5b	-0.028891733
180	0x3db45b14	0.08806434
181	0x3d377607	0.044790294
182	0xbc8fbc56	-0.01754586
183	0x3ceb05ec	0.028689347
184	0xbdd79316	-0.10526101
185	0xbc85a863	-0.016315645
186	0x3da5094c	0.08058414
187	0xbc343b06	-0.0110004
188	0xbd829017	-0.06375139
189	0xbd60b420	-0.05485928
190	0xbd98b015	-0.0745546
191	0xbcade140	-0.021225572
192	0xbd80e8a7	-0.06294375
193	0xbcb52453	-0.022112047
194	0xbd617cbb	-0.055050593
195	0xbdafe70a	-0.08588989
196	0xbdae7971	-0.08519257
197	0xbc655570	-0.013997421
198	0xbd586e77	-0.052839722
199	0xbd55e175	-0.052216966
200	0xbc16017d	-0.009155628
201	0xbd11faeb	-0.035639685
202	0x3d67467b	0.0564637
203	0xbda491c7	-0.08035617
204	0xbd6424a1	-0.055698995
205	0xbd5063f3	-0.05087657
206	0xbd0bb743	-0.03411032
207	0xbbbf5126	-0.005838531
208	0xbc8c834f	-0.017152457
209	0xbd01fd69	-0.03173581
210	0xbd64078f	-0.05567127
211	0xbac4b173	-0.0015006497
212	0xbc811867	-0.015758706
213	0x3a88cf59	0.0010437771
214	0xbc362ee6	-0.01111958
215	0xbd76fbb2	-0.06029863
216	0xbde65e88	-0.11248499
217	0xbd990529	-0.07471687
218	0x3d1854e5	0.037190337
219	0xbc982f61	-0.01857728
220	0xbda03c8f	-0.07824051
221	0xbd742068	-0.059601218
222	0x3d80c187	0.062869124
223	0xbd5a6de6	-0.053327464
224	0xbdad992f	-0.08476483
225	0x3d882750	0.06648123
226	0xbd972b92	-0.07381357
227	0xbdc96999	-0.09834594
228	0xbd717f4e	-0.058959298
229	0xbd27597c	-0.040856823
230	0x3cb04ace	0.021520045
231	0x3b5524ca	0.0032523149
232	0x3d63f2b0	0.055651367
233	0x3cccae68	0.024985507
234	0xbdb01a83	-0.08598807
235	0xbdba92c5	-0.09110025
236	0xbd954e44	-0.072903186
237	0xbcc02aaf	-0.023457853
238	0xbc9f00b1	-0.01940951
239	0xbd04c221	-0.0324117
240	0xbc683129	-0.014171877
241	0xbc2131e4	-0.009838555
242	0xbd9b613d	-0.07586906
243	0xbd919b74	-0.071097285
244	0xbd3ef738	-0.046622485
245	0xbb3676a9	-0.0027841723
246	0xbddb1014	-0.10696426
247	0xbbe5ce5b	-0.007013125
248	0xbd0c4efe	-0.03425502
249	0x3b19c42a	0.002346287
250	0xbd872187	-0.06598192
251	0xbb3ea95f	-0.0029092652
252	0x3dbf1b02	0.09331323
253	0xbe3e84de	-0.18605372
254	0xbd835e42	-0.064144626
255	0xbde0bb3b	-0.109732114

l3.bias f4 [3]
0	0x3d51d969	0.05123273
1	0x3cb1b895	0.02169446
2	0xbd95aebf	-0.07308721
