gespeicherte_Klassen/models/09.09.2022.16.06.41/2SAVE.pt (torch, 372631 bytes, 6 tensors)

l1.weight f4 [256, 83]
0	0xbdb6edfe	-0.08932112
1	0xbe001964	-0.12509686
2	0xbdda5fda	-0.106628135
3	0xbd732e34	-0.059370235
4	0x3d1b449a	0.03790722
5	0xbe3fee01	-0.18743135
6	0x3d0c69d8	0.034280628
7	0xbbe3d550	-0.006952919
8	0xbdfb3489	-0.1226588
9	0x3c82ff38	0.015990838
10	0xbdcee3b0	-0.10102022
11	0xbd73ee51	-0.059553448
12	0xbcfba0ac	-0.030716263
13	0x3b266fa0	0.0025396124
14	0xbdc7283b	-0.0972447
15	0xbd390ab4	-0.045176223
16	0x3d4d25f7	0.050085034
17	0xbdcf1922	-0.101122156
18	0x3d5b3040	0.05351281
19	0xbe0a42bd	-0.13502021
20	0xbd7d7d59	-0.06188712
21	0x3b107f00	0.0022048354
22	0xbc12e600	-0.008965969
23	0xbcd94400	-0.026521683
24	0xb979da00	-0.00023827702
25	0xbc187612	-0.009305494
26	0xbd309280	-0.043108463
27	0xbda3e6ac	-0.080029815
28	0xbbd1b7f2	-0.006400102
29	0x3de048fe	0.10951422
30	0xbc2a0ef0	-0.010379538
31	0x3dad6dca	0.08468206
32	0xbd8e3430	-0.06943548
33	0x3dd7495d	0.1051204
34	0xbdf7edbe	-0.121058926
35	0x3d46983e	0.048485033
36	0xbd22570a	-0.03963379
37	0xbbad0680	-0.005280316
38	0xbd339298	-0.043840975
39	0x3d2c12f8	0.042010278
40	0x3e480e76	0.19536766
41	0x3dd0acf2	0.10189237
42	0x3db9e8b7	0.0907759
43	0x3d69be78	0.05706641
44	0x3d9f7394	0.07785717
45	0xbd1e5f76	-0.038665257
46	0xbd069cb2	-0.03286428
47	0xbd1a36d2	-0.037649937
48	0xbdcfbedf	-0.10143828
49	0x3cc72498	0.024309441
50	0x3ddb8810	0.10719311
51	0xbd55baf6	-0.052180253
52	0x3d7f1504	0.0622759
53	0x3b190520	0.0023349002
54	0xbda26d90	-0.07931054
55	0xbdda1131	-0.1064781
56	0xbdccb217	-0.099949054
57	0x3d9b3d3a	0.075800374
58	0x3d6925fc	0.05692099
59	0xbbceffb0	-0.0063171014
60	0x3d800918	0.062517345
61	0x3ddaed3c	0.1068978
62	0xbb13da00	-0.0022560358
63	0x3cf8c29a	0.03036623
64	0x3d084f6d	0.03327887
65	0xbd55357d	-0.052052964
66	0xbdb457c1	-0.088058
67	0x3c44d9f2	0.012014853
68	0xbc668160	-0.014068931
69	0xbd538415	-0.051639635
70	0xbd8dc0f0	-0.069215655
71	0x3c8db3b8	0.01729761
72	0xbd0d2d68	-0.03446713
73	0x3d5397bb	0.051658373
74	0xbdb5adb5	-0.088710226
75	0x3c971b9a	0.018445779
76	0xbd78a455	-0.060703594
77	0xbba08b6d	-0.0048994333
78	0x3cc34def	0.023840873
79	0xbdae3bbd	-0.08507488
80	0xbdface0f	-0.12246334
81	0xbd74ab07	-0.059733417
82	0xbbd8da80	-0.006617844
83	0xbd082e84	-0.033247486
84	0x3def2bdb	0.11678287
85	0x3d5741a6	0.05255284
86	0xbd6784f5	-0.056523282
87	0xbd83a8c1	-0.06428672
88	0xbda04767	-0.07826119
89	0xbc101a20	-0.008795291
90	0xbe270aa7	-0.16312657
91	0x3e1f9325	0.15583475
92	0x3d181670	0.037130773
93	0x3e48771f	0.19576691
94	0xbdc6344b	-0.09677943
95	0x3b9ef360	0.00485079
96	0xbdd2f1ca	-0.10300024
97	0x3d5efb5c	0.054438934
98	0xbda0f2e6	-0.07858829
99	0xbe08645c	-0.13319534
100	0xbdc03ef7	-0.093870096
101	0x3d43d1f6	0.047807656
102	0xbe133bba	-0.14378253
103	0xbd3f69b2	-0.04673166
104	0x3a82e380	0.0009986013
105	0xbd3ae94e	-0.045632653
106	0x3d31b6c0	0.043387175
107	0x3d60cfc8	0.054885656
108	0xbda44e93	-0.08022799
109	0xbca57fa6	-0.02020247
110	0xbcbb6426	-0.022874903
111	0x3dfd1ad5	0.123586334
112	0x3d1122ce	0.035433583
113	0xbd3d9d16	-0.046292387
114	0xbcb2c490	-0.021822244
115	0x3c9719a8	0.018444851
116	0x3cb420f0	0.021988362
117	0x3ca434c4	0.020044692
118	0x3d2cff97	0.042235937
119	0xbd112e29	-0.035444412
120	0x3df93a86	0.121693656
121	0x3d12ca0d	0.035837222
122	0x3d25aa12	0.040445395
123	0x3d27d7c0	0.04097724
124	0x3d316a78	0.043314427
125	0x3d48d6fa	0.049033143
126	0x3dc08c37	0.09401744
127	0x3da8141f	0.08206963
128	0x3b9cb026	0.0047817407
129	0x3d6a8147	0.057252195
130	0xbcee01eb	-0.029053649
131	0x3e3b2bd3	0.18278436
132	0x3da4039e	0.080085024
133	0x3d96075e	0.07325624
134	0x3c65ea89	0.014032968
135	0x3d9d522e	0.0768169
136	0xbd2cdccd	-0.04220276
137	0xbc58a483	-0.013222816
138	0xbd30f689	-0.043203864
139	0xbc4eaeee	-0.012614949
140	0x3ddc0547	0.10743194
141	0x3c73f090	0.014888898
142	0x3e1d717f	0.15375327
143	0x3e084775	0.13308509
144	0x3cd005df	0.025393425
145	0x3c39df9d	0.0113448175
146	0xbd87c3fd	-0.06629179
147	0xbd164c4f	-0.036693867
148	0xbde50ed8	-0.11184472
149	0x3ccd35b1	0.025050016
150	0xbe226e09	-0.15862288
151	0x3da6c28c	0.081425756
152	0x3da1ced2	0.07900776
153	0xbdc71f93	-0.09722819
154	0x3d9db7fc	0.07701108
155	0x3ca2678d	0.019824767
156	0xbbc2df30	-0.005947016
157	0x3c406b48	0.011744328
158	0xbd7438ce	-0.059624486
159	0x3d83794c	0.0641962
160	0xbd8ff884	-0.070298225
161	0xbdccd3ba	-0.10001321
162	0x3d9ea59e	0.07746433
163	0xbdc5dff9	-0.0966186
164	0x3d96c9f4	0.07362738
165	0xbcbe2ca0	-0.023214638
166	0xbd41890a	-0.04724983
167	0x3d28b9d0	0.04119283
168	0xbd8bb9f2	-0.06822576
169	0x3dd98646	0.10621314
170	0x3e09e2e5	0.1346546
171	0xbc0e02c3	-0.008667651
172	0x3d57b140	0.052659273
173	0xbe210351	-0.15723921
174	0x3ce2238d	0.027604843
175	0x3cc9cb1f	0.024632988
176	0x3d8d9696	0.069134876
177	0xbe1f04b7	-0.15529142
178	0xbdd50917	-0.104021244
179	0x3d67e716	0.056616865
180	0xbd29f2ee	-0.04149144
181	0xbe159007	-0.14605723
182	0xbd088010	-0.033325255
183	0x3d35bf5a	0.04437194
184	0x3cd22089	0.02565028
185	0x3c007d29	0.0078423405
186	0xbc68de4c	-0.014213156
187	0x3e20715d	0.15668245
188	0xbd4e435c	-0.050357208
189	0x3cb697ec	0.022289239
190	0x3e1972c8	0.14985192
191	0x3d20dace	0.03927117
192	0x3eab9deb	0.3351892
193	0x3e325111	0.17413737
194	0x3e128195	0.14307244
195	0x3e5668cb	0.20938413
196	0x3dee358e	0.116313085
197	0x3e044ec6	0.12920675
198	0xbce6f54e	-0.028193142
199	0x3de9b92c	0.11412272
200	0x3c79eb0f	0.015253796
201	0x3de71209	0.11282737
202	0x3d4a778b	0.04943041
203	0x3da3ebdc	0.08003971
204	0x3e12eba6	0.14347705
205	0x3ddc549e	0.10758327
206	0x3d28cf10	0.041213095
207	0x3dcb9c2e	0.09941898
208	0x3dcaa256	0.098942444
209	0xbbf61dba	-0.007510868
210	0x3e272976	0.1632441
211	0x3d660a06	0.056161903
212	0x3e0c9a5b	0.13730757
213	0x3e1789da	0.1479868
214	0x3d90d272	0.07071389
215	0x3df5e74c	0.12007007
216	0x3c59314d	0.013256383
217	0x3e375d46	0.17906675
218	0x3dc2e9fe	0.09517287
219	0x3e0b6a27	0.13614713
220	0x3da9f2b8	0.08298248
221	0x3e2098cf	0.15683292
222	0x3e0a4e50	0.13506436
223	0x3e114f9d	0.14190526
224	0x3d267d56	0.040646873
225	0x3c9e3563	0.019312566
226	0xbd273b73	-0.04082818
227	0x3e02efba	0.12786761
228	0x3d8182ba	0.06323762
229	0xbd2ed496	-0.042683206
230	0xbd77eca0	-0.060528398
231	0xbd9bcdd7	-0.0760762
232	0xbd9c980c	-0.07646188
233	0xbdda13ea	-0.106483296
234	0xbd851436	-0.064979956
235	0x3dcc9ace	0.09990464
236	0xbdbb7aeb	-0.09154304
237	0x3d228b5e	0.039683692
238	0xbd9e2d20	-0.07723451
239	0x3de0b794	0.10972515
240	0x3cda06d8	0.026614591
241	0xbd5ab8b3	-0.0533988
242	0xbc315c38	-0.010825209
243	0xbde0661c	-0.10956976
244	0xbdd3ec42	-0.10347797
245	0xbd4b0459	-0.049564693
246	0xbdabd0c8	-0.08389431
247	0x3c7d9440	0.01547724
248	0x3d04db54	0.03243573
249	0xbca5cf20	-0.020240366
250	0x3db4bb1e	0.08824752
251	0x3e2d6605	0.16933449
252	0x3db9e3d3	0.09076657
253	0xbd9e71cd	-0.077365495
254	0xbc1b985b	-0.009496774
255	0x3d1cb72f	0.038260635

l1.bias f4 [256]
0	0xbe0b7126	-0.13617381
1	0x3d47c901	0.048775677
2	0x3d9337aa	0.071883515
3	0x3b5bbc63	0.0033529035
4	0x3dc2d2da	0.09512873
5	0xbce25219	-0.027627038
6	0x3da62ffe	0.081146225
7	0x3d0d642c	0.03451936
8	0xbdf14a84	-0.11781791
9	0x3da5d1d1	0.0809666
10	0xbc9d870a	-0.01922943
11	0xbd86a564	-0.065745145
12	0x3db18dab	0.08669599
13	0x3db82f1e	0.08993362
14	0xbd8154fc	-0.063150376
15	0x3c9f200c	0.01942446
16	0x3e79a954	0.24381
17	0x3dd32ed5	0.10311667
18	0xbe2b879b	-0.16750948
19	0x3d2817b2	0.041038223
20	0xbe1a262a	-0.15053621
21	0xbd70e32a	-0.05881039
22	0xbcefa8dd	-0.029255325
23	0x3d93424a	0.07190378
24	0x3e41fce7	0.18944131
25	0xbd060cbd	-0.032726992
26	0x3e0ea207	0.13928996
27	0xbd945c60	-0.07244182
28	0xbd26d6ba	-0.040732123
29	0xbd01d843	-0.031700384
30	0x3dac38f9	0.08409304
31	0x3d20bf1a	0.03924475
32	0xbe044aec	-0.12919205
33	0xbd95d162	-0.07315327
34	0x3cfa8661	0.030581655
35	0x3d7621b1	0.060090724
36	0xbd725d2d	-0.05917089
37	0xbdb56a41	-0.08858157
38	0xbd2ce32e	-0.042208843
39	0xbe1fd246	-0.15607557
40	0xbd7cc949	-0.061715398
41	0x3dc55ee0	0.096372366
42	0xbc8239a3	-0.015896624
43	0xbe2e192c	-0.1700179
44	0xbd699577	-0.057027306
45	0x3d0d1979	0.03444812
46	0xbd6e68a6	-0.05820527
47	0x3c974ebc	0.01847016
48	0xbe22424e	-0.15845606
49	0xbda557c9	-0.08073384
50	0x3d6fb5c0	0.05852294
51	0xbd823f3d	-0.06359718
52	0xbd331ad7	-0.04372677
53	0xbe15906f	-0.14605878
54	0x3cc29ee4	0.023757406
55	0x3e241f5f	0.16027592
56	0xbe093316	-0.13398394
57	0xbdf9198d	-0.121630765
58	0xbdeee953	-0.11665597
59	0xbda8042d	-0.082039215
60	0xbe099048	-0.13433945
61	0xbd48f39c	-0.04906045
62	0xbd005f6c	-0.031341
63	0xbdf9e814	-0.122024685
64	0x3b244f65	0.0025071737
65	0xbe11a2a9	-0.14222206
66	0x3e2624fe	0.16225049
67	0x3d14a8b0	0.036293685
68	0x3d36e526	0.044652127
69	0xbde43565	-0.11142997
70	0x3da66ef2	0.0812663
71	0x3c8837ae	0.016628113
72	0xbe21f5dd	-0.15816446
73	0x3dda3a7f	0.106556885
74	0x3d7a53e2	0.061115153
75	0x3e095d42	0.13414481
76	0xbd208959	-0.039193485
77	0x3c06f0bf	0.008236109
78	0xbdec1880	-0.115281105
79	0x3d9e4bc8	0.07729298
80	0x3dbf73c1	0.0934825
81	0xbe3aee75	-0.18255027
82	0x3d9b4dc6	0.075831935
83	0xbd8e3e4d	-0.06945477
84	0x3de2ef8c	0.11080846
85	0xbdc78af9	-0.09743304
86	0xbd5fe6ec	-0.054663584
87	0x3cbd421a	0.023102809
88	0x3d48f069	0.049057398
89	0xbd4eb41a	-0.050464727
90	0xbd958572	-0.07300843
91	0xbdaa3e78	-0.08312696
92	0xbd7f7675	-0.06236883
93	0x3bc05092	0.0058689797
94	0x3d3a8144	0.045533434
95	0x3c6666b4	0.014062572
96	0xbd5227ec	-0.051307604
97	0x3dba2184	0.09088424
98	0x3dd7c4c0	0.10535574
99	0xbca53e7b	-0.020171395
100	0x3dbc45ae	0.09192978
101	0x3d09aa9f	0.033609983
102	0xbbeb5d1a	-0.0071827294
103	0x3dc6f781	0.097151764
104	0x3c495df6	0.012290468
105	0xbddb87dd	-0.10719273
106	0x3c3c2091	0.011482374
107	0x3df5f9c5	0.120105304
108	0x3ccaef7e	0.024772402
109	0xbde9dbaf	-0.114188544
110	0x3e138349	0.1440555
111	0xbc977464	-0.018488117
112	0x3caa5634	0.020793058
113	0xbd5b4428	-0.053531796
114	0xbd60ee62	-0.05491484
115	0xbe2c2df9	-0.16814412
116	0xbce381bb	-0.027771821
117	0x3d8d7ee8	0.06908971
118	0xbe011731	-0.12606503
119	0x3ca73bf9	0.02041434
120	0xbd64ed06	-0.055890106
121	0xbd59293c	-0.05301784
122	0x3dcd4ac8	0.10024029
123	0x3d8314ad	0.06400428
124	0xbddcef66	-0.10787849
125	0x3d2963f9	0.041355107
126	0xbd239c02	-0.039943703
127	0xbcc2d857	-0.0237848
128	0x3d3ec705	0.04657652
129	0xbcee8a6b	-0.029118737
130	0x3d846040	0.06463671
131	0xbd931b69	-0.071829624
132	0x3e176da5	0.1478792
133	0xbe20738e	-0.1566908
134	0xbd8a472d	-0.06751857
135	0xbd9bc510	-0.07605946
136	0x3e012991	0.12613513
137	0xbd48def7	-0.04904076
138	0xbdc9b87d	-0.098496415
139	0x3cf7475c	0.030185394
140	0x3db1f412	0.08689131
141	0xbe208ac2	-0.15677932
142	0xbd1b6168	-0.03793469
143	0xbd8ee9db	-0.06978198
144	0x3d8a8410	0.0676347
145	0xbe247b62	-0.16062692
146	0x3d54985f	0.051903125
147	0x3d2b007b	0.041748505
148	0x3cba2790	0.022723943
149	0xbd8c1039	-0.06839032
150	0xbd81dbfe	-0.06340788
151	0xbe1adc19	-0.15123023
152	0x3e08bd22	0.13353398
153	0xbc915370	-0.017739981
154	0xbd3a7bf7	-0.04552838
155	0x3d455d6e	0.048184805
156	0xbdb31185	-0.08743576
157	0x3af7886e	0.0018885264
158	0x3dfbcb7f	0.12294673
159	0x3de19db8	0.110164106
160	0x3a661ad5	0.0008777802
161	0xbd916b94	-0.07100597
162	0x3bcb7062	0.0062084654
163	0x3e01ab29	0.12662949
164	0xbcde3ea5	-0.02712948
165	0x3e340de1	0.1758342
166	0x3cd17758	0.025569603
167	0x3d46d7af	0.048545536
168	0xbd8bbdbc	-0.06823298
169	0xbcf43760	-0.029811561
170	0x3d96e2dc	0.07367489
171	0xbe39416a	-0.1809136
172	0xbe38e79e	-0.18057105
173	0xbdc76812	-0.09736647
174	0xbd38fc75	-0.045162637
175	0x3d5d2b3a	0.053996302
176	0xbcc042e5	-0.023469398
177	0xbddd78cb	-0.10814055
178	0xbdd7cbad	-0.10536895
179	0x3c9f2a7d	0.01942944
180	0xbd8b2bee	-0.06795488
181	0xbd7775c5	-0.06041505
182	0xbdf2001f	-0.11816429
183	0xbe2d4b47	-0.16923247
184	0xbdb3c337	-0.08777469
185	0xbdb463c6	-0.08808093
186	0x3e1e1dcd	0.15441056
187	0x3d0bb427	0.034107354
188	0x3e378c6b	0.17924659
189	0xbcedbd9e	-0.02902108
190	0xb99195d4	-0.00027768186
191	0xbc71db97	-0.014761827
192	0xbca35b68	-0.019941047
193	0xbdc9d5e1	-0.09855247
194	0xbdcec5cc	-0.100963205
195	0xbda41007	-0.080108695
196	0x3b3007e3	0.002686017
197	0xbb113ba1	-0.0022160786
198	0xbd119a84	-0.03554775
199	0xbd12e8d9	-0.035866592
200	0xbd35f61c	-0.04442416
201	0x3d02694f	0.03183871
202	0x3c95ae2f	0.018271534
203	0xbcb058c7	-0.021526707
204	0x3d0afc53	0.03393204
205	0xbd96a41e	-0.073555216
206	0xbda8ebd7	-0.08248108
207	0xbceff96a	-0.029293735
208	0x3d03a799	0.032142255
209	0x3d957014	0.07296768
210	0xbe0e10d6	-0.1387361
211	0xbd3b8f8a	-0.045791186
212	0x3d92a7d7	0.07160919
213	0x3e022308	0.12708676
214	0x3c80da89	0.015729206
215	0x3d1396b8	0.03603241
216	0x3de12fa3	0.10995414
217	0xbdce3403	-0.10068514
218	0xbce986ce	-0.028506663
219	0x3d89f537	0.06736224
220	0x3d602785	0.05472519
221	0xbdaa2d32	-0.083094016
222	0x3905577f	0.00012716463
223	0x3cb63e5e	0.022246536
224	0x3bbaf692	0.005705663
225	0x3d8c2ed3	0.068448685
226	0xbdc0ec17	-0.094200306
227	0x3d13022b	0.03589074
228	0x3dcce171	0.10003937
229	0xbc13eef3	-0.009029138
230	0xbd955268	-0.07291108
231	0xbd1f1eb6	-0.038847648
232	0x3c3bec45	0.011469905
233	0xbcea4a91	-0.02860001
234	0x3b81fbde	0.0039667925
235	0xbd3c15d5	-0.04591926
236	0x3dce5050	0.10073912
237	0xbccdd270	-0.025124758
238	0x3cb48697	0.022036834
239	0xbb3aa698	-0.0028480645
240	0x3dd667ec	0.1046904
241	0xbe07710e	-0.1322672
242	0xbe06dda8	-0.13170493
243	0x3d8f5d8f	0.07000267
244	0xbe18422b	-0.14868991
245	0xbc497aa9	-0.012297311
246	0xbd3ba2d7	-0.045809593
247	0xbd86a5ce	-0.065745935
248	0xbe13cb74	-0.1443308
249	0xbc9584ec	-0.018251859
250	0x3d6372f2	0.055529542
251	0x3c8818f5	0.016613463
252	0xbdc233c2	-0.09482528
253	0xbde6e05b	-0.11273261
254	0x3e1ab34e	0.15107462
255	0xbc951733	-0.018199539

l2.weight f4 [256, 256]
0	0xbb4b229e	-0.0030995975
1	0xbd47e79c	-0.048804864
2	0xbe0db29a	-0.13837662
3	0x3d117c72	0.03551907
4	0xbd54416d	-0.051820207
5	0x3d6c944b	0.05775861
6	0x3e300d32	0.17192534
7	0xbd39b813	-0.045341562
8	0xbd82b178	-0.06381506
9	0x3e05b45b	0.13057081
10	0xbc240a16	-0.01001217
11	0xbc6d3e9a	-0.014480257
12	0x3ca04c88	0.019567743
13	0xbd1dd6eb	-0.03853504
14	0xbbeef8cf	-0.007292844
15	0xbd7ee231	-0.06222743
16	0x3ceb3dac	0.02871593
17	0xbc9a7891	-0.018856319
18	0x3ca026d8	0.019549772
19	0x3dd4935c	0.10379669
20	0x3de150dd	0.110017516
21	0xbcd2a388	-0.025712743
22	0xbdd924fc	-0.10602757
23	0xbba5a9b9	-0.005055633
24	0x3e375bce	0.17906114
25	0x3dc948b7	0.098283224
26	0xbc2f5c9b	-0.010703231
27	0x3d1dab86	0.038493656
28	0x3de1c047	0.11023002
29	0xbd3a0b13	-0.045420717
30	0x3da59443	0.08084919
31	0xbda22d05	-0.07918743
32	0xbbd1e8c0	-0.00640592
33	0x3d67fe33	0.056638908
34	0x3dc73ecc	0.097287744
35	0x3d8636d7	0.065534286
36	0xbbc8cd4a	-0.006127988
37	0xbb4a8cd7	-0.00309067
38	0xbddb0a65	-0.10695342
39	0xbc0beb8e	-0.008540047
40	0x3e091095	0.13385232
41	0x3d8f2682	0.06989767
42	0x3d16b8cb	0.036797326
43	0x3bc2c173	0.005943471
44	0xbc8bb717	-0.017055077
45	0x3d060063	0.032715213
46	0x3d7115b8	0.058858603
47	0x3d6e9a0e	0.058252387
48	0x3d1fd912	0.039025374
49	0x3c9f170f	0.019420175
50	0x3d330590	0.043706477
51	0x3d1c992d	0.038232017
52	0x3dee2fcd	0.11630211
53	0x3d05fbd0	0.03271085
54	0x3db822e8	0.08991033
55	0x3dba518f	0.09097587
56	0xbc0ba567	-0.008523322
57	0x3db171f9	0.08664317
58	0x3d7b7605	0.06139185
59	0x3c2860fa	0.010277027
60	0xbd4586b6	-0.048224173
61	0x3d0cc8d8	0.034371227
62	0xbd222374	-0.039584592
63	0xbb5c17c0	-0.0033583492
64	0x3d10b424	0.035328045
65	0x3ddc1662	0.10746457
66	0x3db58c80	0.08864689
67	0x3d2a4097	0.041565504
68	0x3cc11ddc	0.023573808
69	0xbce5a505	-0.028032789
70	0x3d5f3915	0.054497797
71	0x3d99f25f	0.07516932
72	0x3de8ae10	0.11361325
73	0x3e0b530e	0.13605902
74	0x3d3ca974	0.04606004
75	0xbd43a2f0	-0.04776281
76	0x3d01daed	0.031702925
77	0x3af0f8e0	0.0018384717
78	0xbdacbb75	-0.08434192
79	0xbda0ebd9	-0.07857484
80	0x3de44035	0.11145059
81	0x3d530a1f	0.051523324
82	0xbc34cf8e	-0.011035813
83	0x3c598fa4	0.0132788755
84	0x3e79d4e9	0.24397625
85	0x3d693dd8	0.056943744
86	0xbd75f672	-0.06004948
87	0xbd9d026e	-0.07666479
88	0x3d98ed6a	0.07467158
89	0xbdaad35e	-0.08341096
90	0x3d273ab2	0.04082746
91	0xbd05636a	-0.03256551
92	0x3de7194e	0.11284123
93	0x3d616a53	0.05503304
94	0xbd6ef885	-0.058342475
95	0xbc3c8463	-0.011506173
96	0xbcaad752	-0.020854626
97	0xbd9e09c5	-0.07716707
98	0xbde27c23	-0.110588335
99	0x3d1d97c9	0.03847483
100	0x3bbb3bd1	0.005713918
101	0x3cdb7770	0.02679035
102	0xbcdb8626	-0.026797365
103	0xbdabd830	-0.08390844
104	0x3dc3c484	0.09558967
105	0xbcc3fac5	-0.023923287
106	0x3dc92dad	0.09823165
107	0x3e2ab351	0.16669966
108	0xbca3f3f7	-0.020013792
109	0x3ddd623c	0.10809752
110	0xbe190b3d	-0.14945693
111	0x3debc79c	0.11512682
112	0x3db030db	0.086030684
113	0xbd23a4d5	-0.039952118
114	0x3d23cac7	0.039988305
115	0x3ca9bfc0	0.020721316
116	0xbd55d34c	-0.05220346
117	0xba838d9b	-0.0010036709
118	0x3bda8fd0	0.006669976
119	0x3d7e54dd	0.06209265
120	0xbb10344a	-0.0022003823
121	0x3dcd76cd	0.10032425
122	0xbe0c1629	-0.13680328
123	0xbc6a8ecf	-0.014316275
124	0x3daf77db	0.085677825
125	0xbdaf414e	-0.08557378
126	0x3d4b0c7b	0.04957245
127	0xbc5c419a	-0.013443375
128	0x3d551ad1	0.052027527
129	0x3d9dd111	0.07705892
130	0xbd9ae9d7	-0.07564133
131	0x3cb41efe	0.021987434
132	0x3d6e74ef	0.058216985
133	0x3de56692	0.11201204
134	0x3d47ea74	0.048807576
135	0xbce6be7e	-0.028167006
136	0xbd8109cd	-0.063006975
137	0x3d93dbfd	0.07219694
138	0xbda046fd	-0.0782604
139	0xbdebfd7b	-0.11522957
140	0x3d51f0aa	0.051254906
141	0x3da744fd	0.08167455
142	0x3dc72bdc	0.097251624
143	0x3c8026cf	0.015643505
144	0xbab835a2	-0.001405407
145	0xbd951f5c	-0.07281372
146	0xbd787b22	-0.060664304
147	0x3daa7ea9	0.0832494
148	0x3d4e28fd	0.05033206
149	0xbe09932f	-0.13435052
150	0x3cc3291d	0.023823315
151	0xbd98cbda	-0.074607566
152	0xbdcb8268	-0.099369824
153	0x3ce67232	0.028130624
154	0xbdb2d5d8	-0.08732194
155	0x3e1d3079	0.15350522
156	0xbb753072	-0.003741291
157	0xbc01ef61	-0.007930608
158	0xbc798e73	-0.015231716
159	0xbda4a627	-0.080395035
160	0xbdecdb9e	-0.11565326
161	0x3dc8f1a2	0.09811713
162	0x3df4c3ed	0.119514324
163	0xbc77c726	-0.015123164
164	0x3dea261f	0.11433052
165	0x3d8bbd0d	0.06823168
166	0x3d77855a	0.06042991
167	0xbc6d06c5	-0.014466946
168	0xbcdeecd0	-0.02721253
169	0xbdb1a352	-0.08673729
170	0x3da8ee76	0.08248608
171	0xbc932dc9	-0.017966168
172	0xbc4fca68	-0.012682535
173	0xbdad9f4a	-0.084776476
174	0xb9a1b984	-0.00030846533
175	0x3e08a42f	0.13343881
176	0x3cbcb887	0.023037208
177	0xbcf4ce10	-0.029883415
178	0x3cab03fe	0.020875927
179	0x3e2a07ee	0.16604587
180	0x3dc1d792	0.09464945
181	0x3cdd482f	0.027011959
182	0xbd1e7286	-0.038683437
183	0xbd902e9e	-0.070401415
184	0xbc8dfce0	-0.017332494
185	0x3ddeb399	0.10874099
186	0xbd245434	-0.040119365
187	0xbd356232	-0.0442831
188	0x3e48e1cd	0.19617386
189	0x3be726ca	0.0070541846
190	0x3deba8dc	0.11506817
191	0x3d541626	0.051778935
192	0xbbc1082e	-0.0058908677
193	0xba983af6	-0.0011614251
194	0x3d40a6c4	0.04703404
195	0x3ddf187d	0.10893343
196	0x3da532bb	0.08066317
197	0x3e3917d9	0.18075503
198	0xbd2cbeff	-0.042174336
199	0xbd919ff4	-0.07110587
200	0xbc36e52f	-0.01116304
201	0xb95998ca	-0.00020751651
202	0x3d3b75e1	0.045766715
203	0x3c0513a5	0.008122359
204	0x3e1d1b1c	0.15342373
205	0x3d4b04b6	0.04956504
206	0xbd2310db	-0.039810997
207	0x3d3dd5d8	0.046346515
208	0x3d767513	0.060170244
209	0x3debdf06	0.11517148
210	0x3da2c01a	0.07946797
211	0xbd121360	-0.03566301
212	0xbd7b9566	-0.061421774
213	0x3e2c4564	0.16823345
214	0x3e1cd2ac	0.1531474
215	0xbcd3f047	-0.02587141
216	0xbddc8a3a	-0.10768552
217	0x3e08656f	0.13319944
218	0x3cbf2c46	0.02333654
219	0x3e134d71	0.1438501
220	0x3e02e52f	0.12782739
221	0x3d3a52b9	0.045489047
222	0x3d30bc5c	0.043148383
223	0x3d0b8f3f	0.034072157
224	0x3c9a8d0a	0.01886608
225	0x3d81c0a1	0.06335569
226	0xbdba14a6	-0.090859696
227	0xbd908987	-0.07057481
228	0xbd8230d5	-0.0635697
229	0xbc07a0cd	-0.008278084
230	0x3cb2bb6a	0.021817882
231	0x3d49ae1e	0.049238317
232	0xbdeac46c	-0.11463246
233	0x3dfacd68	0.122462094
234	0x3c4a4f4a	0.012348006
235	0x3c0bd0fd	0.008533713
236	0xbd85880d	-0.0652009
237	0x3d77eace	0.06052666
238	0x3e3ada99	0.18247451
239	0x3dcbe34f	0.09955465
240	0x3b7c1f13	0.003847067
241	0xbcee61d4	-0.029099382
242	0x3cc0c9fa	0.02353381
243	0x3d555e88	0.052092105
244	0xbd84b992	-0.06480707
245	0x3cbec9d1	0.023289593
246	0xba7e54ad	-0.0009701949
247	0x3af04170	0.0018330049
248	0x3d6cccbb	0.057812434
249	0x3d70c51f	0.05878174
250	0x3dab537f	0.08365535
251	0xbd950a8b	-0.072774015
252	0xbd2d36f5	-0.04228874
253	0xbd68bfeb	-0.056823652
254	0xb9800815	-0.00024420084
255	0xbd2a2274	-0.041536763

l2.bias f4 [256]
0	0xbcca3b70	-0.024686545
1	0xbbf26714	-0.007397542
2	0xbcf72762	-0.030170146
3	0xbd129ab8	-0.035792083
4	0x3d476d59	0.048688266
5	0x3d75c457	0.060001697
6	0x3d2ff278	0.042955846
7	0xbd1f06a5	-0.038824696
8	0x3d0e7677	0.034780946
9	0x3be8cf7d	0.0071048127
10	0xbd99a551	-0.07502235
11	0xbd83af57	-0.06429928
12	0xbcd72470	-0.026262492
13	0x3cd08394	0.025453366
14	0x3d2f452a	0.04279057
15	0x3b6ee985	0.0036455106
16	0xbcd74755	-0.026279131
17	0xbc518a0c	-0.012789261
18	0xbd4a174a	-0.049338616
19	0xbccffe21	-0.025389733
20	0xbde3fbc6	-0.11132006
21	0xbdb3aac9	-0.08772809
22	0x3c8de968	0.01732321
23	0xbd798eec	-0.060927317
24	0x3d249950	0.040185273
25	0xbd2d871f	-0.04236519
26	0x3d70924f	0.05873328
27	0xbd23d93c	-0.040002093
28	0x3d330002	0.04370118
29	0xbbd68a72	-0.0065472657
30	0xbc592d89	-0.013255485
31	0xbad0ab22	-0.0015920142
32	0xbd7f7ad2	-0.06237299
33	0x3d3be629	0.045873795
34	0xbdbc0f73	-0.09182634
35	0x3d244f42	0.04011465
36	0x3d7d1359	0.06178603
37	0xbdc2ba4b	-0.09508189
38	0x3bdf93c5	0.0068230354
39	0xbc22dac9	-0.009939858
40	0xbaeaae31	-0.0017904696
41	0xbda8e092	-0.082459584
42	0xbde522b2	-0.11188258
43	0xbdec8b5d	-0.11550019
44	0xbdcb8a78	-0.0993852
45	0xbd634b07	-0.055491474
46	0xbdd7a9c6	-0.105304286
47	0x3c1ebe4f	0.009688928
48	0x3d4f5c5a	0.050625183
49	0xbda5ab42	-0.080893055
50	0xbb421f7d	-0.002962082
51	0xbd67b095	-0.056564886
52	0xbdbfbdcd	-0.093623735
53	0xbde82563	-0.11335256
54	0x3d9c03b6	0.07617895
55	0x3cf37e68	0.029723361
56	0xbdeda3f8	-0.1160354
57	0xbdd1a2c3	-0.102361225
58	0x3d2c2a4c	0.042032525
59	0x3cb28eb8	0.02179657
60	0xbdceb367	-0.10092812
61	0x3c77fd1f	0.015136032
62	0xbd613abc	-0.054987654
63	0xbdaca641	-0.08430148
64	0x3d84c263	0.06482389
65	0xbba9d8b3	-0.0051833033
66	0xbc830449	-0.015993254
67	0xbd347827	-0.0440599
68	0xbd4b18e2	-0.049584277
69	0xbb77d6b1	-0.0037817175
70	0xbd855c09	-0.06511695
71	0x3cdca2a4	0.026933022
72	0xbd8be910	-0.068315625
73	0xbde3ca54	-0.111225754
74	0xbdc92ec3	-0.09823372
75	0xbd3f4b8f	-0.046702918
76	0xbdb0e69f	-0.086377375
77	0x3d01f1d5	0.03172477
78	0xbcf7d39f	-0.030252276
79	0xbd16ca4b	-0.036814015
80	0xbb50bda3	-0.0031851314
81	0x3c05f781	0.008176685
82	0xbd648edc	-0.055800304
83	0x3cb7c87b	0.022434464
84	0xbdabf0d0	-0.08395541
85	0x39ee8281	0.0004549213
86	0xbdf4c8ec	-0.11952385
87	0xbce1df25	-0.027572224
88	0x3e15f075	0.14642508
89	0xbdc93a8a	-0.098256186
90	0x3cd40b44	0.025884278
91	0x3d5ebf81	0.05438185
92	0xbceff3b4	-0.029291011
93	0x3ddb6b4d	0.107138254
94	0x3dc0f357	0.094214134
95	0xbd2112e2	-0.03932465
96	0xbd6ad443	-0.057331335
97	0xbca71387	-0.020395054
98	0x3d066320	0.032809377
99	0x3d7d02fa	0.061770417
100	0xbcc423e8	-0.023942903
101	0xbc6d27ac	-0.014474791
102	0x3d47476b	0.048652094
103	0xbbb99e22	-0.005664603
104	0xbd53e3e5	-0.05173101
105	0xba9d20c0	-0.001198791
106	0x3d8238e2	0.06358506
107	0xbd6ff951	-0.058587376
108	0xbd603139	-0.054734442
109	0xbd87abdc	-0.066245764
110	0x3d3fff27	0.04687419
111	0xbc736e1e	-0.014857797
112	0x3ba6abf2	0.0050864154
113	0x3b17c3bb	0.0023157436
114	0xbdd9c31d	-0.10632918
115	0xbdabab68	-0.083823025
116	0x3d56cc23	0.052440774
117	0x3d158d61	0.036511783
118	0xbb47f211	-0.0030509273
119	0x3d875a1a	0.066089824
120	0xbd989834	-0.074509054
121	0xbd291394	-0.041278437
122	0x3dc3c2f1	0.095586665
123	0xbd672d51	-0.0564397
124	0xbcfa9286	-0.030587446
125	0xbdf2e213	-0.118595265
126	0xbc9f696b	-0.019459447
127	0xbd272bad	-0.040813137
128	0xbd7d339f	-0.061816808
129	0xbd511b76	-0.05105158
130	0xbcbde818	-0.02318196
131	0xbdc09ab0	-0.09404504
132	0xbcaaf4fb	-0.020868769
133	0xbd11a24a	-0.03555516
134	0xbc983249	-0.018578665
135	0x3a6e4088	0.00090885954
136	0xbdcaa740	-0.09895182
137	0x3ced6f47	0.028983725
138	0xbc7fd6ad	-0.015615148
139	0xbd4784cf	-0.04871064
140	0xbbd7055d	-0.0065619186
141	0x3d444e58	0.047926277
142	0xbd272b8a	-0.040813006
143	0xbc414dc4	-0.011798326
144	0xbdb17f81	-0.086668976
145	0x3caedb6f	0.021344868
146	0x3d6b745b	0.057484012
147	0x3cfdb5a9	0.030970411
148	0xbdb38e23	-0.08767345
149	0x3cfa273b	0.030536285
150	0x3d04a88d	0.032387305
151	0xbdc28e57	-0.094998054
152	0x3d9e71cf	0.07736551
153	0xbd8b4ab8	-0.06801361
154	0xbcd48f72	-0.025947306
155	0x3d5d3dc7	0.054013994
156	0xbd393613	-0.045217585
157	0x3d9f6a6b	0.077839695
158	0x3cd9b693	0.026576316
159	0xbb97f973	-0.004637891
160	0x3d6e87e6	0.05823507
161	0xbdf5d900	-0.1200428
162	0xbbcbcfc3	-0.0062198355
163	0x3d45a845	0.048256177
164	0xbdab1e29	-0.08355362
165	0xbdbbbdfc	-0.09167096
166	0x3a838885	0.0010035193
167	0xbd4597b1	-0.048240367
168	0xbc9c99d9	-0.019116329
169	0xbdec02c8	-0.11523968
170	0x3d7f0b37	0.062266555
171	0x3d69f946	0.05712249
172	0xbb7f191d	-0.003892488
173	0xbd1e1216	-0.038591467
174	0x3cfe41ca	0.03103723
175	0x3db193e6	0.086707875
176	0x3d928179	0.07153601
177	0x3cc09bae	0.023511734
178	0x3a065d15	0.00051255646
179	0x3d5fa2c4	0.054598585
180	0x3db49276	0.08816998
181	0xbcc13695	-0.023585597
182	0xbdda6616	-0.106640026
183	0xbda235a6	-0.07920389
184	0x3db60700	0.08888054
185	0x3cce03eb	0.025148353
186	0x3d8cff9e	0.068846926
187	0xbd8b26dc	-0.06794521
188	0x3d2e1786	0.042502902
189	0x3c71f3cd	0.014767599
190	0x3dce4126	0.1007102
191	0xbce8381a	-0.028347064
192	0xbdd4ad4b	-0.103846155
193	0xbb96476d	-0.0045861513
194	0x3d78e920	0.0607692
195	0xbcf32fc0	-0.029685855
196	0xbc6a90c7	-0.014316744
197	0x3c9e954f	0.019358305
198	0xbc9ed1ea	-0.019387204
199	0xbde732a4	-0.11288956
200	0xbd623152	-0.055222817
201	0xbd47e866	-0.048805617
202	0xbde6c20e	-0.11267482
203	0x3c084414	0.008317012
204	0xbd66d034	-0.0563509
205	0x3d826cea	0.0636843
206	0x3d0039d5	0.031305153
207	0xbd55c351	-0.05218822
208	0xbd8e604e	-0.069519624
209	0xbb6c9c11	-0.0036103765
210	0xbd0cc33e	-0.034365885
211	0xbdb957b4	-0.09049931
212	0x3d9a1b1f	0.07524704
213	0xbc270e5c	-0.010196295
214	0xbdf9a8d9	-0.12190408
215	0xbdc53a7f	-0.09630298
216	0xbc744f3f	-0.014911472
217	0x3d983a9d	0.074330546
218	0xbd00c12e	-0.03143423
219	0x3d1491fd	0.036272038
220	0xbd0a4929	-0.033761177
221	0x3d09fbbf	0.03368735
222	0x3c8c177c	0.017101042
223	0xbcda53cb	-0.026651284
224	0x3d53c9fd	0.051706303
225	0x3d477f0d	0.04870515
226	0x3d5723d8	0.052524418
227	0xbdde81ef	-0.108646266
228	0xbd9862cd	-0.0744072
229	0xbd283efb	-0.041075688
230	0xbd8d54ad	-0.06900916
231	0xbd03434a	-0.032046594
232	0x3d4efbfb	0.050533276
233	0xbd1ccd4a	-0.038281716
234	0x3d888516	0.06666009
235	0xbdb6a828	-0.08918792
236	0xbc01a9ad	-0.007913989
237	0x3d88a4a9	0.066720314
238	0x3d46c869	0.04853097
239	0xbdc03bde	-0.09386419
240	0xbd1c774d	-0.03819971
241	0xbd47c88d	-0.048775245
242	0x3d210711	0.03931338
243	0x3d5eba11	0.054376666
244	0xbcd88e14	-0.026434936
245	0x3c47d5b7	0.01219695
246	0xbd4e94d7	-0.050434913
247	0x3baa2e88	0.0051935352
248	0xbd34ad37	-0.044110503
249	0xbd7a47de	-0.061103694
250	0x3d2269de	0.039651744
251	0x3c026fdb	0.007961239
252	0x3cde999f	0.027172862
253	0x3d1edffa	0.03878782
254	0xbd871323	-0.06595447
255	0xbdbbe505	-0.091745414

l3.weight f4 [3, 256]
0	0xbc73bba6	-0.014876282
1	0xbda7f96c	-0.0820187
2	0xbd23a5a7	-0.0399529
3	0xbd667e9a	-0.05627308
4	0xbd5562af	-0.052096065
5	0xbe109be6	-0.1412197
6	0xbe047e4f	-0.12938808
7	0xbdba9a39	-0.09111447
8	0xbd271026	-0.040786885
9	0xbd37f761	-0.044913653
10	0x3d27c9a7	0.040963795
11	0xbc2dddda	-0.010611976
12	0xb99ad742	-0.00029533549
13	0xbe299a64	-0.16562802
14	0xbb3458cc	-0.0027518747
15	0x3e1aa1cd	0.15100785
16	0xbbcd8e4d	-0.006273067
17	0xbd80259f	-0.06257176
18	0xbb8decd4	-0.0043312106
19	0x3d403f77	0.046935525
20	0xbd4df147	-0.050278928
21	0x3ccbb702	0.024867538
22	0xbd9e635d	-0.07733796
23	0xbdd3a2d1	-0.10333789
24	0x3e067352	0.13129929
25	0xbc37825a	-0.011200512
26	0xbe0c9716	-0.1372951
27	0xbd1f71f5	-0.038927037
28	0xbd0278ae	-0.03185337
29	0x3da1bfe6	0.0789793
30	0x3dd8bfe2	0.10583474
31	0xbdb14540	-0.086557865
32	0xbcbe7f7d	-0.02325415
33	0xbe210b85	-0.1572705
34	0x3cd78a61	0.026311101
35	0xbe26a15d	-0.16272493
36	0xbd9a3232	-0.07529105
37	0xbd8f92d3	-0.07010426
38	0xbdfc672e	-0.123243675
39	0xbc625579	-0.013814324
40	0xbd72f887	-0.059319045
41	0xbd85bcf3	-0.0653018
42	0x3b2ebc4a	0.0026662522
43	0xbd0dc865	-0.03461494
44	0xbdc2bfd2	-0.09509243
45	0xbd62d54b	-0.055379193
46	0x3c7ef1ab	0.015560548
47	0xbd899aee	-0.067190036
48	0xbe1e459d	-0.15456243
49	0x3d3dd361	0.046344165
50	0xbdc2f80f	-0.0951997
51	0xbb11260c	-0.0022147922
52	0x3bcb7b13	0.00620974
53	0x3c8b723a	0.01702224
54	0xbd989053	-0.07449403
55	0xbdd229a7	-0.10261851
56	0x3bc8c787	0.006127301
57	0x3d3bd63c	0.045858607
58	0xbe028977	-0.12747751
59	0xbdfb09df	-0.12257742
60	0xbd6a3424	-0.05717863
61	0xbdd7af7e	-0.10531519
62	0xbd33ed29	-0.043927345
63	0xbe8c06b7	-0.27348873
64	0xbd99a16e	-0.075014934
65	0xbd3955b3	-0.045247745
66	0x3b653824	0.003497609
67	0xbdbdbd38	-0.09264606
68	0x3b4302df	0.002975635
69	0xbb93baef	-0.004508368
70	0x3cc4be36	0.02401648
71	0xbd2f7056	-0.04283174
72	0xbc6fda37	-0.014639429
73	0xbd0402e3	-0.032229315
74	0xbd7ea8cc	-0.062172696
75	0xbc739ff3	-0.014869678
76	0xbd2cfd69	-0.04223386
77	0xbdb52e05	-0.08846668
78	0xbcda9ba8	-0.02668555
79	0xbc3f7b67	-0.011687136
80	0xbd38a128	-0.045075566
81	0xbd757e50	-0.059934914
82	0xbd46a33b	-0.048495512
83	0xbddbd384	-0.10733703
84	0x3d12bbe2	0.03582371
85	0xbd260bfa	-0.040538765
86	0x3a587551	0.00082572276
87	0xbd928782	-0.07154752
88	0x3ebe9bcb	0.37228236
89	0x3cbfac33	0.02339754
90	0xbdff54e5	-0.12467364
91	0x3c76459a	0.015031243
92	0xbbaf6a5f	-0.0053532566
93	0xbde8b2c3	-0.11362221
94	0xbdc844c6	-0.097787425
95	0xbd5c2112	-0.053742476
96	0x3c09b968	0.008406021
97	0xbcd907f9	-0.02649306
98	0xbcfd9909	-0.030956762
99	0xbe086d75	-0.13323005
100	0x3e10d710	0.1414454
101	0xbb4c041b	-0.0031130377
102	0xbcee5045	-0.02909101
103	0x3dc9ad5f	0.09847521
104	0xbc04016d	-0.008056981
105	0xbd3c1c7a	-0.045925595
106	0x3d7c0e69	0.06153718
107	0x3ca43006	0.02004243
108	0x3c684478	0.0141764805
109	0xbd4686ee	-0.048468523
110	0xbdb6c475	-0.0892419
111	0x3aec941a	0.0018049509
112	0x3e1f36fe	0.15548322
113	0x3e22b0df	0.15887783
114	0xbd4606c5	-0.0483463
115	0xbc883eeb	-0.016631564
116	0xbba1d8bd	-0.0049391673
117	0x3d67ed7b	0.056622963
118	0xbdd2c8c8	-0.10292202
119	0xbda99858	-0.082810104
120	0xbcd0957b	-0.025461903
121	0xbd1ce306	-0.038302444
122	0x3da880ec	0.08227715
123	0xbd51aa77	-0.05118796
124	0xbd58bbee	-0.0529136
125	0xbbe4600f	-0.006969459
126	0xbdbd25aa	-0.092356995
127	0xbdc7d1c9	-0.0975681
128	0xbd9d031b	-0.07666608
129	0x3cc15ac8	0.023602858
130	0xbdc8561b	-0.09782048
131	0xbcb14768	-0.021640494
132	0xbc8f4025	-0.017486641
133	0xbd109e45	-0.035307188
134	0xbce46b01	-0.027883055
135	0xbdb64978	-0.08900732
136	0x3bc43a79	0.005988416
137	0xbcb23942	-0.021755818
138	0xbddc9eb9	-0.107724614
139	0xbd8b6454	-0.068062454
140	0xbb4b39ce	-0.0031009796
141	0xbdbd878e	-0.09254371
142	0xbce04682	-0.02737737
143	0xbdaf7998	-0.08568114
144	0xbdb6e29a	-0.089299396
145	0xbd758cc2	-0.05994869
146	0xbe160d1a	-0.14653435
147	0xbd19b17f	-0.03752279
148	0x3ab47fb7	0.0013770972
149	0x3d353139	0.044236396
150	0xbd626e5c	-0.05528103
151	0xbc9dfba4	-0.01928503
152	0xbd05e67e	-0.032690518
153	0xbda29adb	-0.079396926
154	0x3b170572	0.0023044017
155	0x3d09004e	0.033447556
156	0xbcb72541	-0.022356631
157	0xbd90ab98	-0.07063979
158	0x3d033ecb	0.032042306
159	0xbde0f0e0	-0.10983443
160	0xbd06f510	-0.032948554
161	0xbdbe6456	-0.09296481
162	0xbd745607	-0.059652355
163	0xba62657c	-0.0008636338
164	0xbd8c1250	-0.0683943
165	0x3d5a8977	0.053353753
166	0x3dca18da	0.09868021
167	0xbbc52482	-0.006016315
168	0xbd08baad	-0.033381153
169	0x3b1c234b	0.0023824747
170	0xbd506ab6	-0.050883017
171	0xbdf483aa	-0.119391754
172	0xbe512822	-0.20425466
173	0xbca2c57a	-0.019869555
174	0xbdf62722	-0.12019183
175	0x3d39e634	0.045385554
176	0xbdbae9ec	-0.09126648
177	0xbe02f05d	-0.12787004
178	0xbdc303eb	-0.09522232
179	0xbd107239	-0.03526518
180	0x3da7c4f5	0.081918634
181	0x3d0f9eba	0.035063483
182	0xbc8fbc56	-0.01754586
183	0x3cde3697	0.02712564
184	0xbdfca81a	-0.1233675
185	0xbcb4a9da	-0.022053648
186	0x3d8c5007	0.068512015
187	0xbc343b06	-0.0110004
188	0xbd95a1d4	-0.07306257
189	0xbd8a4483	-0.06751349
190	0xbdc3c531	-0.09559096
191	0xbd1bd2a9	-0.038042698
192	0xbd80e8a7	-0.06294375
193	0xbcb52453	-0.022112047
194	0xbd8a1df3	-0.067439936
195	0xbdcbb4e7	-0.09946614
196	0xbdd5fae5	-0.10448245
197	0xbcfb1494	-0.03064946
198	0xbd84cad1	-0.06483997
199	0xbd55e175	-0.052216966
200	0xbc16017d	-0.009155628
201	0xbd11faeb	-0.035639685
202	0x3d67467b	0.0564637
203	0xbdbfff93	-0.09374919
204	0xbd6424a1	-0.055698995
205	0xbd80eede	-0.0629556
206	0xbd30030e	-0.042971663
207	0xbbbf5126	-0.005838531
208	0xbc8c834f	-0.017152457
209	0xbd14ab1d	-0.036296
210	0xbd64078f	-0.05567127
211	0xbac4b173	-0.0015006497
212	0xbccdba99	-0.02511339
213	0x3a88cf59	0.0010437771
214	0xbc362ee6	-0.01111958
215	0xbd76fbb2	-0.06029863
216	0xbde65e88	-0.11248499
217	0xbdbbed5e	-0.091761336
218	0x3d1854e5	0.037190337
219	0xbd1e2919	-0.038613413
220	0xbdba26bf	-0.090894215
221	0xbd8de7e2	-0.06928994
222	0x3d644020	0.055725217
223	0xbd5a6de6	-0.053327464
224	0xbdc6bb79	-0.09703726
225	0x3d77cfa5	0.06050076
226	0xbdb9e5ab	-0.09077009
227	0xbdc96999	-0.09834594
228	0xbd717f4e	-0.058959298
229	0xbd27597c	-0.040856823
230	0x3cb04ace	0.021520045
231	0x3b5524ca	0.0032523149
232	0x3d451125	0.048112053
233	0x3cccae68	0.024985507
234	0xbdd4ff38	-0.104002416
235	0xbdba92c5	-0.09110025
236	0xbd954e44	-0.072903186
237	0xbd11eb9e	-0.035625093
238	0xbd05f4fc	-0.03270434
239	0xbd04c221	-0.0324117
240	0xbc683129	-0.014171877
241	0xbc2131e4	-0.009838555
242	0xbdb97b9e	-0.09056781
243	0xbdabd467	-0.08390122
244	0xbd3ef738	-0.046622485
245	0xbb65b6d1	-0.0035051594
246	0xbddb1014	-0.10696426
247	0xbc86b2c1	-0.016442658
248	0xbd0c4efe	-0.03425502
249	0x3b19c42a	0.002346287
250	0xbda435af	-0.08018052
251	0xbc2291a0	-0.009922415
252	0x3db3953c	0.087686986
253	0xbe50be3d	-0.2038507
254	0xbd835e42	-0.064144626
255	0xbde0bb3b	-0.109732114

l3.bias f4 [3]
0	0x3d3ff3f5	0.046863515
1	0x3c9a08d3	0.018803036
2	0xbd9ba682	-0.07600118
