gespeicherte_Klassen/models/09.09.2022.16.06.41/3SAVE.pt (torch, 372631 bytes, 6 tensors)

l1.weight f4 [256, 83]
-0.08932112 -0.12509686 -0.106628135 -0.059370235 0.038071826 -0.18743135 0.034280628 -0.006952919
-0.1226588 0.015990838 -0.10102022 -0.059553448 -0.030716263 0.0025396124 -0.0972447 -0.045176223
0.050085034 -0.101122156 0.05351281 -0.13502021 -0.06188712 0.0022048354 -0.008965969 -0.026521683
-0.00023827702 -0.009305494 -0.043108463 -0.080029815 -0.0062358547 0.10951422 -0.010379538 0.08468206
-0.06943548 0.10528756 -0.121058926 0.048485033 -0.03963379 -0.0051160688 -0.043840975 0.042010278
0.19549282 0.10189237 0.0907759 0.05706641 0.07785717 -0.038665257 -0.03286428 -0.037649937
-0.10143828 0.024309441 0.10719311 -0.052180253 0.0622759 0.0023349002 -0.07931054 -0.1064781
-0.099949054 0.075800374 0.05692099 -0.0063171014 0.062517345 0.1068978 -0.0022560358 0.03036623
0.03327887 -0.052052964 -0.088058 0.012014853 -0.014068931 -0.051639635 -0.069215655 0.01729761
-0.03446713 0.051658373 -0.088710226 0.018445779 -0.060703594 -0.0048994333 0.023840873 -0.08507488
-0.12246334 -0.059733417 -0.006617844 -0.033247486 0.11699523 0.052765295 -0.05631556 -0.06353048
-0.07816686 -0.008795291 -0.16309755 0.15629466 0.037130773 0.1959253 -0.09677943 0.00485079
-0.10300024 0.05464704 -0.07858829 -0.13316631 -0.093870096 0.047807656 -0.14378253 -0.04673166
0.0009986013 -0.045632653 0.043387175 0.054885656 -0.08016553 -0.020126954 -0.022799388 0.12430941
0.03550534 -0.046292387 -0.021822244 0.018444851 0.02229607 0.020044692 0.04236728 -0.035385333
0.122242875 0.03612715 0.040639333 0.041261323 0.043314427 0.049033143 0.09401744 0.08206963
0.0047817407 0.057252195 -0.029053649 0.18284334 0.08018293 0.07335415 0.014066504 0.076820664
-0.04218138 -0.013194383 -0.043182485 -0.012614949 0.10743194 0.014888898 0.15375327 0.13308509
0.025393432 0.0113462135 -0.06629179 -0.036693867 -0.11184472 0.025050016 -0.15862288 0.081425756
0.07900776 -0.09722819 0.07701108 0.019824767 -0.005947016 0.011744328 -0.059624486 0.0641962
-0.070298225 -0.10001321 0.07746433 -0.0966186 0.07362738 -0.023214638 -0.04724983 0.04158002
-0.06783228 0.10660381 0.1355987 -0.008331772 0.052659273 -0.15694864 0.02825013 0.024632988
0.06950153 -0.15529142 -0.104021244 0.056616865 -0.041104253 -0.14605723 -0.033005696 0.04437196
0.02565028 0.007849679 -0.01420608 0.15668245 -0.050357208 0.022289239 0.14985192 0.039590728
0.33544242 0.17442794 0.14398754 0.2096747 0.116313085 0.12920675 -0.028193142 0.114431135
0.015261121 0.112875655 0.0494888 0.08059628 0.14374582 0.10777663 0.041501235 0.09941898
0.098942444 -0.007510868 0.1632441 0.056161903 0.13730757 0.1479868 0.07074686 0.1200817
0.013307929 0.17906675 0.09517287 0.13614713 0.08298248 0.15683292 0.13506436 0.14190526
0.040646873 0.019312566 -0.04082818 0.12786761 0.06323762 -0.042683206 -0.060528398 -0.0760762
-0.07646188 -0.106483296 -0.064979956 0.09990464 -0.09154304 0.039683692 -0.07723451 0.10972515
0.026614591 -0.0533988 -0.010825209 -0.10956976 -0.10347797 -0.049564693 -0.08389431 0.01547724
0.03243573 -0.020240366 0.08914082 0.17022918 0.09165978 -0.07647257 -0.008618133 0.03879304
00000000: feed b6bd 6419 00be da5f dabd 342e 73bd
00000010: 34f1 1b3d 01ee 3fbe d869 0c3d 50d5 e3bb
00000020: 8934 fbbd 38ff 823c b0e3 cebd 51ee 73bd
00000030: aca0 fbbc a06f 263b 3b28 c7bd b40a 39bd
00000040: f725 4d3d 2219 cfbd 4030 5b3d bd42 0abe
00000050: 597d 7dbd 007f 103b 00e6 12bc 0044 d9bc
00000060: 00da 79b9 1276 18bc 8092 30bd ace6 a3bd
00000070: 2456 ccbb fe48 e03d f00e 2abc ca6d ad3d
00000080: 3034 8ebd 01a1 d73d beed f7bd 3e98 463d
00000090: 0a57 22bd b2a4 a7bb 9892 33bd f812 2c3d
000000a0: 452f 483e f2ac d03d b7e8 b93d 78be 693d
000000b0: 9473 9f3d 765f 1ebd b29c 06bd d236 1abd
000000c0: dfbe cfbd 9824 c73c 1088 db3d f6ba 55bd
000000d0: 0415 7f3d 2005 193b 906d a2bd 3111 dabd
000000e0: 17b2 ccbd 3a3d 9b3d fc25 693d b0ff cebb
000000f0: 1809 803d 3ced da3d 00da 13bb 9ac2 f83c
00000100: 6d4f 083d 7d35 55bd c157 b4bd f2d9 443c
00000110: 6081 66bc 1584 53bd f0c0 8dbd b8b3 8d3c
00000120: 682d 0dbd bb97 533d b5ad b5bd 9a1b 973c
00000130: 55a4 78bd 6d8b a0bb ef4d c33c bd3b aebd
00000140: 0fce fabd 07ab 74bd 80da d8bb 842e 08bd
00000150: 329b ef3d 6c20 583d 25ab 66bd 451c 82bd
00000160: f215 a0bd 201a 10bc 0b03 27be b50b 203e
00000170: 7016 183d a4a0 483e 4b34 c6bd 60f3 9e3b
00000180: caf1 d2bd 93d5 5f3d e6f2 a0bd c05c 08be
00000190: f73e c0bd f6d1 433d ba3b 13be b269 3fbd
000001a0: 80e3 823a 4ee9 3abd c0b6 313d c8cf 603d
000001b0: d32d a4bd 48e1 a4bc c8c5 babc ef95 fe3d
000001c0: 0c6e 113d 169d 3dbd 90c4 b2bc a819 973c
000001d0: 3fa6 b63c c434 a43c 5089 2d3d 36f0 10bd
000001e0: 795a fa3d 10fa 133d 6e75 263d a201 293d
000001f0: 786a 313d fad6 483d 378c c03d 1f14 a83d
00000200: 26b0 9c3b 4781 6a3d eb01 eebc 493b 3b3e
00000210: f336 a43d b33a 963d 3277 663c 2754 9d3d
00000220: 62c6 2cbd 412d 58bc 1ee0 30bd eeae 4ebc
00000230: 4705 dc3d 90f0 733c 7f71 1d3e 7547 083e
00000240: e305 d03c 78e5 393c fdc3 87bd 4f4c 16bd
00000250: d80e e5bd b135 cd3c 096e 22be 8cc2 a63d
00000260: d2ce a13d 931f c7bd fcb7 9d3d 8d67 a23c
00000270: 30df c2bb 486b 403c ce38 74bd 4c79 833d
00000280: 84f8 8fbd bad3 ccbd 9ea5 9e3d f9df c5bd
00000290: f4c9 963d a02c bebc 0a89 41bd d04f 2a3d
000002a0: a7eb 8abd 1953 da3d 63da 0a3e fc81 08bc
000002b0: 40b1 573d 25b7 20be d16c e73c 1fcb c93c
000002c0: d156 8e3d b704 1fbe 1709 d5bd 16e7 673d
000002d0: ef5c 28bd 0790 15be fb30 07bd 5fbf 353d
000002e0: 8920 d23c f19b 003c 9ec0 68bc 5d71 203e
000002f0: 5c43 4ebd ec97 b63c c872 193e e329 223d
00000300: 1cbf ab3e 3d9d 323e 7871 133e f7b4 563e
00000310: 8e35 ee3d c64e 043e 4ef5 e6bc df5a ea3d
00000320: c809 7a3c 5a2b e73d c5b4 4a3d aa0f a53d
00000330: 1b32 133e feb9 dc3d 33fd 293d 2e9c cb3d
00000340: 56a2 ca3d ba1d f6bb 7629 273e 060a 663d
00000350: 5b9a 0c3e da89 173e bbe3 903d 65ed f53d
00000360: 8009 5a3c 465d 373e fee9 c23d 276a 0b3e
00000370: b8f2 a93d cf98 203e 504e 0a3e 9d4f 113e
00000380: 567d 263d 6335 9e3c 733b 27bd baef 023e
00000390: ba82 813d 96d4 2ebd a0ec 77bd d7cd 9bbd
000003a0: 0c98 9cbd ea13 dabd 3614 85bd ce9a cc3d
000003b0: eb7a bbbd 5e8b 223d 202d 9ebd 94b7 e03d
000003c0: d806 da3c b3b8 5abd 385c 31bc 1c66 e0bd
000003d0: 42ec d3bd 5904 4bbd c8d0 abbd 4094 7d3c
000003e0: 54db 043d 20cf a5bc 768f b63d 8f50 2e3e
000003f0: 1fb8 bb3d a79d 9cbd 1233 0dbc 73e5 1e3d

l1.bias f4 [256]
-0.13604866 0.049532868 0.07282712 0.004246127 0.09574198 -0.027611248 0.08193815 0.03479197
-0.11781791 0.081725344 -0.018752754 -0.065737695 0.08742614 0.090770975 -0.06299995 0.020648994
0.24479753 0.10331934 -0.16750948 0.041659694 -0.15040587 -0.058523178 -0.028892677 0.07194408
0.1908381 -0.032041002 0.14024955 -0.07244182 -0.039940055 -0.031173943 0.08496804 0.040559355
-0.12919205 -0.07308044 0.031342447 0.06005262 -0.05917089 -0.0882946 -0.042094614 -0.15607557
-0.06118772 0.09685926 -0.015939908 -0.1700179 -0.056390945 0.03491573 -0.058212247 0.018532617
-0.15845606 -0.08061926 0.059106175 -0.06306304 -0.042860214 -0.14605878 0.024488898 0.1610657
-0.13398394 -0.121630765 -0.11665597 -0.08174796 -0.13433945 -0.04906045 -0.031341 -0.122024685
0.0028340684 -0.14230539 0.16286127 0.03659799 0.044988718 -0.11134271 0.08174693 0.01721876
-0.15816446 0.10793436 0.06139547 0.1349459 -0.038906343 0.008560898 -0.115145154 0.07785372
0.09518918 -0.18255027 0.07602905 -0.06890989 0.111888245 -0.09705327 -0.054663584 0.023658363
0.04994511 -0.049638107 -0.07252117 -0.08312696 -0.06236883 0.007694571 0.045939732 0.01421882
-0.05083428 0.09137662 0.1055965 -0.020167243 0.092594825 0.033609983 -0.007046914 0.09769187
0.013124896 -0.10719273 0.01232245 0.1210568 0.024871547 -0.11390334 0.14493576 -0.01765601
0.020982826 -0.05332665 -0.054859497 -0.16814412 -0.02724864 0.069727615 -0.12606503 0.02041434
-0.055750955 -0.05301784 0.100959554 0.064149365 -0.10787846 0.0418846 -0.039943703 -0.02355359
0.047138847 -0.028507588 0.06486191 -0.0715278 0.14855511 -0.1566908 -0.067291856 -0.075961664
0.1270766 -0.049040087 -0.098496415 0.03050846 0.087548085 -0.15677932 -0.037895944 -0.06978198
0.06803534 -0.16062692 0.05221711 0.042372216 0.02272435 -0.068155296 -0.06340788 -0.15123023
0.13427024 -0.017139288 -0.04552838 0.04910631 -0.08724666 0.0018885264 0.123282686 0.11038135
0.0018163124 -0.070412286 0.0072616893 0.12741521 -0.02718102 0.17661351 0.026079565 0.048546214
-0.068094656 -0.029305032 0.0738254 -0.1809136 -0.18057105 -0.09716455 -0.044899244 0.055257052
-0.022401677 -0.1073481 -0.10536895 0.020439645 -0.06699459 -0.06041505 -0.11716248 -0.16923247
-0.08777469 -0.08749129 0.15537018 0.035027627 0.18033713 -0.029021693 -0.00027768186 -0.013712701
-0.019941047 -0.09855247 -0.100963205 -0.08003527 0.0037268142 -0.001549394 -0.03513658 -0.035772804
-0.044188865 0.032172833 0.018479845 -0.021526707 0.034890164 -0.073555216 -0.08248108 -0.029293735
0.032247573 0.0738153 -0.1387361 -0.045527454 0.07202714 0.12789352 0.01671147 0.036004625
0.11191796 -0.10068922 -0.028666325 0.06823262 0.055971716 -0.08181973 0.00012716463 0.022697391
0.0060155336 0.06897966 -0.09374495 0.036962956 0.10130801 -0.009029138 -0.07275536 -0.03824671
0.011834291 -0.028599989 0.004066486 -0.04509494 0.1011425 -0.02429746 0.022889262 -0.002390733
0.10528896 -0.1322672 -0.13170844 0.07116616 -0.14868991 -0.012297311 -0.045897346 -0.065745935
-0.1443308 -0.016899614 0.055979203 0.016610183 -0.09482528 -0.11273261 0.15155979 -0.018114243
00000000: 5750 0bbe fae2 4a3d 6326 953d 1823 8b3b
00000010: 5f14 c43d fc30 e2bc 30cf a73d 0682 0e3d
00000020: 844a f1bd 9e5f a73d 609f 99bc 7ca1 86bd
00000030: 7a0c b33d 22e6 b93d 1e06 81bd 1428 a93c
00000040: 34ac 7a3e 1799 d33d 9b87 2bbe 5ba3 2a3d
00000050: ff03 1abe 00b6 6fbd 56b0 ecbc 6b57 933d
00000060: 106b 433e 6d3d 03bd 949d 0f3e 605c 94bd
00000070: 2f98 23bd 7f60 ffbc b903 ae3d 9121 263d
00000080: ec4a 04be 33ab 95bd f060 003d bcf9 753d
00000090: 2d5d 72bd cdd3 b4bd 676b 2cbd 46d2 1fbe
000000a0: fa9f 7abd 265e c63d 6994 82bc 2c19 2ebe
000000b0: 31fa 66bd cc03 0f3d f76f 6ebd b7d1 973c
000000c0: 4e42 22be b61b a5bd 5119 723d 3227 81bd
000000d0: 318e 2fbd 6f90 15be f19c c83c 68ee 243e
000000e0: 1633 09be 8d19 f9bd 53e9 eebd 796b a7bd
000000f0: 4890 09be 9cf3 48bd 6c5f 00bd 14e8 f9bd
00000100: c7bb 393b 81b8 11be 1bc5 263e c6e7 153d
00000110: 1746 383d a607 e4bd ef6a a73d 5b0e 8d3c
00000120: ddf5 21be b10c dd3d d179 7b3d 422f 0a3e
00000130: 425c 1fbd 0243 0c3c 39d1 ebbd c571 9f3d
00000140: 8bf2 c23d 75ee 3abe 1eb5 9b3d a120 8dbd
00000150: aa25 e53d ddc3 c6bd ece6 5fbd 2fcf c13c
00000160: 3e93 4c3d 5451 4bbd fb85 94bd 783e aabd
00000170: 7576 7fbd bd22 fc3b 4d2b 3c3d 0ef6 683c
00000180: 9b37 50bd aa23 bb3d fa42 d83d c635 a5bc
00000190: 5ba2 bd3d 9faa 093d cde9 e6bb ad12 c83d
000001a0: ce09 573c dd87 dbbd 1ae4 493c a1ec f73d
000001b0: 6abf cb3c 2846 e9bd 0a6a 143e 56a3 90bc
000001c0: 2de4 ab3c 0c6d 5abd 5ab4 60bd f92d 2cbe
000001d0: 8a38 dfbc 5acd 8e3d 3117 01be f93b a73c
000001e0: 1d5b 64bd 3c29 59bd e2c3 ce3d be60 833d
000001f0: 62ef dcbd 308f 2b3d 029c 23bd 75f3 c0bc
00000200: aa14 413d bf88 e9bc 52d6 843d 2b7d 92bd
00000210: d51e 183e 8e73 20be 50d0 89bd ca91 9bbd
00000220: 5e20 023e 42de 48bd 7db8 c9bd e1ec f93c
00000230: 694c b33d c28a 20be c738 1bbd dbe9 8ebd
00000240: 1d56 8b3d 627b 24be 9ce1 553d 7d8e 2d3d
00000250: 6b28 ba3c 0195 8bbd fedb 81bd 19dc 1abe
00000260: 237e 093e b167 8cbc f77b 3abd b323 493d
00000270: 60ae b2bd 6e88 f73a a27b fc3d 9e0f e23d
00000280: 5511 ee3a 5134 90bd 77f3 ed3b 2279 023e
00000290: bbaa debc 2cda 343e d0a4 d53c 65d8 463d
000002a0: 3675 8bbd 1b11 f0bc c531 973d 6a41 39be
000002b0: 9ee7 38be 35fe c6bd 45e8 37bd 3855 623d
000002c0: b983 b7bc 52d9 dbbd adcb d7bd 0b71 a73c
000002d0: 7634 89bd c575 77bd e2f2 efbd 474b 2dbe
000002e0: 37c3 b3bd a22e b3bd 5c19 1f3e 2179 0f3d
000002f0: 4caa 383e e7be edbc d495 91b9 3dab 60bc
00000300: 685b a3bc e1d5 c9bd ccc5 cebd 88e9 a3bd
00000310: 913d 743b 0915 cbba 60eb 0fbd 8186 12bd
00000320: 62ff 34bd a9c7 033d 0b63 973c c758 b0bc
00000330: fde8 0e3d 1ea4 96bd d7eb a8bd 6af9 efbc
00000340: 0816 043d 7a2c 973d d610 0ebe ff7a 3abd
00000350: f782 933d 85f6 023e 7ee6 883c 9679 133d
00000360: 3e35 e53d 2636 cebd a4d5 eabc 8bbd 8b3d
00000370: 9942 653d 1a91 a7bd 7f57 0539 e1ef b93c
00000380: f41d c53b 3545 8d3d 5afd bfbd 7866 173d
00000390: 937a cf3d f3ee 13bc c300 95bd 95a8 1cbd
000003a0: 9de4 413c 864a eabc 2840 853b 79b5 38bd
000003b0: cd23 cf3d 780b c7bc 4382 bb3c d8ad 1cbb
000003c0: bda1 d73d 0e71 07be 94de 06be 90bf 913d
000003d0: 2b42 18be a97a 49bc dbfe 3bbd cea5 86bd
000003e0: 74cb 13be 0f71 8abc 734a 653d 1412 883c
000003f0: c233 c2bd 5be0 e6bd 7d32 1b3e 5264 94bc

l2.weight f4 [256, 256]
-0.0030995975 -0.048804883 -0.13838018 0.035575 -0.051820207 0.05775861 0.17200474 -0.045341562
-0.06381506 0.13062976 -0.010020078 -0.014480257 0.019741822 -0.038478285 -0.007292844 -0.06217714
0.028835762 -0.018856319 0.019549772 0.103793085 0.11001761 -0.025728215 -0.10602757 -0.005044023
0.1791787 0.09827934 -0.010641716 0.038493656 0.11027041 -0.045375668 0.08107445 -0.07913802
-0.00640592 0.056638908 0.097340986 0.065534286 -0.006127988 -0.00309067 -0.10695342 -0.008540047
0.13385232 0.07001343 0.036797326 0.005943471 -0.01698874 0.032817207 0.058858603 0.058252387
0.039025374 0.019420175 0.043819956 0.038316324 0.11645823 0.03271085 0.09010755 0.09113393
-0.008523322 0.08664317 0.06139185 0.010296989 -0.048224173 0.034371227 -0.039584592 -0.0033583492
0.035328045 0.10746457 0.08875052 0.04156496 0.023632402 -0.028032789 0.054583196 0.0752397
0.11361325 0.13626556 0.04613892 -0.04771163 0.031702925 0.0018862672 -0.08434192 -0.07857484
0.11163003 0.051523324 -0.011035813 0.013310074 0.24408102 0.05695836 -0.06004948 -0.07666479
0.07486203 -0.08341466 0.04090309 -0.03256551 0.11284123 0.055151716 -0.058342475 -0.011511677
-0.020854626 -0.07716707 -0.110588335 0.03847483 0.0057104016 0.02679035 -0.026797365 -0.08390844
0.09567598 -0.023923287 0.0983676 0.16690089 -0.020013792 0.10809752 -0.14945693 0.11532302
0.086030684 -0.039952118 0.039988305 0.020721316 -0.052155588 -0.00094498246 0.006669976 0.06209265
-0.0022003823 0.10032425 -0.13680328 -0.014316275 0.085677825 -0.08557378 0.04957245 -0.013348663
0.052160814 0.07705414 -0.07564133 0.021948181 0.058325827 0.11201204 0.048807576 -0.028167006
-0.06294355 0.07219694 -0.0782604 -0.11522957 0.051237497 0.08167455 0.097251624 0.015643505
-0.001405407 -0.07281372 -0.060664304 0.083299994 0.05033206 -0.13435052 0.023823315 -0.074607566
-0.099369824 0.028128294 -0.08732194 0.15371503 -0.0037241925 -0.007930608 -0.015231716 -0.080395035
-0.115594625 0.09827541 0.11974659 -0.015064198 0.11433052 0.06839947 0.060513683 -0.014466946
-0.02721253 -0.086696364 0.08248608 -0.017966168 -0.012682535 -0.084776476 -0.00026543014 0.1336938
0.023101391 -0.029819462 0.020875927 0.16609716 0.09475244 0.027011959 -0.03871771 -0.070401415
-0.017332494 0.10884569 -0.04006055 -0.044225357 0.19640243 0.0070541846 0.11506817 0.05187672
-0.0058908677 -0.0011614251 0.04703404 0.10895389 0.08086572 0.18083653 -0.04220322 -0.07110587
-0.01116304 -0.00020751651 0.045776986 0.008122359 0.1535923 0.04956504 -0.039810997 0.046346515
0.060170244 0.11536601 0.07946797 -0.03566301 -0.061421774 0.16843599 0.1532469 -0.02587141
-0.10764359 0.13319944 0.02333654 0.14397459 0.12807031 0.04560545 0.043148383 0.034228507
0.01886608 0.063491926 -0.0908058 -0.070522964 -0.06353068 -0.008278084 0.021817882 0.049332622
-0.11463246 0.122462094 0.012348006 0.008566167 -0.06520092 0.06071772 0.18266474 0.09959544
0.003847067 -0.029099382 0.02353381 0.052245177 -0.06480707 0.023289593 -0.000970323 0.0018330049
0.057812434 0.05895317 0.08379316 -0.072774015 -0.04228874 -0.056823652 -0.00024420084 -0.041536763
00000000: 9e22 4bbb a1e7 47bd 89b3 0dbe 17b7 113d
00000010: 6d41 54bd 4b94 6c3d 0322 303e 13b8 39bd
00000020: 78b1 82bd cfc3 053e 412b 24bc 9a3e 6dbc
00000030: 9ab9 a13c 689b 1dbd cff8 eebb 75ad 7ebd
00000040: fa38 ec3c 9178 9abc d826 a03c 7891 d43d
00000050: ea50 e13d fac3 d2bc fc24 d9bd 5548 a5bb
00000060: 9f7a 373e ae46 c93d 985a 2ebc 86ab 1d3d
00000070: 74d5 e13d d6db 39bd 5c0a a63d 1d13 a2bd
00000080: c0e8 d1bb 33fe 673d b65a c73d d736 863d
00000090: 4acd c8bb d78c 4abb 650a dbbd 8eeb 0bbc
000000a0: 9510 093e 3463 8f3d cbb8 163d 73c1 c23b
000000b0: f82b 8bbc 566b 063d b815 713d 0e9a 6e3d
000000c0: 12d9 1f3d 0f17 9f3c 8e7c 333d 94f1 1c3d
000000d0: a781 ee3d d0fb 053d 4f8a b83d 6da4 ba3d
000000e0: 67a5 0bbc f971 b13d 0576 7b3d b4b4 283c
000000f0: b686 45bd d8c8 0c3d 7423 22bd c017 5cbb
00000100: 24b4 103d 6216 dc3d d5c2 b53d 0540 2a3d
00000110: bd98 c13c 05a5 e5bc a192 5f3d 4617 9a3d
00000120: 10ae e83d 3389 0b3e 2afc 3c3d 456d 43bd
00000130: edda 013d a03c f73a 75bb acbd d9eb a0bd
00000140: 499e e43d 1f0a 533d 8ecf 34bc 7f12 5a3c
00000150: 60f0 793e 2b4d 693d 72f6 75bd 6e02 9dbd
00000160: 4451 993d 4ed5 aabd 008a 273d 6a63 05bd
00000170: 4e19 e73d c4e6 613d 85f8 6ebd 799b 3cbc
00000180: 52d7 aabc c509 9ebd 237c e2bd c997 1d3d
00000190: 521e bb3b 7077 db3c 2686 dbbc 30d8 abbd
000001a0: c5f1 c33d c5fa c3bc f474 c93d 11e8 2a3e
000001b0: f7f3 a3bc 3c62 dd3d 3d0b 19be 7a2e ec3d
000001c0: db30 b03d d5a4 23bd c7ca 233d c0bf a93c
000001d0: 19a1 55bd b3b8 77ba d08f da3b dd54 7e3d
000001e0: 4a34 10bb cd76 cd3d 2916 0cbe cf8e 6abc
000001f0: db77 af3d 4e41 afbd 7b0c 4b3d 5ab4 5abc
00000200: 94a6 553d 90ce 9d3d d7e9 9abd accc b33c
00000210: 10e7 6e3d 9266 e53d 74ea 473d 7ebe e6bc
00000220: 8ce8 80bd fddb 933d fd46 a0bd 7bfd ebbd
00000230: 69de 513d fd44 a73d dc2b c73d cf26 803c
00000240: a235 b8ba 5c1f 95bd 227b 78bd 3099 aa3d
00000250: fd28 4e3d 2f93 09be 1d29 c33c dacb 98bd
00000260: 6882 cbbd 4f6d e63c d8d5 b2bd 7967 1d3e
00000270: 9511 74bb 61ef 01bc 738e 79bc 27a6 a4bd
00000280: e0bc ecbd 9e44 c93d b33d f53d d3cf 76bc
00000290: 1f26 ea3d 0515 8c3d 32dd 773d c506 6dbc
000002a0: d0ec debc dd8d b1bd 76ee a83d c92d 93bc
000002b0: 68ca 4fbc 4a9f adbd 6e29 8bb9 07e7 083e
000002c0: 213f bd3c f247 f4bc fe03 ab3c 6015 2a3e
000002d0: 910d c23d 2f48 dd3c 7696 1ebd 9e2e 90bd
000002e0: e0fc 8dbc 7dea de3d 8816 24bd a625 35bd
000002f0: b81d 493e ca26 e73b dca8 eb3d af7c 543d
00000300: 2e08 c1bb f63a 98ba c4a6 403d 3823 df3d
00000310: ed9c a53d 362d 393e 49dd 2cbd f49f 91bd
00000320: 2fe5 36bc ca98 59b9 a680 3b3d a513 053c
00000330: 4d47 1d3e b604 4b3d db10 23bd d8d5 3d3d
00000340: 1375 763d 0445 ec3d 1ac0 a23d 6013 12bd
00000350: 6695 7bbd 7c7a 2c3e c1ec 1c3e 47f0 d3bc
00000360: 3e74 dcbd 6f65 083e 462c bf3c 136e 133e
00000370: dd24 033e c8cc 3a3d 5cbc 303d 3133 0c3d
00000380: 0a8d 9a3c 0e08 823d 64f8 b9bd 586e 90bd
00000390: 601c 82bd cda0 07bc 6abb b23c 0111 4a3d
000003a0: 6cc4 eabd 68cd fa3d 4a4f 4a3c 1c59 0c3c
000003b0: 0f88 85bd 25b3 783d 770c 3b3e b2f8 cb3d
000003c0: 131f 7c3b d461 eebc fac9 c03c 0aff 553d
000003d0: 92b9 84bd d1c9 be3c 465d 7eba 7041 f03a
000003e0: bbcc 6c3d e178 713d c09b ab3d 8b0a 95bd
000003f0: f536 2dbd ebbf 68bd 1508 80b9 7422 2abd

l2.bias f4 [256]
-0.02446483 -0.0072162687 -0.030170146 -0.035792083 0.048780963 0.06015146 0.043157272 -0.038824696
0.03480402 0.007257285 -0.07502235 -0.06429928 -0.026262492 0.025743667 0.042757463 0.0038100462
-0.026279131 -0.012789261 -0.049338162 -0.025307974 -0.11132006 -0.08771844 0.017464284 -0.060927317
0.040352687 -0.04236519 0.058865026 -0.040002093 0.043752633 -0.0064016413 -0.013133759 -0.0015920142
-0.06237299 0.04612558 -0.09182634 0.04033362 0.06189522 -0.09508189 0.007041388 -0.009806739
-0.0017090979 -0.082459584 -0.11188258 -0.11550019 -0.0993852 -0.055491474 -0.105304286 0.0098109925
0.050844174 -0.080893055 -0.0028331843 -0.056564886 -0.093623735 -0.11335256 0.07626192 0.029784786
-0.1160354 -0.102361225 0.042195827 0.021984585 -0.10092812 0.015316996 -0.054987654 -0.083674334
0.06494537 -0.0051833033 -0.015993254 -0.04394857 -0.049584277 -0.0037817175 -0.06511695 0.026945626
-0.06830398 -0.111225754 -0.09823372 -0.046691388 -0.08637544 0.031893667 -0.030252276 -0.036814015
-0.0031851314 0.008271966 -0.055800304 0.02258114 -0.08395541 0.0004549213 -0.11952385 -0.027483722
0.14860335 -0.098256186 0.026343737 0.054527782 -0.029291011 0.10732625 0.09434204 -0.03932465
-0.057331335 -0.020395054 0.032809377 0.061994024 -0.023837188 -0.014474791 0.048749886 -0.005461215
-0.05173101 -0.001128347 0.0637113 -0.058587376 -0.054734442 -0.066245764 0.046990026 -0.014857797
0.0052831657 0.0024442659 -0.10632918 -0.083823025 0.052499227 0.036631774 -0.0029023034 0.06628156
-0.074509054 -0.041278437 0.095739484 -0.0564397 -0.030587446 -0.118595265 -0.019459447 -0.040813137
-0.061729994 -0.05105158 -0.02318196 -0.09404504 -0.020868769 -0.03555516 -0.018578665 0.0010461339
-0.09895182 0.029200427 -0.015615148 -0.04871064 -0.0065619186 0.048030857 -0.04080667 -0.011692715
-0.086668976 0.02142126 0.057729185 0.031218974 -0.08767345 0.03070031 0.03247754 -0.094998054
0.07740022 -0.06801361 -0.025947306 0.054200456 -0.045217585 0.07789737 0.02671987 -0.004637891
0.058286313 -0.12001188 -0.00609455 0.048256177 -0.08355362 -0.09167096 0.0012332464 -0.048240367
-0.019116329 -0.11523968 0.062359896 0.057247348 -0.0036453556 -0.038591467 0.031122392 0.08692388
0.07175763 0.02367949 0.00061894645 0.05467234 0.08829452 -0.023524784 -0.106640026 -0.07920389
0.08903693 0.025383012 0.06894317 -0.06794521 0.04257884 0.014904948 0.10136429 -0.028280811
-0.103846155 -0.0045861513 0.060911465 -0.029522581 -0.0141791655 0.019400379 -0.019231671 -0.11288956
-0.055222817 -0.048805617 -0.11267482 0.008506076 -0.0563509 0.06368576 0.03136982 -0.05218822
-0.069519624 -0.0035620965 -0.034365885 -0.09049931 0.07524704 -0.010196295 -0.12190408 -0.09630298
-0.014911472 0.07453186 -0.03143423 0.036543224 -0.03368047 0.033749826 0.017293233 -0.026651284
0.051835258 0.048954528 0.052640695 -0.108646266 -0.0744072 -0.041075688 -0.06900916 -0.032046594
0.050620794 -0.038281716 0.066813424 -0.08918792 -0.007913989 0.066720314 0.048536103 -0.09386419
-0.03819971 -0.048775245 0.03948317 0.05445613 -0.026434936 0.01219695 -0.050434913 0.0052955886
-0.044110503 -0.061103694 0.039836925 0.007995299 0.027166698 0.039072998 -0.06595447 -0.091745414
00000000: 786a c8bc 7376 ecbb 6227 f7bc b89a 12bd
00000010: 8cce 473d 6161 763d aec5 303d a506 1fbd
00000020: a98e 0e3d 85ce ed3b 51a5 99bd 57af 83bd
00000030: 7024 d7bc 62e4 d23c 7322 2f3d f8b1 793b
00000040: 5547 d7bc 0c8a 51bc d016 4abd ab52 cfbc
00000050: c6fb e3bd baa5 b3bd 4211 8f3c ec8e 79bd
00000060: dc48 253d 1f87 2dbd 741c 713d 3cd9 23bd
00000070: f635 333d dcc4 d1bb fa2e 57bc 22ab d0ba
00000080: d27a 7fbd 2dee 3c3d 730f bcbd de34 253d
00000090: d885 7d3d 4bba c2bd 72bb e63b 72ac 20bc
000000a0: cf03 e0ba 92e0 a8bd b222 e5bd 5d8b ecbd
000000b0: 788a cbbd 074b 63bd c6a9 d7bd 49be 203c
000000c0: fb41 503d 42ab a5bd f2ac 39bb 95b0 67bd
000000d0: cdbd bfbd 6325 e8bd 362f 9c3d 39ff f33c
000000e0: f8a3 edbd c3a2 d1bd 88d5 2c3d 0419 b43c
000000f0: 67b3 cebd 23f4 7a3c bc3a 61bd 735d abbd
00000100: 1402 853d b3d8 a9bb 4904 83bc 6a03 34bd
00000110: e218 4bbd b1d6 77bb 095c 85bd 13bd dc3c
00000120: f5e2 8bbd 54ca e3bd c32e c9bd 783f 3fbd
00000130: 9be5 b0bd efa2 023d 9fd3 f7bc 4bca 16bd
00000140: a3bd 50bb 2487 073c dc8e 64bd 15fc b83c
00000150: d0f0 abbd 8182 ee39 ecc8 f4bd 8b25 e1bc
00000160: 7a2b 183e 8a3a c9bd d2ce d73c 8658 5f3d
00000170: b4f3 efbc ddcd db3d 6636 c13d e212 21bd
00000180: 43d4 6abd 8713 a7bc 2063 063d 72ed 7d3d
00000190: 3546 c3bc ac27 6dbc f6ad 473d fef3 b2bb
000001a0: e5e3 53bd 0be5 93ba 127b 823d 51f9 6fbd
000001b0: 3931 60bd dcab 87bd 9d78 403d 1e6e 73bc
000001c0: 681e ad3b fa2f 203b 1dc3 d9bd 68ab abbd
000001d0: 6e09 573d 330b 163d 9234 3ebb a0be 873d
000001e0: 3498 98bd 9413 29bd 1013 c43d 512d 67bd
000001f0: 8692 fabc 13e2 f2bd 6b69 9fbc ad2b 27bd
00000200: 97d8 7cbd 761b 51bd 18e8 bdbc b09a c0bd
00000210: fbf4 aabc 4aa2 11bd 4932 98bc 6e1e 893a
00000220: 40a7 cabd bc35 ef3c add6 7fbc cf84 47bd
00000230: 5d05 d7bb 01bc 443d e524 27bd cd92 3fbc
00000240: 817f b1bd a37b af3c 7075 6c3d efbe ff3c
00000250: 238e b3bd 377f fb3c 2b07 053d 578e c2bd
00000260: 0284 9e3d b84a 8bbd 728f d4bc 4c01 5e3d
00000270: 1336 39bd a888 9f3d a1e3 da3c 73f9 97bb
00000280: a1bd 6e3d cac8 f5bd cab4 c7bb 45a8 453d
00000290: 291e abbd fcbd bbbd e2a4 a13a b197 45bd
000002a0: d999 9cbc c802 ecbd 176d 7f3d 327c 6a3d
000002b0: ebe6 6ebb 1612 1ebd 63f4 fe3c 2605 b23d
000002c0: aaf5 923d 7dfb c13c cb40 223a 1bf0 5f3d
000002d0: c2d3 b43d 0cb7 c0bc 1666 dabd a635 a2bd
000002e0: fe58 b63d 09f0 cf3c 1432 8d3d dc26 8bbd
000002f0: 2667 2e3d e233 743c 1598 cf3d 29ad e7bc
00000300: 4bad d4bd 6d47 96bb 4d7e 793d 57d9 f1bc
00000310: bb4f 68bc 8bed 9e3c bd8b 9dbc a432 e7bd
00000320: 5231 62bd 66e8 47bd 0ec2 e6bd 125d 0b3c
00000330: 34d0 66bd ae6d 823d a47d 003d 51c3 55bd
00000340: 4e60 8ebd 1072 69bb 3ec3 0cbd b457 b9bd
00000350: 1f1b 9a3d 5c0e 27bc d9a8 f9bd 7f3a c5bd
00000360: 3f4f 74bc 29a4 983d 2ec1 00bd 59ae 153d
00000370: 88f4 09bd 423d 0a3d 8aaa 8d3c cb53 dabc
00000380: 3551 543d 8b84 483d c59d 573d ef81 debd
00000390: cd62 98bd fb3e 28bd ad54 8dbd 4a43 03bd
000003a0: c057 4f3d 4acd 1cbd 7ad5 883d 28a8 b6bd
000003b0: ada9 01bc a9a4 883d cbcd 463d de3b c0bd
000003c0: 4d77 1cbd 8dc8 47bd 1bb9 213d 640d 5f3d
000003d0: 148e d8bc b7d5 473c d794 4ebd 9e86 ad3b
000003e0: 37ad 34bd de47 7abd 0b2c 233d b7fe 023c
000003f0: b28c de3c 020b 203d 2313 87bd 05e5 bbbd

l3.weight f4 [3, 256]
-0.019496294 -0.08597896 -0.0399529 -0.05627308 -0.054508395 -0.14496195 -0.13285963 -0.09111447
-0.044937376 -0.049218606 0.040300675 -0.010611976 -0.00029533549 -0.16888098 -0.0050111357 0.15100785
-0.006273067 -0.06257176 -0.004903609 0.04612092 -0.050278928 0.024575192 -0.08092247 -0.10333789
0.13129929 -0.011200512 -0.14082648 -0.038927037 -0.034070555 0.0789793 0.10583474 -0.086557865
-0.02325415 -0.16224846 0.026311101 -0.16704822 -0.08024919 -0.07010426 -0.1261254 -0.016493494
-0.06169536 -0.0653018 0.0026662522 -0.03461494 -0.09509243 -0.055379193 0.015560548 -0.06988747
-0.15843056 0.046344165 -0.099942915 -0.0022147922 0.00620974 0.01702224 -0.077061415 -0.10498814
0.006127301 0.045858335 -0.1322433 -0.12665847 -0.05717863 -0.109823346 -0.043927345 -0.27749562
-0.0778632 -0.045247745 0.003497609 -0.095406994 0.002975635 -0.004508368 0.02401648 -0.04723327
-0.015186338 -0.032229315 -0.062172696 -0.01537962 -0.043323938 -0.09332643 -0.02668555 -0.011687136
-0.045075566 -0.06194658 -0.048495512 -0.11239646 0.03582371 -0.040538765 0.00082572276 -0.07405765
0.37141076 0.02339754 -0.12954614 0.012741066 -0.0053532566 -0.11702095 -0.10209895 -0.053742476
0.008405079 -0.02649306 -0.03598441 -0.13806465 0.1410347 -0.0031130377 -0.032018784 0.09847521
-0.008056981 -0.050592102 0.059695244 0.02004243 0.0141764805 -0.048468523 -0.09322886 0.0018049509
0.15548322 0.15887783 -0.0483463 -0.016631564 -0.006757514 0.054052856 -0.10856134 -0.086625904
-0.025461903 -0.038302444 0.08074099 -0.05118796 -0.0529136 -0.006969459 -0.092356995 -0.0975681
-0.07805459 0.023602858 -0.09782048 -0.021640494 -0.017486641 -0.035307188 -0.027883055 -0.09239922
0.005988416 -0.025801972 -0.107724614 -0.068062454 -0.0031009796 -0.09564734 -0.029570194 -0.08703769
-0.089299396 -0.06219289 -0.15115865 -0.04183414 0.0013770972 0.04240498 -0.057444982 -0.01928503
-0.035132103 -0.079396926 0.0023044017 0.03121775 -0.022356631 -0.075283915 0.028481102 -0.10983443
-0.035473254 -0.09390461 -0.06291109 -0.0029545156 -0.0683943 0.053353753 0.09868021 -0.006016315
-0.033381153 0.0023824747 -0.0532567 -0.12262533 -0.20739044 -0.019869555 -0.12194961 0.043276876
-0.095236294 -0.13224436 -0.09983208 -0.03727346 0.08012289 0.032302294 -0.01754586 0.02682465
-0.12751146 -0.023574835 0.06471844 -0.0110004 -0.07564675 -0.07083106 -0.09944256 -0.041710462
-0.06294375 -0.022112047 -0.07064762 -0.102734305 -0.1104694 -0.03493268 -0.06772594 -0.052216966
-0.009155628 -0.035639685 0.0564637 -0.09670358 -0.055698995 -0.06584322 -0.045537006 -0.005838531
-0.017152457 -0.037678227 -0.05567127 -0.0015006497 -0.027471619 0.0010437771 -0.01111958 -0.06029863
-0.11248499 -0.09592253 0.037190337 -0.044177186 -0.09371814 -0.071845114 0.053655792 -0.053327464
-0.099817015 0.058596503 -0.09585006 -0.09834594 -0.058959298 -0.040856823 0.021520045 0.0032523149
0.04592729 0.024985507 -0.109566994 -0.09110025 -0.072903186 -0.0392578 -0.037041143 -0.0324117
-0.014171877 -0.009838555 -0.094257765 -0.08688957 -0.046622485 -0.0036705148 -0.10696426 -0.018907815
-0.03425502 0.002346287 -0.08466025 -0.011734974 0.08599934 -0.20809494 -0.064144626 -0.109732114
00000000: b1b6 9fbc bd15 b0bd a7a5 23bd 9a7e 66bd
00000010: 3244 5fbd e870 14be 5b0c 08be 399a babd
00000020: 4110 38bd 7399 49bd 5212 253d dadd 2dbc
00000030: 42d7 9ab9 23ef 2cbe 7434 a4bb cda1 1a3e
00000040: 4d8e cdbb 9f25 80bd 74ae a0bb 4ae9 3c3d
00000050: 47f1 4dbd ea51 c93c aeba a5bd d1a2 d3bd
00000060: 5273 063e 5a82 37bc d134 10be f571 1fbd
00000070: 918d 0bbd e6bf a13d e2bf d83d 4045 b1bd
00000080: 7d7f bebc 7624 26be 618a d73c b00e 2bbe
00000090: b059 a4bd d392 8fbd 0427 01be 5d1d 87bc
000000a0: 46b4 7cbd f3bc 85bd 4abc 2e3b 65c8 0dbd
000000b0: d2bf c2bd 4bd5 62bd abf1 7e3c 2921 8fbd
000000c0: 9f3b 22be 61d3 3d3d dfae ccbd 0c26 11bb
000000d0: 137b cb3b 3a72 8b3c 60d2 9dbd 0604 d7bd
000000e0: 87c7 c83b f3d5 3b3d ca6a 07be c2b2 01be
000000f0: 2434 6abd 10eb e0bd 29ed 33bd e813 8ebe
00000100: be76 9fbd b355 39bd 2438 653b be64 c3bd
00000110: df02 433b efba 93bb 36be c43c ac77 41bd
00000120: 1ed0 78bc e302 04bd cca8 7ebd cdfa 7bbc
00000130: 7174 31bd ed21 bfbd a89b dabc 677b 3fbc
00000140: 28a1 38bd b2bb 7dbd 3ba3 46bd 1d30 e6bd
00000150: e2bb 123d fa0b 26bd 5175 583a 8aab 97bd
00000160: 8d29 be3e 33ac bf3c bea7 04be e7bf 503c
00000170: 5f6a afbb aea8 efbd 4119 d1bd 1221 5cbd
00000180: 75b5 093c f907 d9bc 6464 13bd d260 0dbe
00000190: 676b 103e 1b04 4cbb 2126 03bd 5fad c93d
000001a0: 6d01 04bc aa39 4fbd 0083 743d 0630 a43c
000001b0: 7844 683c ee86 46bd c6ee bebd 1a94 ec3a
000001c0: fe36 1f3e dfb0 223e c506 46bd eb3e 88bc
000001d0: 236e ddbb 8766 5d3d 6855 debd ec68 b1bd
000001e0: 7b95 d0bc 06e3 1cbd 885b a53d 77aa 51bd
000001f0: eebb 58bd 0f60 e4bb aa25 bdbd c9d1 c7bd
00000200: 16db 9fbd c85a c13c 1b56 c8bd 6847 b1bc
00000210: 2540 8fbc 459e 10bd 016b e4bc cd3b bdbd
00000220: 793a c43b a85e d3bc b99e dcbd 5464 8bbd
00000230: ce39 4bbb c1e2 c3bd 313d f2bc d140 b2bd
00000240: 9ae2 b6bd f9bd 7ebd 55c9 1abe 465a 2bbd
00000250: b77f b43a d8b0 2d3d 6e4b 6bbd a4fb 9dbc
00000260: aee6 0fbd db9a a2bd 7205 173b 5ebc ff3c
00000270: 4125 b7bc 742e 9abd 3351 e93c e0f0 e0bd
00000280: 674c 11bd 0f51 c0bd 88d7 80bd 8ca0 41bb
00000290: 5012 8cbd 7789 5a3d da18 ca3d 8224 c5bb
000002a0: adba 08bd 4b23 1c3b b323 5abd fd22 fbbd
000002b0: 295e 54be 7ac5 a2bc b8c0 f9bd 1843 313d
000002c0: 3f0b c3bd 116b 07be c374 ccbd 0eac 18bd
000002d0: 7817 a43d 694f 043d 56bc 8fbc 5ebf db3c
000002e0: 5d92 02be 0320 c1bc 1a8b 843d 063b 34bc
000002f0: afec 9abd e00f 91bd 8aa8 cbbd 97d8 2abd
00000300: a7e8 80bd 5324 b5bc b3af 90bd 5d66 d2bd
00000310: c83d e2bd 9215 0fbd e6b3 8abd 75e1 55bd
00000320: 7d01 16bc ebfa 11bd 7b46 673d 870c c6bd
00000330: a124 64bd cfd8 86bd 0385 3abd 2651 bfbb
00000340: 4f83 8cbc 7c54 1abd 8f07 64bd 73b1 c4ba
00000350: 290c e1bc 59cf 883a e62e 36bc b2fb 76bd
00000360: 885e e6bd 0873 c4bd e554 183d 23f3 34bd
00000370: 4cef bfbd 8823 93bd 2dc6 5b3d e66d 5abd
00000380: dd6c ccbd e302 703d 094d c4bd 9969 c9bd
00000390: 4e7f 71bd 7c59 27bd ce4a b03c ca24 553b
000003a0: 411e 3c3d 68ae cc3c a964 e0bd c592 babd
000003b0: 444e 95bd c9cc 20bd 74b8 17bd 21c2 04bd
000003c0: 2931 68bc e431 21bc 370a c1bd 29f3 b1bd
000003d0: 38f7 3ebd 058d 70bb 1410 dbbd 90e4 9abc
000003e0: fe4e 0cbd 2ac4 193b 5a62 adbd 0c44 40bc
000003f0: 6c20 b03d d716 55be 425e 83bd 3bbb e0bd

l3.bias f4 [3]
0.045144178 0.017359743 -0.07741583
00000000: 1ae9 383d 0536 8e3c 318c 9ebd
