gespeicherte_Klassen/model.pt (torch, 359255 bytes, 6 tensors)

l1.weight f4 [256, 88]
00000000: dc10 6f3d f935 f9bb da79 173a bb4d 0abe
00000010: 1644 c73d 3114 3cbd aeb9 b3bd d9ac 3abd
00000020: 0fe7 c7bd 000a 44bc 03b4 103d 980b 1e3c
00000030: 34c0 f8bc 20a6 473b b050 25bb fa6b 7bbd
00000040: d95a f5bd 095e c9bd 7731 1fbe b6e4 973c
00000050: 7059 f43c 6dda 79bd 186f a9bc fc17 8a3c
00000060: 5ec0 c63d c2a0 0ebe 3351 9dbd e0f0 0a3b
00000070: 14c5 893c b0ed 293d ac29 10bd 1630 11be
00000080: 1906 f5bd 10d2 8dbd 42de 013d ffdd 68bc
00000090: 8ade 043d f323 1ebc 29d5 5d3d 57a5 743e
000000a0: 0368 6b3d 75b6 a33d 5b39 2b3e bcff 11bd
000000b0: 922e 2e3d 22a1 7a3d ca83 fc3c 2097 d83d
000000c0: 3447 963d 69ca 64bd e9c5 973d 8184 3c3f
000000d0: 032b 4b3f f126 453e c80e 203e 4ab7 1a3e
000000e0: 0ddc 42bd 7d93 d63d 80a9 013e d740 3d3b
000000f0: dc25 0e3e 8a07 983d 365d 2c3e 77a2 ca3d
00000100: 6a3b 783d 7e65 ad3d ae20 203e 7473 103e
00000110: 065e a9bb 505d 9dbd c050 37be 68bd 9ebd
00000120: 523c 3dbd 50a5 883c 8fc7 cebd 32bf a13d
00000130: 6076 623d f148 9cbc 30f1 cfbb b981 d4bc
00000140: ca06 08be 4761 30bd cb91 6abc 5d7d 4fbd
00000150: 2d3f 483c a81a 98bd 50ac 16be ad91 edbd
00000160: 7869 9cbc 2911 c0bc a9ef 68bd cd95 bbbd
00000170: 6279 f7bc 3989 05be e4b9 f7bc ad36 59bd
00000180: e2b5 fe3c 25b5 0cbe 1110 debd cc5e 533b
00000190: 5793 16be cc4e 4d3b 6e7f 083d 8d8c 19be
000001a0: cc5a 13bc 78f1 a33b dbcd acbd dd9c 9039
000001b0: 080b 573d 41c3 22be 5cf8 93bc 80cc 223b
000001c0: 7ced 683d 423c 08be a49a 43bd 8205 b4bd
000001d0: aad7 d1bd bf57 113e 868f e83c e1f3 01be
000001e0: 1e0d 43bc 92eb 633c 9896 aabc fbde 413d
000001f0: 4a2b b8bd 187e 3e3e a5f4 6e3b 86e8 ed3d
00000200: ca07 363e 38ab 9d3d ce1e 5b3d 6021 af3d
00000210: ec9f 9f3c d3f2 0e3e d3e9 623d 8426 463d
00000220: 69db 823d 1665 843d 5558 f13d 6b5f 863d
00000230: 3375 813c f44e 893d f101 193e beaa f7bc
00000240: 612c 04bd 5ae9 6d3d d95c 29bd 9cfa 323d
00000250: 0e3e cd3d feed 333d 9958 193e 65aa 52bd
00000260: f028 4f3c d85b 22be 6e78 babb b784 5d3d
00000270: c48a a2bc b61a 6bbd 95a1 8cbc 7fc8 d2bd
00000280: def4 373c 396d b3bd 6043 6bbd 4e04 343d
00000290: 188c 70bc e0f5 cb3d 207b aa3b 684e 123c
000002a0: d83a 8fbd 287c d03c 388c fdbc 309b 843d
000002b0: 9065 803b 1385 a3bd 94d4 96bd 3846 7e3c
000002c0: 8016 603b b6b0 2fbd ad2d de3d 5968 72bd
000002d0: 3735 8f3d 05d3 4f3d 2c0c 413d 9bbf 68bd
000002e0: 9ec5 43bd d011 2a3d a137 8d3d d6da c73d
000002f0: 386d b8bd c4d9 82bd 52c3 07be 9099 e93c
00000300: d773 56bd 574c b5bd 3e59 04bd c962 9bbc
00000310: 2d0f 80bd 267b 013d 2a45 cf3d 10ae d93c
00000320: 9db1 bbbd 42f4 25bd 233f 82bd 963f 873d
00000330: 84d8 853d 5e43 1abd a085 7c3b d97d c3bd
00000340: 60e7 c23d d4c3 723d 5918 47bd f3ea 3a3b
00000350: 2e50 3b3d e154 a13d f073 143e 8d56 ebbb
00000360: 816b d43d cdac 273e 3f57 8d3e e437 83bd
00000370: 16f3 94bd b065 963d c4b3 a43d f90b fabc
00000380: 82c2 103e dab0 033e 919e 133e 50f3 a4bd
00000390: 858f 71bd ffbf 2f3e 7b4c d83d 1d75 8e3d
000003a0: c99f 8b3d ad88 013e 5c86 943b 3cab a03d
000003b0: b4ee 95bd c494 043d 11e0 9dbd 2f74 153e
000003c0: 6639 1b3e 77fa 903c 635b f93c 99fe ba3c
000003d0: 6473 27bd 24ca f0bc 951f 65bd 40c4 72bb
000003e0: 7c02 743d cba2 9ebd 1d3f bebd 6411 853c
000003f0: 84ee a1bd 303e 293d c21d b0bd 3001 2e3c
0.058365688 -0.007605311 0.000577835 -0.13506214 0.09729783 -0.045917694 -0.0877565 -0.045574997
-0.09760868 -0.011965275 0.035327923 0.009646319 -0.030365087 0.0030464008 -0.0025225095 -0.06138227
-0.119802184 -0.09832389 -0.15546213 0.018541675 0.029827803 -0.060999323 -0.020682856 0.01685714
0.0970466 -0.13928512 -0.07681503 0.0021200702 0.016817607 0.041486442 -0.03519599 -0.141785
-0.11964054 -0.06924832 0.031706102 -0.014213084 0.032438792 -0.009652126 0.054158363 0.23891197
0.05747224 0.07993785 0.16721098 -0.035644278 0.04252488 0.061188824 0.03082456 0.105757
0.073378 -0.055857096 0.07410795 0.73639685 0.79362506 0.19253136 0.15630639 0.15108982
-0.047573138 0.1047735 0.12662315 0.002887776 0.1388163 0.07423313 0.16832432 0.09894269
0.060603537 0.08466624 0.15637466 0.14106542 -0.005168679 -0.076838136 -0.17901897 -0.0775097
-0.046200104 0.01668039 -0.100966565 0.07897796 0.055288672 -0.01907775 -0.0063458905 -0.025940763
-0.1328384 -0.04306152 -0.014316986 -0.050656665 0.0122220935 -0.07426959 -0.1471417 -0.11600051
-0.01909326 -0.023445683 -0.056869183 -0.091594316 -0.030209247 -0.13040628 -0.030240007 -0.05303066
0.031092588 -0.13740976 -0.10842908 0.0032252548 -0.14704643 0.0031327484 0.03332465 -0.14995022
-0.008993816 0.0050031506 -0.08437701 0.00027582693 0.052500755 -0.15894796 -0.018062763 0.002484113
0.056867108 -0.13304237 -0.0477549 -0.08790113 -0.10246213 0.14193629 0.02838875 -0.12690689
-0.011904983 0.013911145 -0.020823762 0.04733179 -0.08992632 0.18602788 0.0036461737 0.11616616
0.17776409 0.07698673 0.053496175 0.08551288 0.019485436 0.13959818 0.055398773 0.048376575
0.063895054 0.06464593 0.11784426 0.06561168 0.015802955 0.06704512 0.14942147 -0.030232783
-0.032268886 0.05808387 -0.041348312 0.04369603 0.100216016 0.04392814 0.14975204 -0.051432032
0.012644038 -0.15855348 -0.005690626 0.054081645 -0.01984156 -0.05739852 -0.017166892 -0.10292148
0.0112278145 -0.08761067 -0.0574373 0.043949418 -0.014681838 0.09959006 0.005202666 0.008929826
-0.069936454 0.025449827 -0.03095065 0.06474912 0.003918357 -0.07984366 -0.07364765 0.015519671
0.0034193099 -0.042893134 0.10848556 -0.059181545 0.06992572 0.050738353 0.04713075 -0.056823354
-0.047795884 0.041520894 0.06895376 0.097585365 -0.09005207 -0.06389192 -0.13258103 0.028515607
-0.052356567 -0.08852451 -0.03231167 -0.018968003 -0.062528946 0.031611584 0.10120614 0.026572257
-0.091647364 -0.040516146 -0.063596986 0.06603925 0.06535438 -0.037661903 0.0038531795 -0.09545488
0.095167875 0.059268788 -0.048607204 0.0028521388 0.045730762 0.078775175 0.14497352 -0.0071819485
0.10372067 0.16374512 0.27605626 -0.06407145 -0.072729275 0.07343614 0.080421 -0.030523287
0.14136699 0.12860432 0.14415957 -0.08054221 -0.05897476 0.17163084 0.105614625 0.06955931
0.06817586 0.12649794 0.0045326184 0.0784516 -0.0732092 0.032368436 -0.07708753 0.14595102
0.15158615 0.017697556 0.030439084 0.02282648 -0.04088153 -0.029393263 -0.055938322 -0.0037043244
0.05957268 -0.07745894 -0.09289382 0.016243644 -0.07906821 0.041319072 -0.08599426 0.0106204

l1.bias f4 [256]
00000000: b02f 493d 0918 753a 133c cbbc 2ca5 11be
00000010: da59 8939 c6ed fc3d c466 88bc 4254 4ebd
00000020: b29f 263d cc68 90bc e3be 9cbd 0702 6f3c
00000030: 847b 21be 0cea 403d 0e22 623d 6fb5 2abe
00000040: 97af ba3c b41c bdbd 31d7 083e b18a b4bd
00000050: ffa3 ecbb 8247 cabd 6ffc 1fbe f87e c33d
00000060: 6e42 26be 52d8 f0bd 0a50 353d 6dd1 1ebd
00000070: 0205 a8bd e1e4 2cbe 7616 9a3b dc42 f4bc
00000080: 86c4 f7bd 2ced 5f3e 0a70 513d d740 8cbc
00000090: 352f f7bb ebe4 71bd d5bc 253d 909e e4bd
000000a0: b670 e63b 8284 a3bc 9771 91bd c902 66bc
000000b0: d252 cc3c 3073 bfbd 355b dbbd 22e6 1ebe
000000c0: 6833 adbd fe6f 18be 71ed ae3c 3509 60bd
000000d0: 0be8 0bbe 4fda bebd 231e 20be 68d1 8dbd
000000e0: ad08 45bd 9883 063e 8497 42be 85a4 8a3d
000000f0: 0ced e03d dbef dbbc 37a4 b7bc 3b2a 803d
00000100: 8e0d fcbd 7101 cbbd 195b a7bc 7fbc fdbd
00000110: ddf7 9cbc 9612 a53d 535b 0bbd 206c 81bc
00000120: 94c5 debd 488b 06be 95a3 9e3c cbb2 b73d
00000130: bbb0 f4bd 0505 893d 4693 02be 0820 1d3e
00000140: 60f2 823d ca0a 3abc dd60 ea3c a0fa 583d
00000150: dcbb d33d c3f3 81bd 96e3 93bc c9e9 493d
00000160: dbcd 8abd 0692 8bbd 6f08 a03a 375d f2bd
00000170: f86d 3fbe d44a 9c3c 808e 923d 6ec1 1bbe
00000180: 3a36 f73a 84fc 3b3d b5ea 14be e03d cf3c
00000190: fb2d e6bd 7e6f af3a 642e 093e 05ca 173d
000001a0: e3ba 033e 7242 2dbd dcc7 6d3b 5d88 d339
000001b0: d242 143c ae73 943d 3138 f4bd ecde 10bd
000001c0: 1a61 13bd 822a 763d 5716 f9bd 7b42 f7bc
000001d0: ce19 3cbd 6031 15be ff7b cbbb 991e 46bd
000001e0: d88c 123c 491f 3bbd 07ab a4bc 7c56 38be
000001f0: a4e6 89bc 3659 febd 2a0b d0bd a295 babd
00000200: 8d2f e1bd ec06 8ebc 3ab5 f1bc 0edb 97bd
00000210: e2bc bcbd 8400 6abd 4fa0 203d 2749 39bd
00000220: 5928 dabc da7f ab3d efff 453d dd1e 4fbe
00000230: 2260 47bd 0464 18be ad5d a9bd b998 c53d
00000240: 4439 cc3b 3d4b 31bc fb30 f4bd 15ff 3e3e
00000250: e940 33bd 9dd5 6d3c d533 1bbe db5a c43d
00000260: c173 1abe 2ee5 29be 57ac f0bd 03e4 2cbe
00000270: 8cc5 863d aeb8 2dbe efd5 debd c007 f2bd
00000280: 8bfa ffbd bd77 5dbd 1bc1 babd c000 be3b
00000290: 6cf3 67bd a5ad 3bbe cd4f e6bd 27f3 913d
000002a0: b0c3 ce3d a87b be3d d4d9 f1bd 2b7f 023e
000002b0: c8de fc3c 74a8 f23c a82d 22be 5cad 00be
000002c0: 7240 193c 3383 623d 8200 69bd 16d7 083d
000002d0: 0088 573d 59a1 1ebd c8e8 f0bd c337 8e3d
000002e0: 3166 f3bd 82e1 dcbc 6fb1 f4bd 97b8 3fbd
000002f0: 88bb cabc f838 a93a 5d5c 09bd e062 42be
00000300: c436 f03d 772e 2c3d 58ac db3d 9b7b 17be
00000310: 5740 c6bc 14a7 c8bd 35eb 2ebd 6902 6b3e
00000320: 2098 95bd f53a 04be 5ca6 a03d 4b14 9fbd
00000330: e930 a7bd df51 8abd 8c15 553b 4564 0b3e
00000340: 2b12 41bd fbf0 92bd d5e6 fabd 1a44 3fbd
00000350: adf2 12bd b51a 0ebe 9f36 2abc d4d2 dbbd
00000360: 2b95 c03d 4584 d7bc 7352 de3d 2f6d 053e
00000370: d3bb 52bd 673c 903c 6c4d 82bd 24d1 9dbc
00000380: d16f 12bd 5b98 9bbd 94e5 6bbd bf58 dbbd
00000390: 21ad 36be 7c02 523d 33fd 86bd cd2f e4bd
000003a0: 70e6 82bc 7ceb bebd 1b38 843d c320 31bd
000003b0: c42b 26bd c575 aebd 361a e7bd 740e cdba
000003c0: 439e 94bd e888 eabd 5048 883d 3d6f d1bd
000003d0: cede f7bd 8562 24bd 9a8f c8bd 78a4 403e
000003e0: 7afd 12bc 49fd 693d 5933 0a3d cc76 d03c
000003f0: 0880 b13d 5fa2 86bd d8a7 44be 7010 4abc
0.049117744 0.000934959 -0.024808919 -0.14223164 0.0002619762 0.12350039 -0.016650565 -0.050373323
0.04067964 -0.017628096 -0.07653596 0.014587886 -0.15769774 0.047098204 0.05520826 -0.16670774
0.022788806 -0.0923399 0.13363339 -0.08815516 -0.0072216983 -0.0987692 -0.1562364 0.09545702
-0.16236278 -0.1176001 0.044265784 -0.038773943 -0.0820408 -0.16884185 0.0047023846 -0.029817037
-0.12098031 0.21867818 0.05113224 -0.017120762 -0.0075434693 -0.059056204 0.040463287 -0.11163056
0.007032479 -0.019960646 -0.07101744 -0.01403875 0.024941836 -0.09348142 -0.10710756 -0.15517476
-0.084570706 -0.14886472 0.021353455 -0.05469628 -0.13662736 -0.09318983 -0.15636496 -0.06924707
-0.048103977 0.13136137 -0.19003111 0.06769661 0.10982713 -0.02684777 -0.02241717 0.06258055
-0.12307273 -0.09912384 -0.020429181 -0.123894684 -0.01916116 0.080601856 -0.03402264 -0.015798628
-0.10877529 -0.13139069 0.019365111 0.08969649 -0.11947771 0.066904105 -0.12751493 0.1534425
0.063938856 -0.011355111 0.028610641 0.05297339 0.10338566 -0.06345322 -0.018052857 0.04929522
-0.06777545 -0.06814961 0.0012209545 -0.118341856 -0.18694293 0.01907865 0.07156086 -0.15210506
0.0018860765 0.045895115 -0.14542659 0.025298059 -0.11239239 0.0013384668 0.13396603 0.037057895
0.1286426 -0.042299695 0.0036282456 0.00040346655 0.009049134 0.07248627 -0.1192478 -0.035368845
-0.035981275 0.060099132 -0.12162464 -0.030183068 -0.045923047 -0.14569616 -0.00620985 -0.048369024
0.008944713 -0.045684133 -0.020101083 -0.18001741 -0.01683361 -0.124193594 -0.101583794 -0.091105714
-0.10995398 -0.017337285 -0.02950536 -0.07414828 -0.09215714 -0.057129398 0.039215382 -0.04523578
-0.026630567 0.08373995 0.04833978 -0.20226617 -0.048675664 -0.14881903 -0.0826982 0.0964827
0.0062324125 -0.010821161 -0.11923405 0.18651994 -0.043763075 0.014516261 -0.15156491 0.09587642
-0.15083219 -0.16591331 -0.11751621 -0.16883855 0.06580648 -0.16964981 -0.10880648 -0.118178844
-0.12498959 -0.05406927 -0.09118863 0.0057984293 -0.05662863 -0.18327959 -0.112456895 0.07126456
0.10095918 0.09300929 -0.118091255 0.12743823 0.03086795 0.02962134 -0.15837729 -0.12566131
0.009353744 0.055300903 -0.05688525 0.033408247 0.052619934 -0.038728092 -0.117631495 0.069442295
-0.11884726 -0.026963 -0.11947905 -0.046806898 -0.024747625 0.0012910655 -0.03353535 -0.1898303
0.11729196 0.0420365 0.10726231 -0.14793245 -0.024200602 -0.097974926 -0.04270478 0.22950138
-0.07304406 -0.12913115 0.078442305 -0.077675425 -0.08163626 -0.06753897 0.0032514064 0.13612469
-0.047136467 -0.071748696 -0.12251059 -0.046695806 -0.035875965 -0.13877375 -0.010388999 -0.10733572
0.094034515 -0.026308188 0.1085557 0.13029931 -0.051448654 0.017606927 -0.06362423 -0.019264765
-0.035751168 -0.07597419 -0.05759199 -0.10710286 -0.17839481 0.0512719 -0.06591263 -0.1114193
-0.015979022 -0.09322259 0.06456014 -0.043244135 -0.040569082 -0.085185565 -0.11284296 -0.0015644566
-0.072567485 -0.11451894 0.066544175 -0.10226295 -0.121030435 -0.040133018 -0.09793015 0.1881274
-0.008971566 0.057126317 0.033740375 0.025447272 0.08666998 -0.065739386 -0.19204652 -0.012333021

l2.weight f4 [256, 256]
00000000: 7553 2b3c ce74 6bbd 4186 d73c 2024 75bd
00000010: 5876 77ba 2fee 983d 27f3 d4bd 12df 94bc
00000020: 09d0 e33c 20e3 5c3c 26b4 96bc cb70 21bd
00000030: 24ea eb3a ff09 b5bc c2f9 243b 059d b03d
00000040: 2b00 903d af9b 8c3c e007 04be 4b78 86bd
00000050: 4df2 d5bc 59ac 80bd f1c2 87bd b0e8 c9bd
00000060: 546b 433c 2b92 ed3a 9c5a 0dbe e914 053b
00000070: b3e1 dbbd 0c2a cf3d b254 94bd 4ba6 9d3d
00000080: bc35 a2bd 35dd 153d 850c 20be de25 6cbd
00000090: df9b 13be 476a 803b c7d1 a53d 0d84 5f3c
000000a0: fcb9 c4bc 9593 ffbc 5608 4bbd c09f 553c
000000b0: 1851 cdbd 049e e0bc fa82 81bd 5955 4ebd
000000c0: 5f37 cc3c dea5 29bd 59a8 fdbc a0a7 d5bb
000000d0: 5e4d 7f3d ee30 37bd 389d e4bc c13c e53d
000000e0: 9ab1 b6bd 3c75 9cbd 143c 163d d975 1b3d
000000f0: f36d dfbd 8610 81bd 8e5a cbbd cadd 38bd
00000100: f196 f739 95f6 24bd e773 b9bd a117 92bd
00000110: f47d 2d3d 056d a9bd e870 a4bc ff1b acbc
00000120: ffc8 87bd 5eff 76bd 7d3a 5d3c fd69 a2bd
00000130: 1d6f 0c3c 86d4 1cbd 7a19 0fbd 4ccd e1bd
00000140: 2193 0e3d abab 5ebd cc77 233d e342 063d
00000150: 2f16 18bd 3e53 aebd 08c4 cfbd 1736 80bb
00000160: 9400 f6bd a410 173d df15 5fbd 1a6c 483b
00000170: bba8 24bd 0d99 31be b81d 0fbe 8a32 993b
00000180: b59f 86bd fe94 dbbc 16b3 c33d b1ed 8ebc
00000190: 56fe 043d 1db1 1ebe 00cf 913b 3f13 83bd
000001a0: 52ad 52bd 63d9 ac3c 1b6c 8d3c c542 94bd
000001b0: 1fc9 5dbd 13ae 88bd 0764 c83c 2323 19bd
000001c0: 9a48 0abd 7057 833d d05c 663c 80bd babc
000001d0: ae56 dfbc 4327 f83d c282 f73c 8e2e 0dbd
000001e0: 8fe0 66bd e7b2 87bd 532a d7bd d83c 373d
000001f0: 83d5 a8bd 1618 b73d 3e3b 00be 419a 93bd
00000200: c913 04bb e59a c9bd cdbf b1bc e7ca 293d
00000210: 2445 a2bc 5ed7 a0bd 8a96 f3bc 7eda 25bd
00000220: c9f3 f33b 9217 77bd e83d 813c 1672 75bd
00000230: 8beb aabd 8c5a 0fbd 73a9 6a3d 00bd 9cbd
00000240: 3cba 41bd 792c 98bc f35c b33d 36c6 90bd
00000250: 5e97 2a3c 28c6 dc3c cf22 a3bd 7fb8 16bd
00000260: 1d03 c03d cb31 1cbd bd94 99bd 00df 8fba
00000270: 1244 02be 2c3a f13c becf 2cbd 14a8 9ebc
00000280: a5e8 cb3c 9581 523d 0cc7 c33c 077b 59bd
00000290: 7d40 aebd f77c 1ebd a205 66bd 5054 6dbd
000002a0: d048 eb3b f349 3abd 6882 1abc e304 0fbe
000002b0: 747f b93c 5e4d c3bc 5763 bdbd 760c 42bd
000002c0: bdf5 c9ba e6ad 95bc 932f 17bd 9e08 e33c
000002d0: a332 d6bc 8907 bfbd 27b2 6ebd aefc 0abd
000002e0: 4841 16bd 32c0 2ebd 3ab8 903b a77b 38bd
000002f0: c394 0a3c 9f71 c2bd 3c24 503d 8e5f b4bd
00000300: 665c 653d e100 eabb 8877 fcbd 86bf c7bd
00000310: 333a dbbd a385 a0bc 1e2f adbb e067 f6bc
00000320: 01ae 9abd b098 a6bd 3c8d a23d 4eb7 3d3c
00000330: b480 98bd 7f86 e3bd 4d69 c0bd 1eb4 bdbc
00000340: 7b39 9ebd a958 acbb 7b1a a8bd 01a3 31bc
00000350: 5682 423a deff 09bc 75bd 8dbb 733b cc3d
00000360: 1a00 4e3d 4a9d e4bd 37dd 05be 0af0 83bd
00000370: 82ad 2ebd 52dd 1fbe b207 55bd b3a8 ebbc
00000380: b803 d7ba 58b4 5abd ade4 03bc c5d1 9cbd
00000390: 8d47 9cbc 9ffa b2ba c992 c3bd 403d bcbb
000003a0: d2e4 64bc f541 83bb b7c1 80bd 0241 5cbd
000003b0: fdd1 1bbd 9cbf 1ebc b8d9 453c 15db 4ebc
000003c0: c031 763b 39f1 2f3d 67de e8bd 282d f5bd
000003d0: 5af8 a03b f5f2 ec3c e07b 093c 1e70 bdbd
000003e0: d97d 753d 8bc5 6abd 6c8e 94bd 63fa 74bd
000003f0: 4ae9 dabd cccf 0ebd 1cf0 b9bd 0a8c 4fbd
0.010456909 -0.05748444 0.026309134 -0.059848905 -0.0009439937 0.07467305 -0.1039794 -0.018172774
0.02780916 0.013481885 -0.018396448 -0.03941421 0.0017998856 -0.022099493 0.0025173281 0.08623699
0.07031282 0.01716408 -0.12893629 -0.06565913 -0.026116515 -0.06282873 -0.06628979 -0.09858835
0.0119274445 0.0018125226 -0.13804096 0.0020306653 -0.10736408 0.10115442 -0.07242717 0.076977335
-0.07920405 0.036587913 -0.15629776 -0.0576533 -0.14414929 0.0039189192 0.080966525 0.013642323
-0.024014466 -0.031198302 -0.049568497 0.013038576 -0.10025233 -0.027419098 -0.0632381 -0.050374363
0.024928747 -0.04141795 -0.030964063 -0.0065202266 0.062329642 -0.044724397 -0.027906999 0.111932285
-0.089205936 -0.07639548 0.03667839 0.037954185 -0.10909643 -0.0630198 -0.09929381 -0.04513339
0.0004722397 -0.04027422 -0.0905531 -0.07133413 0.042356446 -0.08272747 -0.02007337 -0.021009443
-0.06630134 -0.06030213 0.013502714 -0.07930372 0.008571413 -0.038288616 -0.034936406 -0.110254854
0.03480828 -0.054362934 0.03990917 0.032778632 -0.03713053 -0.08511971 -0.10144812 -0.003912698
-0.12011829 0.036881104 -0.054464217 0.0030582012 -0.040199976 -0.1734354 -0.1397618 0.004675214
-0.065734304 -0.026804443 0.09555642 -0.017447324 0.032469116 -0.15497251 0.004449725 -0.06400155
-0.051434822 0.021099752 0.017263463 -0.07239298 -0.054146882 -0.06673827 0.02446176 -0.037387025
-0.033760644 0.06413162 0.014060214 -0.022795439 -0.027263012 0.121168636 0.030213717 -0.034468226
-0.0563665 -0.0662592 -0.105061196 0.04473576 -0.08243849 0.08940141 -0.12522599 -0.07207156
-0.0020153394 -0.09843997 -0.021697903 0.04145327 -0.01980836 -0.07853578 -0.029734869 -0.040491574
0.007444833 -0.060325213 0.01577659 -0.059923254 -0.083457075 -0.03499846 0.057290506 -0.076532364
-0.047296748 -0.018575894 0.08757963 -0.07069056 0.010412065 0.026949957 -0.079656236 -0.036797043
0.09375594 -0.038133424 -0.07499073 -0.0010976493 -0.1272128 0.029446684 -0.042190306 -0.019367255
0.024891207 0.05139311 0.023898624 -0.053095844 -0.08508394 -0.038693395 -0.056157716 -0.057941735
0.007180311 -0.04548068 -0.009430505 -0.13966708 0.022643782 -0.023840602 -0.09247463 -0.047375165
-0.0015408319 -0.018271398 -0.036910605 0.02771407 -0.026147192 -0.09327609 -0.058275368 -0.03393238
-0.03668335 -0.04266376 0.004416493 -0.0450398 0.008458319 -0.09494328 0.050815806 -0.08807288
0.05599632 -0.007141218 -0.12327486 -0.09753327 -0.1070446 -0.019594973 -0.005285158 -0.030078828
-0.0755272 -0.081345916 0.079370946 0.011579348 -0.07446423 -0.111096375 -0.093950845 -0.023157176
-0.07725807 -0.0052595926 -0.08208176 -0.010842086 0.0007419934 -0.00842282 -0.0043255636 0.099722765
0.050293066 -0.11162813 -0.13072668 -0.06442268 -0.04264594 -0.15611771 -0.052009292 -0.028766965
-0.0016404307 -0.053394645 -0.008050126 -0.07657198 -0.019077087 -0.0013655013 -0.095494814 -0.0057446063
-0.013970571 -0.0040056654 -0.06286948 -0.053772934 -0.038042057 -0.009689238 0.012075834 -0.012625475
0.0037566274 0.042954657 -0.11370545 -0.119715035 0.0049124183 0.028924445 0.0083913505 -0.092499
0.05993447 -0.057317298 -0.07253727 -0.0598091 -0.106890276 -0.03486614 -0.09079 -0.05067066

l2.bias f4 [256]
00000000: 1b2d 8cbd 2817 b83a 4d2a 43bd 101a d5bd
00000010: 3ce0 dbbc c577 8e3c 0eb2 b8bd 44ad c9bc
00000020: 62a4 12bd fc7e d53d d203 1bbd a846 dabd
00000030: b87e 6abc 4856 60bd d496 c9bd 7dde 673c
00000040: 25d8 86bd 5aea 7dbd ac91 3ebd df29 73bd
00000050: 8070 85bd 7deb b23d 86b9 50bd c490 a5bc
00000060: 40fc 6bbc 7ff8 abbd 0d08 dc39 3654 fbbd
00000070: 561c 82bc 1537 65bd 06f4 12bd c084 93bd
00000080: 2612 653c d167 47bd 6088 9a3a be9b b1bb
00000090: de9d f5bd ecd3 aebc 561e 76bd 8f94 fabc
000000a0: 08cb 9dbd 5986 e8bd 6cec 75bd a5fb 823d
000000b0: 80c5 9bbd a8b0 a4bd 11e6 80bd 29a2 55bd
000000c0: 7eb3 d8ba 8607 21bd 0dde 09bd 321e c6bd
000000d0: eba0 6f3c c2ea 8abd cf97 8abd d232 e9bd
000000e0: 2a27 813c 6947 90bd b78f a8bc 58ef 863b
000000f0: 4877 59bd 8b75 ecbb a398 013d ddcf f4bd
00000100: 4182 b43c c5a9 5bbd 2052 9cbb e5cc 46bc
00000110: 7898 5ebd b353 8dbb f481 71bd da0c 8a3e
00000120: 418f 8dbd 898e e7bd 6db1 f0bd 54da 1bbb
00000130: a557 a8bb c092 e0bc 7247 30bd 6861 ddbc
00000140: 7409 27bd 1597 1fbd 8625 d6bd 5cc4 c3bd
00000150: e48b 56bd feda 59bb 9724 dcbb 2c62 61bd
00000160: c7ea 92bd c79a b2bc 176b f8bd ed62 0abd
00000170: 6745 a63d 63b4 a6bd 0663 683d 0cdf 5dbc
00000180: 95f3 a1bd 0942 bfbd 3d1f 8fbd b543 d4bd
00000190: be82 30bd bf2d 87bd 000a bcbd 1f4f 61bd
000001a0: 2189 70bc 66a1 4b3c 8291 9ebd b506 c1bd
000001b0: ed71 aabd af23 533c 6c52 d4bd 614c 13b9
000001c0: a995 fcbd 2679 12bd 20ec 873b 6f98 843c
000001d0: 7a01 9bbd 48da 88bd 9e42 11bd f441 5abd
000001e0: 31d0 733c 0ba5 d9b9 e4a2 82bd 7245 d4bb
000001f0: cadb a1bd 54fd 2ebc 5e19 2cbd 965c 923d
00000200: 3c1f 81bd fbb9 4ebd 7d32 f23a d0c6 e7bc
00000210: 2055 82bd 50bf 90bb df6b 32bd b462 7d3d
00000220: 5fac 4fbd 2c64 18bd 89e9 043c 56f5 38bc
00000230: 9240 5ebd 2fb9 fabd 03ca 21bd b3fd 97bd
00000240: 5b84 28bd 8535 c6bd 775a e0bb ce9f 47bd
00000250: 60ed 20bd 82e1 8dbd 0940 b93d 8991 aebd
00000260: 3485 0fbd e679 78bd 2578 48bc 5502 0abe
00000270: 56bd 5bbb 1a16 cabd aa98 64bc 3ba2 95bb
00000280: 979d 2ebd fcd3 143b 3bbb 97bd bf90 39be
00000290: e68a 40bd 6db1 90bd cbed d3bd 072c 78bd
000002a0: 36cc b5bc 9e67 b1bd ccbf 6ebd dfe8 e2bd
000002b0: 3d8d e7bd f795 89bd 28b7 eabc 3497 86bd
000002c0: 3ca4 cbbd ce4e 1ebd bd2b 0c3c 4407 81bd
000002d0: d980 d9bc 32c1 96bd 1ca2 7dbd 9386 85bd
000002e0: f8bb b4bc 2488 f1bd c57f b5bd 08e4 67bc
000002f0: 06d0 e5bd 5d39 c3bc f59d a53d 75e7 5dbc
00000300: 801e 26be 6e9b ad3d 6e50 38bd 6588 3dbd
00000310: 9081 efbc ecf9 a1bd e7c9 c3bd 7051 bfbd
00000320: 5679 36bd 70a5 71bd 7472 2dbd d7f8 adbc
00000330: b257 4ebc af2e aebd e3b8 fbbc a1a0 98bd
00000340: 2806 42bd 7fdc 9cbd 6b54 19bd c459 a0bc
00000350: c8e3 193c d28c 733c 6204 23bd 08db 9fbd
00000360: 5dab 25bc 0468 e4bc 1d95 15bc 69fb 30bd
00000370: b13d 91ba 9462 24bd 5862 babb c70d 7dbd
00000380: 7644 6739 cbea 81bd ef80 aebd 0dd9 eabc
00000390: 7afb 2dbc 4eec b2bc e69d 9d3a ddeb babd
000003a0: 2c3e e1bc c00a cbbd 5162 b3bd 0095 00be
000003b0: f55c 313c 64bd dfbc a328 32bd e126 e4bd
000003c0: 0849 57bd 8bbf 27bc 10ce 5dbd d217 d3bd
000003d0: 40b1 67bd 1d3a 68bd f9ea bcbd 6cc0 e2bd
000003e0: 5280 ccbd d4c3 2fbc 7644 01bd f833 41bc
000003f0: 9e13 1d3d 473e 91bb 44b9 d1bc 7739 83bd
-0.06844541 0.0014044987 -0.047647763 -0.10405362 -0.026840322 0.017391095 -0.09018336 -0.024618752
-0.0358013 0.10424611 -0.03784544 -0.10658008 -0.014312439 -0.054769784 -0.09843221 0.014152166
-0.06584195 -0.061991073 -0.046525642 -0.059366103 -0.06515598 0.08736322 -0.05095818 -0.020210631
-0.014403403 -0.08397006 0.00041967668 -0.12271921 -0.015882652 -0.055960733 -0.03587725 -0.072030544
0.013981378 -0.04868299 0.001178991 -0.0054201772 -0.119930014 -0.021341287 -0.060087524 -0.030588416
-0.07704741 -0.1135375 -0.060039923 0.06395654 -0.076060295 -0.08041507 -0.06293882 -0.0521566
-0.0016532985 -0.039313816 -0.03365903 -0.09673728 0.014625768 -0.06783058 -0.067672364 -0.11386646
0.015765745 -0.070448704 -0.020576341 0.0041178875 -0.05309227 -0.0072161607 0.031639706 -0.11953709
0.022034766 -0.0536287 -0.0047705323 -0.012133812 -0.054344624 -0.0043129562 -0.058961824 0.2696293
-0.06912089 -0.11306483 -0.11752591 -0.0023781257 -0.005137401 -0.027413726 -0.043036886 -0.027023986
-0.0407805 -0.038962442 -0.10456376 -0.09558937 -0.052379504 -0.0033242102 -0.006718229 -0.055025265
-0.071736865 -0.02180232 -0.12129801 -0.03378575 0.08118706 -0.08139875 0.05673506 -0.013541948
-0.07907788 -0.09338767 -0.0698838 -0.103644766 -0.043093435 -0.06600522 -0.09181595 -0.055007096
-0.014681132 0.012428617 -0.07742597 -0.094251074 -0.08322511 0.012886926 -0.10367283 -0.00014047466
-0.12333233 -0.035760067 0.0041480213 0.016185967 -0.07568641 -0.06682259 -0.03546392 -0.053285554
0.01488118 -0.00041512432 -0.06378725 -0.006478005 -0.079032496 -0.010680515 -0.04201638 0.071465656
-0.063047856 -0.050470334 0.0018478181 -0.028293043 -0.063638926 -0.0044173375 -0.043559905 0.06186171
-0.050701495 -0.037204906 0.00811232 -0.011288961 -0.054260798 -0.12242352 -0.039499294 -0.07421436
-0.04114185 -0.09678177 -0.0068467217 -0.048736386 -0.03928888 -0.06927778 0.09045417 -0.085238524
-0.03503914 -0.060663126 -0.012235676 -0.13477452 -0.00335296 -0.09867497 -0.013952414 -0.0045664585
-0.042630758 0.002270936 -0.07408758 -0.18121623 -0.047007464 -0.07065091 -0.1034809 -0.060588863
-0.022192102 -0.086623415 -0.05828838 -0.11079573 -0.11306236 -0.06718057 -0.028651789 -0.065718085
-0.099434346 -0.038649373 0.00855535 -0.06300214 -0.026550697 -0.07361068 -0.061922178 -0.065198086
-0.022062287 -0.11793545 -0.08862261 -0.014153488 -0.11221318 -0.023831064 0.080867685 -0.013543953
-0.16222572 0.084769115 -0.04499858 -0.046272654 -0.029236585 -0.07908997 -0.09559994 -0.09341705
-0.04454931 -0.058995664 -0.04234548 -0.02123682 -0.01259415 -0.08504998 -0.03072781 -0.074525125
-0.047369152 -0.07659244 -0.037434023 -0.019574054 0.009392686 0.014865117 -0.0397991 -0.07805449
-0.010111657 -0.02788163 -0.00912979 -0.043208513 -0.0011081008 -0.040133074 -0.005687993 -0.061780717
0.0002205538 -0.06343611 -0.08520686 -0.028667951 -0.010619039 -0.021841194 0.0012025207 -0.091270186
-0.027495466 -0.0991416 -0.08758987 -0.12556839 0.010825385 -0.027311988 -0.043495785 -0.11140228
-0.052559882 -0.0102385385 -0.054151595 -0.10307278 -0.056565523 -0.056696046 -0.09224505 -0.11071858
-0.09985413 -0.010727841 -0.03155943 -0.0117921755 0.038348787 -0.004432473 -0.025601037 -0.06407445

l3.weight f4 [3, 256]
00000000: 87c9 983b e5e0 07bd e488 49bc 38e4 c4bd
00000010: d366 3dbd 3987 79bd d7ff 9e3d e2d2 ac3c
00000020: ab18 4fbd b028 4a3e 63ce f2bd 0920 863c
00000030: 1977 81bc caca a5bd d96b 413c 934d 68bd
00000040: f3a2 81bd 8cde a23c e009 b7bd 42ad 63bd
00000050: d847 973d 413e 17be ca45 a7bd 0711 a339
00000060: f1dd febc 8526 a03c dfdc dcbd e92a 3bbc
00000070: 68df 883c 25f1 09bd dd81 40bc 8716 c6bd
00000080: 3d60 b03d 36e4 12bd 6d12 a7bb 68ee c43c
00000090: 78eb 863d 4ecc 36bd a51b fabb 0bfc aaba
000000a0: c17a 093d 7ed7 d83c 0c15 53bd 8a6d ca3d
000000b0: 573a b9bd eb1a 243c 3e64 7f3c 100c 8bbd
000000c0: 767c 95bd 4c47 6cbd 5b30 97bc da6c 383d
000000d0: 0b67 08bb 61f4 123c fce7 583a 4b9f 25bd
000000e0: 10cf 3c3e bd43 643b e3a5 b9bd 11a5 7fbd
000000f0: 8e61 003e 065f 7fbc 8cf9 e53d 3393 fe3c
00000100: 6224 663c f815 25bb d681 923c cf3b 04bc
00000110: c985 9bbc 9f14 34be b08c babb 198c d2be
00000120: 9de2 a8bd ccc9 5dbd bf18 73bd 1179 8c3b
00000130: 499f 223c 72b9 80bd 37b5 03bd 8462 10bd
00000140: 6b03 2c3d bd95 3ebc 97a8 fa38 b056 853b
00000150: 82aa e5bc 4dc7 3ebd ca37 81bd 9270 40bd
00000160: 0304 83bb 9a7d cabd 8145 f13d 9292 ef3b
00000170: 538c f2bd 06ab 79bd 74af 75bd 3111 283e
00000180: cdfd 3b3d 8af8 1abd d090 64bc eca9 b1bd
00000190: dfea 18bc 96ef 8ebb c339 3b3c 553a 2fbd
000001a0: f186 45bd 7d38 4d3e 9792 adb9 5043 e9bd
000001b0: 2baa 0f3d 608c 28bb 126d de3a a6e4 34bd
000001c0: c568 243d dc6f 683c 1ccd c2bd 7a97 5dbd
000001d0: 56f0 43bd c003 f7ba 2901 cabb 7a57 c3bd
000001e0: 2cde bcbd e02b adbd 4e24 f73d 6a01 933c
000001f0: e513 813b fd4a 823c 8265 7abd afcd 3d3d
00000200: a541 873d 2be3 753a bc9f 253d 56f7 9abd
00000210: 9bb9 8abc 871a aabc aa10 fabc c9d1 203e
00000220: a42b 8c3b ba81 5c3c 33eb 8d3d 239a 3bbc
00000230: 3ae9 ee3c 2783 09bd 9576 1d3d 2213 01bd
00000240: cc5a f9bb 4bc0 4bbd bb9d 1cbb 9c41 623b
00000250: a43e 1fbd 7b53 08bd 0dce 0d3e 6e1f abbd
00000260: 5e28 f6bb 1bdc efbb 8241 ffbb 310e 993c
00000270: 4afe 5c3b e8e2 05bc a000 46bb e4eb 6a3c
00000280: 369e b63b 101d acbd ea34 5dbd 4903 3ebd
00000290: eaad 2ebd 9f9f 84bd 9e1d 2dbd fbf6 e53c
000002a0: 9aa7 40bd 5d9c a4bb 0d04 703d 81f7 b53b
000002b0: 9625 c83c 4538 2dbd cc92 46bd ba94 8cbd
000002c0: 7549 063d 4b3d 21bc 7ec3 8bbd 4bbb a2bc
000002d0: 9568 2ebb c208 923a 3485 1b3c 60bc 90bd
000002e0: efec 373c 0b41 aabd 0343 d3bd 0b39 7a3c
000002f0: 233f 11bd 9293 77bb b8b5 513d 3784 aabc
00000300: 7d49 9fbd d984 0abe 50c3 493d e919 cb3c
00000310: 1a68 b8bc b9e0 9d3b 4892 b93b 7c81 2bbd
00000320: b950 b7bb 21cc fa3b 8a74 6bbd 202f 5bbd
00000330: 6091 393c f30f 9c3b 73d0 ee3b 1d56 58bd
00000340: 05f7 32bc 4522 833c 24b9 fd3c b355 a03c
00000350: 3ff3 7f3d ceb4 a43c 8e61 3f3d 530d 6fbd
00000360: b0c4 0c3e 681d 97bc 054f 623d e40e 57bd
00000370: c23b 8cbd 2be0 55bd 2ee0 81bc a608 dabc
00000380: f099 2ebd a222 ef3c 5b0b 89bc c073 cbbd
00000390: 7513 d3bc 0543 7bbc 1efc aabb 405f e83b
000003a0: b62d f13d e92f 963c a504 e5bd 354e ad3d
000003b0: e5fe 223b 299f 18bd b4ca 35ba d875 c8bc
000003c0: 8bcd 2b3a 1e0d 37bd 790e debb 7e03 063d
000003d0: 8351 bebd e5de e4bc 6bbf 413d af7c 03be
000003e0: a6dc a63c a30e 213d 5065 a73d 9512 7d3d
000003f0: f3db 763d df75 e8bd dedb d43c 58e0 553b
0.004662696 -0.03317346 -0.012300704 -0.09613842 -0.04624064 -0.060919974 0.07763641 0.02109665
-0.050560635 0.19742084 -0.118557714 0.016372697 -0.01580386 -0.080953196 0.011805498 -0.056714606
-0.06329908 0.01988151 -0.089374304 -0.055585153 0.0738675 -0.14769842 -0.08167608 0.0003110247
-0.03111169 0.019549618 -0.10784315 -0.011423805 0.01670809 -0.03367724 -0.011749712 -0.096722655
0.08612106 -0.03586217 -0.005098632 0.024039462 0.06587881 -0.044628434 -0.00763269 -0.0013045085
0.033564333 0.026469942 -0.051533744 0.09884174 -0.090443306 0.010016183 0.015587864 -0.0678941
-0.0729913 -0.05768518 -0.018455675 0.045025684 -0.0020813372 0.008969397 0.00082743145 -0.040435117
0.18438363 0.0034830414 -0.090648435 -0.06241328 0.12537214 -0.01558662 0.11229238 0.03107605
0.01404676 -0.0025190096 0.017884176 -0.0080709 -0.018984692 -0.17585991 -0.005693041 -0.4112251
-0.08246348 -0.054147527 -0.05934977 0.004286893 0.009925672 -0.06285371 -0.03215524 -0.0352502
0.041995447 -0.01163238 0.00011952331 0.004069172 -0.028035406 -0.046576787 -0.06309469 -0.046982355
-0.003998281 -0.09887238 0.11780835 0.0073111737 -0.11843171 -0.060954116 -0.05998178 0.16412808
0.04589634 -0.03783468 -0.013950542 -0.08674988 -0.009333341 -0.004362057 0.011427346 -0.04278024
-0.048224393 0.2004108 -0.0003310635 -0.11389792 0.035074394 -0.0025718436 0.0016969761 -0.04416337
0.04013898 0.014186826 -0.09511778 -0.054099537 -0.047836624 -0.0018845722 -0.006164689 -0.09538169
-0.092220634 -0.08455634 0.120674714 0.01794501 0.003939139 0.015904898 -0.06113196 0.046338733
0.066043176 0.0009379859 0.040435538 -0.07566707 -0.016934207 -0.020764602 -0.030525524 0.15705027
0.0042776633 0.013458664 0.06929626 -0.011450323 0.029163945 -0.033572342 0.038443167 -0.031512387
-0.007609701 -0.04974393 -0.0023897726 0.003452397 -0.038878098 -0.03328274 0.13848133 -0.08355604
-0.0075121364 -0.00731994 -0.0077897916 0.018683525 0.0033720904 -0.008171774 -0.0030212775 0.014338467
0.0055730594 -0.08403981 -0.05400554 -0.04638985 -0.042646326 -0.06475758 -0.042264573 0.028071871
-0.047034837 -0.005023523 0.058597613 0.0055531864 0.024431985 -0.04228999 -0.04847984 -0.06864305
0.032784898 -0.009841274 -0.068243966 -0.019864699 -0.0026612629 0.0011141526 0.009492207 -0.0706718
0.011225923 -0.08313187 -0.10315516 0.015272389 -0.035460602 -0.0037777168 0.05119869 -0.020814998
-0.07777689 -0.1352724 0.04925853 0.024792628 -0.022510577 0.004818049 0.00566319 -0.041871533
-0.0055943397 0.0076537286 -0.057484187 -0.05351174 0.011326164 0.0047626435 0.0072880327 -0.0528165
-0.010923152 0.016007552 0.030972071 0.019572115 0.062487837 0.020105746 0.046723895 -0.058362316
0.13746905 -0.01844664 0.05525114 -0.052504435 -0.068473354 -0.052215736 -0.015853968 -0.026615452
-0.042627275 0.029191319 -0.016729048 -0.09934187 -0.025766114 -0.015335803 -0.005218043 0.007091433
0.11776297 0.018333392 -0.111825265 0.084621824 0.0024871167 -0.037261162 -0.0006934807 -0.024470255
0.00065537606 -0.044690244 -0.0067766276 0.032718174 -0.09292891 -0.027938316 0.04730169 -0.12840532
0.020368885 0.0393206 0.08173621 0.0617853 0.060268354 -0.11350607 0.025983747 0.003263494

l3.bias f4 [3]
00000000: a1be d73c 7a1f 40bd b3be b3bb
0.026336016 -0.04690502 -0.0054853796
