gespeicherte_Klassen/model.pt (torch, 354135 bytes, 6 tensors)

l1.weight f4 [256, 83]
0	0x3cfca6f0	0.03084132
1	0x3cd5fd6a	0.026121814
2	0xbcc2e14f	-0.023789076
3	0xbde1a705	-0.110181846
4	0xbdc69a53	-0.09697404
5	0xbe1e8d9d	-0.15483709
6	0x3d577924	0.052605763
7	0xbd72ea7a	-0.059305646
8	0xbd925ecc	-0.07146987
9	0xbbb58340	-0.005539328
10	0xbb9a6b10	-0.00471247
11	0x3c79c3c0	0.015244424
12	0xbd7ca43f	-0.061680075
13	0x3d9377ac	0.0720056
14	0xbcd9d4ef	-0.026590792
15	0x3cb90628	0.022585943
16	0xbd30ace6	-0.04313364
17	0x3d006cf8	0.03135392
18	0xbcfc0314	-0.030763187
19	0x3d581948	0.052758485
20	0x3dc9a39e	0.098456606
21	0xbcd52bb0	-0.026021808
22	0xbdd8abfa	-0.10579677
23	0xbdae587f	-0.08512973
24	0x3cd53d08	0.026030079
25	0x3d3e9d34	0.04653664
26	0xbb4f51e0	-0.0031634495
27	0x3c9f4e30	0.019446462
28	0xbc3f6458	-0.011681639
29	0x3b29ec00	0.002592802
30	0xbc47b7e0	-0.012189835
31	0xbdbd385d	-0.09239266
32	0x39ae3000	0.0003322363
33	0xbe0f340d	-0.139847
34	0xbcb4dd9d	-0.02207833
35	0xbde20c19	-0.11037464
36	0xbcb39ae8	-0.021924451
37	0xbdbe4981	-0.092913635
38	0xbd418e9a	-0.047255136
39	0xba246280	-0.0006270781
40	0xbd8e4b6d	-0.0694798
41	0x3b047fc0	0.0020217746
42	0x3db0f83a	0.086410955
43	0x3c6b9460	0.014378637
44	0x3d8bf2ee	0.068334445
45	0xbd8b3c76	-0.067986414
46	0x3825d000	3.953278e-05
47	0xbdc9933f	-0.09842538
48	0x3c62bfc4	0.013839666
49	0x3d217610	0.039419234
50	0x3dd80280	0.10547352
51	0x3cc35169	0.02384253
52	0xbcf56f17	-0.029960198
53	0x3d5090c9	0.050919328
54	0x3c992a71	0.018696995
55	0xbd88db62	-0.06682469
56	0x3cf99818	0.030468032
57	0x3d05edb8	0.03269741
58	0xbd1f8a98	-0.038950533
59	0x3dd750ce	0.10513459
60	0x3d284184	0.041078106
61	0xbdd04458	-0.101692855
62	0x3d5b92f8	0.053606957
63	0xbd370846	-0.044685625
64	0xbca8a9b8	-0.02058874
65	0x3d074ac0	0.03303027
66	0xbc845766	-0.016154956
67	0xbc453bc2	-0.012038173
68	0x3d9b7458	0.0759055
69	0xbd40d6c8	-0.04707983
70	0xbdafaa95	-0.08577458
71	0xbc84a1b0	-0.01619038
72	0xbc95c574	-0.01828263
73	0x3c5ba6b0	0.013406441
74	0x3d131dc0	0.035917044
75	0xbc36bbe0	-0.011153191
76	0xbab11440	-0.0013510063
77	0xbc22eec0	-0.009944618
78	0x3cd0f697	0.025508208
79	0x3c84896e	0.016178813
80	0xbd274c78	-0.04084441
81	0xbe1ebeca	-0.15502468
82	0xbcec49f4	-0.028843857
83	0xbdaac1a4	-0.08337715
84	0xbbec05a7	-0.0072028222
85	0x3d6d812c	0.057984516
86	0xbe10f33a	-0.14155284
87	0xbdfecc1d	-0.12441275
88	0x3e5ce38a	0.21571174
89	0xbdc2dc78	-0.09514707
90	0x3bb45ea0	0.0055044442
91	0xbda4dd1e	-0.08049987
92	0x3da6dcbe	0.08147572
93	0xbd2a298e	-0.041543536
94	0x3a65ac00	0.0008761287
95	0xbd936a4e	-0.071980104
96	0x3d644840	0.055732965
97	0xbd8bf3d4	-0.06833616
98	0xbd8a7ed8	-0.06762475
99	0x3cb4b550	0.022059113
100	0x3bf503f0	0.007477276
101	0x3d066456	0.03281053
102	0xbc1a0540	-0.009400666
103	0xbd994f7f	-0.07485866
104	0x3c278dd8	0.010226689
105	0x3dae6b72	0.08516587
106	0x3b8d4410	0.004311092
107	0xbc8c3bac	-0.017118298
108	0xbd2ee1b0	-0.0426957
109	0xbd992e6c	-0.074795574
110	0x3da964ac	0.08271155
111	0xbd7a88b5	-0.06116553
112	0xbc593bc8	-0.013258882
113	0xbce49300	-0.027902126
114	0xbdb87680	-0.09006977
115	0xbd40b3c4	-0.047046438
116	0x3c676ac8	0.01412458
117	0x3e484c64	0.1956039
118	0xbd740c2a	-0.059581913
119	0xbd896c4e	-0.067101106
120	0xbc5668df	-0.013086527
121	0xbd1b5684	-0.037924305
122	0xbd8ec502	-0.0697117
123	0xbdf01fb9	-0.117248006
124	0xbb4c7bec	-0.0031201793
125	0x3cf457a1	0.029826941
126	0xbd5e843e	-0.054325335
127	0x3c44c47e	0.012009738
128	0x3d288d58	0.04115042
129	0xbe0b4824	-0.13601738
130	0x3d5b9a34	0.053613856
131	0xbbcbd740	-0.006220728
132	0xbd86ace6	-0.065759465
133	0xbdbbab02	-0.091634765
134	0xbd6d7b5e	-0.05797898
135	0xbdd7151a	-0.10502072
136	0x3dc47996	0.09593503
137	0xbd62e658	-0.055395454
138	0xbdc5d49b	-0.09659692
139	0xbdd60e40	-0.10451937
140	0xbc5fe460	-0.013665289
141	0x3c7620f8	0.015022509
142	0x3dca9000	0.09890747
143	0x3d583544	0.052785173
144	0x3cae8eb8	0.021308288
145	0xbdbe024b	-0.09277781
146	0x3e392540	0.18080616
147	0x3d6cb8aa	0.057793297
148	0x3e1bd045	0.15216167
149	0x3e3ba310	0.18323922
150	0x3df1c889	0.11805827
151	0x3da064fe	0.07831763
152	0xbd23d97b	-0.040002327
153	0x3d80581b	0.06266805
154	0xbd12d94c	-0.03585176
155	0x3d119946	0.035546564
156	0x3d2d28f0	0.04227537
157	0x3c3dd506	0.011586433
158	0x3e297562	0.16548684
159	0x3cbc88c4	0.023014434
160	0x3dea9f19	0.11456127
161	0x3e78fa2f	0.24314187
162	0x3e5b33f9	0.21406545
163	0x3dba70d1	0.09103549
164	0x3e3190b9	0.17340364
165	0x3e3689ab	0.17825954
166	0xbd8ad51d	-0.067789294
167	0x3d2e5c79	0.042568658
168	0x3dfe3c08	0.12413794
169	0x3d9f570d	0.077802755
170	0x3e3f0fb5	0.18658336
171	0xbdaec2d3	-0.085332535
172	0x3e22564d	0.15853234
173	0x3d22ff07	0.039793994
174	0xbc27a134	-0.010231305
175	0x3d7c75ec	0.061635897
176	0x3d5ae32d	0.053439308
177	0x3d70ab8a	0.058757342
178	0x3e23f8a9	0.16012825
179	0x3db9cdf4	0.090724856
180	0xbd31f966	-0.043450736
181	0xbd02f242	-0.031969316
182	0xbdd54468	-0.10413438
183	0xbcfa6022	-0.030563418
184	0x3e20d921	0.15707828
185	0x3cd21faa	0.025649864
186	0x3d0bba84	0.034113422
187	0x3e2e692b	0.17032306
188	0xbcedee72	-0.029044364
189	0x3d8dd42b	0.069252335
190	0x3e274f26	0.16338786
191	0xbd9c9760	-0.0764606
192	0xbd0b9df2	-0.034086175
193	0xbc4efa1b	-0.012632872
194	0x3d66ddb2	0.05636377
195	0xbe099b6a	-0.13438192
196	0x3cd2dce4	0.025740094
197	0x3ced9872	0.029003356
198	0x3e3071c9	0.17230906
199	0x3e07e798	0.1327194
200	0x3d997451	0.07492889
201	0x3e559ca3	0.20860533
202	0x3e19f88e	0.15036222
203	0x3e80476c	0.2505449
204	0x3e393478	0.18086421
205	0x3e1573cd	0.14594956
206	0x3e4763c1	0.19471647
207	0x3e0f98f5	0.14023192
208	0x3cc2aa93	0.023762977
209	0x3ce179da	0.027523924
210	0x3d9865e2	0.074413076
211	0x3da5444d	0.08069668
212	0x3df05600	0.11735153
213	0x3cf132be	0.029443141
214	0x3d24b2fa	0.040209748
215	0x3e089447	0.13337813
216	0x3dc888da	0.09791727
217	0x3dc52074	0.096253306
218	0x3e1999ac	0.15000027
219	0x3cf71eaa	0.030165989
220	0x3d295651	0.041342083
221	0xba69ccd2	-0.0008918765
222	0xbbfbefdd	-0.007688506
223	0x3e0fa1c3	0.14026551
224	0xbc112a82	-0.008860232
225	0xbc9eb191	-0.01937178
226	0x3e0ef523	0.139607
227	0x3dea4193	0.114382885
228	0x3ca625a5	0.020281622
229	0xbcc0f490	-0.023554116
230	0xbe24270b	-0.16030519
231	0xbde89051	-0.11355651
232	0xbdc66760	-0.09687686
233	0xbb7cff61	-0.0038604366
234	0xbbf326e0	-0.0074204057
235	0xbd4a515a	-0.04939399
236	0x3cbfcbdd	0.02341264
237	0x3c96405f	0.018341241
238	0x3dc3f606	0.095684096
239	0x3d530ceb	0.05152599
240	0xbdc4281f	-0.09577965
241	0xbd4feaab	-0.050760906
242	0x3d25aff5	0.04045101
243	0xbdff9eea	-0.12481482
244	0xbd7e4e22	-0.062086232
245	0xbe2a2dfd	-0.16619106
246	0xbe1e2056	-0.15442023
247	0xbdef36f1	-0.11680401
248	0xbd0ca530	-0.034337223
249	0xbd7c2612	-0.061559744
250	0xbd859a1f	-0.06523537
251	0x3b06fb2a	0.0020596483
252	0x3e0399f4	0.12851697
253	0xbdaf2bbb	-0.08553263
254	0x3e142494	0.14467078
255	0x3b090b20	0.0020911172

l1.bias f4 [256]
0	0xbe219ce5	-0.15782507
1	0x3d9c452d	0.07630382
2	0x3c1db278	0.00962507
3	0x3d716a4a	0.058939256
4	0xbdc9cae6	-0.09853153
5	0xb9ad42ff	-0.00033047047
6	0xbe2c656e	-0.16835567
7	0x3da80f83	0.082060836
8	0x3d72cc37	0.059276786
9	0x3d387d0e	0.045041136
10	0x3db2bdd9	0.08727617
11	0xbc6e1c7b	-0.014533157
12	0xbd90a12e	-0.070619926
13	0xbbbb69e6	-0.005719411
14	0xbc633279	-0.013867014
15	0xbc8f800c	-0.017517112
16	0x3d61ba54	0.055109337
17	0x3d8e3b56	0.06944911
18	0x3ca46623	0.020068234
19	0x3d12a6e8	0.035803705
20	0xbe57407d	-0.21020694
21	0x3e098d74	0.13432866
22	0x3d2b5de2	0.04183758
23	0xbd60f46a	-0.05492059
24	0xbdd44b75	-0.10365955
25	0xbe1b1f72	-0.15148714
26	0x3d9c1711	0.07621587
27	0x3d90af1c	0.070646495
28	0x3e14035c	0.14454406
29	0x3add4827	0.0016882465
30	0x3c2b53a9	0.010456958
31	0x3c46d141	0.012134851
32	0x3d8380bd	0.06421039
33	0x3d6374b6	0.055531226
34	0x3d2ed262	0.042681105
35	0xbe09fd1e	-0.13475463
36	0xbe1b4d58	-0.15166223
37	0xbd954e8a	-0.07290371
38	0xbd26f16a	-0.040757574
39	0xbd9aa19c	-0.07550356
40	0xbd2d6f10	-0.042342246
41	0x3d9d2968	0.07673913
42	0xbda4abd9	-0.0804059
43	0xbd082c38	-0.033245295
44	0xbda0bc6e	-0.0784844
45	0x3c15a7a4	0.009134207
46	0x3be0d8ee	0.0068617975
47	0x3d45f2a5	0.048327107
48	0xbdf9d027	-0.12197905
49	0xbde539e7	-0.111926846
50	0x3ddbae66	0.10726623
51	0x3be89b77	0.007098611
52	0x3d15ee60	0.036604285
53	0x3cfcf974	0.030880667
54	0xbd2fdc30	-0.042934597
55	0xbbe32947	-0.006932411
56	0xbd2d26b6	-0.042273246
57	0xbd34408a	-0.04400686
58	0xbce88c3a	-0.028387178
59	0xbdadf7d7	-0.08494537
60	0xbdb2c0d2	-0.08728184
61	0xbd00a7c4	-0.031409994
62	0x3dc7fd52	0.09765114
63	0xbd61f18f	-0.05516201
64	0xbdd31b71	-0.103079684
65	0xbe2c73d7	-0.16841064
66	0xbd8d4bd3	-0.06899228
67	0xbcd48bc6	-0.025945555
68	0xbd5e8110	-0.054322302
69	0x3c441348	0.011967488
70	0xbd9d9f3c	-0.07696387
71	0x3d863039	0.065521665
72	0xbd7d0d4e	-0.061780266
73	0xbe2eaa56	-0.17057166
74	0xbda6f3aa	-0.08151944
75	0xbcd1697c	-0.025562994
76	0xbd92a40d	-0.071601965
77	0xbe292733	-0.1651886
78	0x3d2dc011	0.042419497
79	0xbdc91345	-0.098181285
80	0x3d242020	0.0400697
81	0x3dc98786	0.09840302
82	0x3d4693aa	0.048480667
83	0xbdb00e3a	-0.085964635
84	0x3e27cb31	0.16386105
85	0x3c929aaf	0.017896025
86	0x3c896575	0.016772011
87	0xbe24e0ce	-0.16101381
88	0x3d1da8b7	0.038490977
89	0x3e0b53c6	0.13606176
90	0x3d2e2c24	0.042522565
91	0xbd1f7d63	-0.038937937
92	0xbd8f5d84	-0.070002586
93	0x3d3c60d4	0.04599078
94	0xbc85e1ec	-0.01634308
95	0xbe005e6d	-0.1253602
96	0xbd49b4ab	-0.049244564
97	0x3e29daa8	0.16587317
98	0x3dc0592c	0.09392008
99	0xbe400e50	-0.1875546
100	0x3d15c344	0.036563173
101	0x3bbe7467	0.005812216
102	0xbc91b2fc	-0.017785542
103	0xbc940193	-0.018067157
104	0x3d6ece38	0.058302134
105	0xbd6f0d1d	-0.058362115
106	0xba9d5fae	-0.0012006664
107	0xbdec9670	-0.11552131
108	0x3dd209ac	0.10255751
109	0x3cd7e49f	0.026354132
110	0xbe28ea0c	-0.16495532
111	0xbdc03eae	-0.09386955
112	0xbd8c5342	-0.06851818
113	0xbe00d016	-0.12579378
114	0xbe111c41	-0.14170934
115	0xbe136d3a	-0.14397135
116	0xbd4c63e3	-0.049899947
117	0xbd5c88b8	-0.053841323
118	0x3cb900fa	0.022583473
119	0x3de7bd1b	0.11315366
120	0xbcb863a7	-0.022508455
121	0xbcca9088	-0.024727121
122	0x3df34771	0.11878861
123	0xbdfd00d4	-0.123536736
124	0x3dca418b	0.098757826
125	0x3df0a777	0.117506914
126	0x3cd61c0a	0.026136417
127	0xbd78c55a	-0.060735084
128	0x3e08eeba	0.13372317
129	0xbdf3f9bf	-0.1191287
130	0xbe0332af	-0.12812303
131	0xbd4378b1	-0.047722522
132	0x3c435933	0.011923122
133	0x3d8e7585	0.06956009
134	0xbc3c7382	-0.011502149
135	0x3dc5af03	0.096525215
136	0xbdacf2b2	-0.08444728
137	0xbbc5ca6c	-0.0060360935
138	0xbb1ec539	-0.002422644
139	0x3dc2ca40	0.095112324
140	0xba97cb63	-0.0011581
141	0x3dbb9d48	0.091608584
142	0xbdbd54da	-0.092447
143	0x3e2cda3d	0.16880126
144	0x3be5d3da	0.00701378
145	0xbd2d37ad	-0.042289425
146	0x3d94b9e5	0.07262019
147	0xbdc18356	-0.094488785
148	0x3e349ddc	0.17638344
149	0xbd624e58	-0.055250496
150	0x3d38a542	0.045079477
151	0xbe037be3	-0.12840228
152	0x3e2bb45f	0.16768025
153	0xbc88efe8	-0.016715959
154	0xbd4bd8f7	-0.04976746
155	0x3de0a92c	0.10969767
156	0x3d99a9cd	0.0750309
157	0xbcedcb04	-0.02902747
158	0xbc1f0445	-0.009705608
159	0xbd161013	-0.036636423
160	0xbd36364c	-0.044485375
161	0x3de4ee77	0.11178296
162	0xbdc84198	-0.09778136
163	0x3c416ccc	0.011805724
164	0xbc0b7364	-0.008511398
165	0xbde881be	-0.11352871
166	0xbdfd691d	-0.123735644
167	0x3b98423c	0.0046465676
168	0x3d0f4604	0.03497888
169	0x3d2615d1	0.04054815
170	0x3c97dd45	0.018538127
171	0xbd4125c1	-0.047155146
172	0x3d84f55d	0.06492112
173	0x3d76048c	0.06006293
174	0x3e0c4725	0.13699014
175	0x3d2ce6f7	0.042212453
176	0xbde2f902	-0.11082651
177	0xbdedc75d	-0.11610291
178	0x3dbc5594	0.0919601
179	0xbe3cc227	-0.18433438
180	0x3df617b2	0.12016238
181	0x3ce9f1fc	0.02855777
182	0xbd3c6b9a	-0.046001054
183	0x3d9781be	0.07397793
184	0xbdfc782d	-0.12327609
185	0xbdfd2442	-0.12360431
186	0xbd690623	-0.056890618
187	0x3dafca54	0.08583513
188	0x3d0b0be4	0.033946887
189	0x3d0dab6c	0.03458731
190	0xbd0efc64	-0.034908667
191	0x3d6e5032	0.05818195
192	0xbd6414c4	-0.055683866
193	0xbda19a77	-0.0789079
194	0xbc5311a3	-0.012882623
195	0x3d35adc0	0.044355154
196	0x3e0d3f5b	0.137937
197	0xbda2e483	-0.079537414
198	0x3dbc1297	0.09183233
199	0xbe410c04	-0.1885224
200	0xbd5ebb3a	-0.054377772
201	0x3d9e45e0	0.07728171
202	0xbd796ad0	-0.06089288
203	0xbd8a8725	-0.06764058
204	0x3e0d85f5	0.13820632
205	0x3d04713f	0.032334562
206	0xbe1627cb	-0.14663617
207	0x3bdd7cb8	0.0067592524
208	0xbcf30e32	-0.029669855
209	0xbd8eafd2	-0.06967129
210	0x3da8e946	0.082476184
211	0xbddb26b5	-0.10700742
212	0xbd466bc1	-0.048442606
213	0x3d08f6ca	0.03343848
214	0xbd3832b9	-0.044970248
215	0x3c1ee684	0.009698514
216	0xbc0cdfde	-0.008598296
217	0xbca6645e	-0.02031153
218	0xbd960ad5	-0.07326285
219	0xbdcd9ec8	-0.10040051
220	0x3d2aa41a	0.041660406
221	0x3dd0631c	0.101751536
222	0xbddaba13	-0.10680022
223	0xbdd0d400	-0.10196686
224	0xbd420914	-0.04737194
225	0x3e31f17c	0.17377275
226	0x3da04dcc	0.078273386
227	0xbd1ecf5d	-0.038771976
228	0xbdca3d5d	-0.09874985
229	0x3e0dd336	0.13850102
230	0xbdaaf325	-0.083471574
231	0x3d056a34	0.032571986
232	0x3b867afd	0.004104017
233	0x3dc7e694	0.09760776
234	0x3d801231	0.0625347
235	0xbdf3c0fc	-0.11902043
236	0x3d95b670	0.07310188
237	0xbc08e88f	-0.008356228
238	0xbdad4fb2	-0.08462466
239	0xbd9c3224	-0.07626751
240	0xbe062e80	-0.13103676
241	0xbd974753	-0.07386651
242	0x3dbaaa7f	0.09114551
243	0xbd26ae89	-0.040693793
244	0x3dc8e00e	0.0980836
245	0xbaf3b7cf	-0.0018594208
246	0xbe06c39b	-0.13160555
247	0xbd05cd31	-0.03266639
248	0x3d978739	0.073988385
249	0x3d919fe5	0.071105756
250	0xbe28da43	-0.1648951
251	0x3d9266e2	0.071485296
252	0xbc2de6ba	-0.0106140915
253	0xbde28231	-0.11059988
254	0xbc72c9de	-0.014818637
255	0x3dac8a1f	0.08424782

l2.weight f4 [256, 256]
0	0x3d13ae36	0.036054812
1	0x3cff1934	0.031139947
2	0xbd1dcbdf	-0.038524505
3	0xbd228f58	-0.039687485
4	0xbb701ac2	-0.0036637043
5	0xbde54562	-0.11194874
6	0xbd13d4d8	-0.036091655
7	0xbcea6974	-0.028614737
8	0xbd8862b4	-0.06659451
9	0xbc37f310	-0.011227384
10	0xbd9c53f4	-0.076332
11	0xbdde95fa	-0.108684495
12	0xbd917726	-0.07102804
13	0xbd19c39d	-0.037540067
14	0xbd942608	-0.072338164
15	0xbca82827	-0.020526959
16	0xbd4d2f80	-0.050094128
17	0xbcff2f00	-0.031150341
18	0xbd24377f	-0.040091988
19	0xbd74ad6c	-0.0597357
20	0xbca02899	-0.019550608
21	0xbac05744	-0.0014674445
22	0xbd4680c4	-0.048462644
23	0x3c8540b4	0.016266204
24	0xbd3c4747	-0.045966413
25	0xbc5d0b38	-0.013491444
26	0xbd3563b1	-0.044284526
27	0xbdf98129	-0.121828385
28	0xbdda04fa	-0.106454805
29	0xbc8394f4	-0.016062237
30	0xbd404a86	-0.04694607
31	0x3b279000	0.0025568008
32	0xbc3592b8	-0.011082344
33	0x3d465892	0.04842431
34	0xbdbf3522	-0.09336306
35	0x3bdfba00	0.006827593
36	0x3c261750	0.010137394
37	0xbdba6d19	-0.0910284
38	0xbd8099c7	-0.06279331
39	0xbd012e77	-0.031538453
40	0xbde4ccd4	-0.1117188
41	0xbd36f5bc	-0.044667944
42	0xbde3dc60	-0.111260176
43	0xbcb86d28	-0.022512987
44	0xbd9e13eb	-0.07718643
45	0xbdbf65d6	-0.093455955
46	0xbcb8a8a4	-0.022541352
47	0xbd75c77b	-0.060004693
48	0xbce238a8	-0.027614906
49	0x3c6859c8	0.014181562
50	0xbdaf8e67	-0.08572083
51	0xbd00cac4	-0.031443372
52	0xbc9f6668	-0.01945801
53	0xbdf2a2be	-0.11847447
54	0xbd2cbc15	-0.042171557
55	0xbd6567c8	-0.056007177
56	0xbddae0bb	-0.10687395
57	0xbc82097a	-0.01587366
58	0xbbe1bc50	-0.0068889037
59	0xbcac3b78	-0.02102445
60	0x3beb3b20	0.007178679
61	0x3cd3a11c	0.025833659
62	0x3c353180	0.011059165
63	0x3d0752d0	0.03303796
64	0xbd2632b3	-0.040575694
65	0xbc660c50	-0.0140410215
66	0xbd02cac0	-0.03193164
67	0xbcaa411b	-0.020782998
68	0x3cd726e8	0.02626367
69	0xbda2bb9a	-0.079459384
70	0x3d0daeca	0.03459052
71	0xbd8ebf81	-0.0697012
72	0xbd504154	-0.05084355
73	0xbd567a28	-0.05236259
74	0x3ccbec20	0.024892867
75	0x3c911a90	0.017712861
76	0xbbb7e017	-0.0056114304
77	0xbd54a8bc	-0.05191873
78	0x3c4111b0	0.011784002
79	0xbd7f46a6	-0.062323235
80	0xbc523e45	-0.012832229
81	0xbc7e79ac	-0.0155319385
82	0xbd27064e	-0.040777497
83	0x3d6cc80a	0.05780796
84	0xbd85f46f	-0.06540763
85	0xbdf74743	-0.12074139
86	0xbdada09c	-0.084778994
87	0xbd0d5940	-0.034508944
88	0x3d2060c2	0.039154775
89	0xbca26ba0	-0.01982671
90	0xbd32ad24	-0.04362215
91	0xbd1740a2	-0.036926873
92	0x3d6f4826	0.058418415
93	0xbb000616	-0.0019534878
94	0xbd5295f0	-0.051412523
95	0xbdcfe9d7	-0.10152023
96	0xbd74cd62	-0.05976618
97	0xbc6513b1	-0.013981746
98	0xbd87a2fc	-0.06622884
99	0x3d7d34d4	0.06181796
100	0x3c546a90	0.01296486
101	0xbda971cc	-0.08273658
102	0xbc46bf2a	-0.012130538
103	0x3c0f8cb8	0.008761577
104	0xbdb18217	-0.08667391
105	0xbd070ec0	-0.03297305
106	0xbde7cc25	-0.11318234
107	0x3cacda98	0.021100327
108	0x3d51b7e2	0.051200755
109	0xbd036e87	-0.03208783
110	0xbdd4f34e	-0.10397969
111	0xbdecc3d5	-0.115607895
112	0xbd9826c1	-0.07429267
113	0xbcc0323c	-0.023461454
114	0xbd59a610	-0.053136885
115	0xbd25c77e	-0.040473454
116	0x3b504fc0	0.0031785816
117	0xbd4b2330	-0.049594104
118	0xbce09a67	-0.027417375
119	0x3d5b4c14	0.05353935
120	0x3cd8ecfc	0.02648019
121	0xbdc03ed6	-0.09386985
122	0xbde696c3	-0.11259224
123	0xbc4cc710	-0.012498632
124	0xbca2d99e	-0.019879159
125	0x3d5dc20a	0.05414013
126	0x3c7c85a0	0.015412718
127	0xbaaa7158	-0.001300375
128	0xbdf0f424	-0.11765316
129	0xbd2f03da	-0.042728283
130	0xbcdd0d74	-0.026983954
131	0xbd75029c	-0.05981694
132	0x3d036b3e	0.032084696
133	0xbd4bec98	-0.04978618
134	0x3cef3b3c	0.02920305
135	0xbd52d281	-0.051470283
136	0xbdb001ce	-0.08594094
137	0xbd495b9a	-0.049159624
138	0x3ccdfb84	0.025144346
139	0xb9ccc100	-0.00039053708
140	0xbce34fa0	-0.02774793
141	0x3d18f820	0.037346005
142	0xbd806bc7	-0.06270557
143	0x3bdc5410	0.006723888
144	0x3d6e3156	0.05815252
145	0xbd6b9e8e	-0.057524256
146	0x3ccc0814	0.024906196
147	0xbd9f6208	-0.0778237
148	0x3d7f69e4	0.062356845
149	0xbd087c58	-0.03332171
150	0xbbd8f410	-0.0066208914
151	0xbd52e17e	-0.051484577
152	0xbd1a5d6d	-0.037686754
153	0x3cb5c9b0	0.022190899
154	0xbdc2124b	-0.09476145
155	0xbd81437f	-0.06311702
156	0xbddff002	-0.1093445
157	0x3ce60bd0	0.028081805
158	0x3cf902cc	0.030396841
159	0x3c83c8f4	0.016087033
160	0xbde8860e	-0.11353694
161	0xbb111430	-0.0022137277
162	0xbc18bcf1	-0.009322391
163	0xbc3f1d4b	-0.011664699
164	0x3d1aa7dc	0.03775774
165	0xbda8fb06	-0.08251004
166	0x3d10345c	0.035206184
167	0xbd1f11f2	-0.038835473
168	0xbd1584b8	-0.036503524
169	0xbd588ed2	-0.05287058
170	0xbd869b72	-0.065726176
171	0xbd82efe2	-0.0639341
172	0x3d6365ce	0.05551701
173	0xbd3a3120	-0.045457006
174	0xbd3618aa	-0.044457115
175	0x3cf451cc	0.02982416
176	0xbd83cbcd	-0.06435356
177	0xbbf8e30d	-0.007595426
178	0x3d295f9c	0.041350946
179	0x3c32efa8	0.010921396
180	0x3d6ce0ac	0.05783145
181	0xbc8a0119	-0.016846227
182	0xbc9cbe46	-0.019133698
183	0xbcf5ee34	-0.03002081
184	0xbd12140f	-0.03566366
185	0x3d0258ce	0.031822972
186	0xbd47eb63	-0.048808467
187	0xbc15eecb	-0.009151171
188	0x3d5f20d2	0.05447466
189	0xbd96a7e6	-0.07356243
190	0x3d18fb2a	0.037348904
191	0xbd004472	-0.031315275
192	0x3c81e5ec	0.015856706
193	0xbcb73e90	-0.0223687
194	0x3d0e5304	0.03474714
195	0xbdd1951a	-0.10233517
196	0x3c1d10f0	0.009586558
197	0xbdc4798b	-0.09593495
198	0xbd787349	-0.06065682
199	0x3d7d9230	0.061906993
200	0xbd517e32	-0.05114574
201	0xbdc463eb	-0.0958937
202	0xbda823c5	-0.082099475
203	0x3cdfdf34	0.027328111
204	0xbcacaaf4	-0.02107761
205	0xbccffe90	-0.02538994
206	0xbbd24320	-0.0064166933
207	0xbdbca964	-0.09211996
208	0xbdf7b025	-0.12094144
209	0xbdd92db7	-0.106044225
210	0xbcf49a1e	-0.029858645
211	0xbdc26cf9	-0.09493441
212	0xbd8f27ff	-0.069900505
213	0x3d195d5c	0.03744255
214	0xbce230cc	-0.027611159
215	0xbd1fbc3f	-0.038997885
216	0xbce2c054	-0.0276796
217	0x3c21fe38	0.009887271
218	0xbdb06027	-0.086120896
219	0x3c625190	0.013813391
220	0xbca9118e	-0.020638254
221	0xbd515128	-0.051102787
222	0xbdd3d859	-0.103439994
223	0xbc4fa950	-0.012674645
224	0xbd1c13dc	-0.038104877
225	0xbd312c74	-0.043255284
226	0xbd994963	-0.074847005
227	0xbc883920	-0.016628802
228	0xbd8825e5	-0.06647853
229	0x3bfebe60	0.0077741593
230	0xbcb98190	-0.022644788
231	0xbde0fc37	-0.10985606
232	0xbd0368fa	-0.032082535
233	0xbc5afa81	-0.013365389
234	0xbd402141	-0.046906713
235	0xbd7ad4da	-0.061238147
236	0xbcc75dd8	-0.02433674
237	0x3d2944d8	0.04132542
238	0xbdd2094f	-0.10255682
239	0x3b7996e0	0.0038084313
240	0x3b585b20	0.00330133
241	0xbd5ce070	-0.053924978
242	0xbde2554f	-0.110514276
243	0xbd89b2f2	-0.06723584
244	0xbda7c15f	-0.081911795
245	0xbb972623	-0.0046127005
246	0xbcb4c681	-0.02206731
247	0xbbb988c9	-0.005662058
248	0xbd743bc1	-0.0596273
249	0xbd7ecfba	-0.062209822
250	0xbc6380db	-0.013885702
251	0xbdbd6780	-0.09248257
252	0xbc8cf214	-0.017205276
253	0xbcf95804	-0.030437477
254	0xbd61db07	-0.05514052
255	0x3a9e7280	0.0012088567

l2.bias f4 [256]
0	0xbc61ef1c	-0.013789918
1	0x3cee8a26	0.029118609
2	0xbd9750f7	-0.0738849
3	0xbd0ff5fa	-0.03514669
4	0xbd29de2b	-0.04147164
5	0xbd765904	-0.060143486
6	0xbc6dde70	-0.014518365
7	0xbc5d100f	-0.013492598
8	0xbd9d8263	-0.07690885
9	0x3d8dd383	0.06925108
10	0xbb89495d	-0.004189654
11	0x3c370f40	0.0111730695
12	0xbca1e995	-0.0197647
13	0xbdbfa73b	-0.093580686
14	0xbdd9807a	-0.10620208
15	0xbc45441e	-0.012040166
16	0xbc0557d4	-0.008138616
17	0xbdedf3f7	-0.11618798
18	0xbd75fc39	-0.06005499
19	0xbd09ae60	-0.033613563
20	0xbd257823	-0.040397774
21	0xbd585883	-0.052818786
22	0xbda03e46	-0.07824378
23	0xbdd7ae1b	-0.10531255
24	0xbc816d2f	-0.015799133
25	0x3d36b3dd	0.044605125
26	0x3c38071b	0.011232163
27	0x3d4a4cc0	0.0493896
28	0xbddf8722	-0.109144464
29	0xbdc3dd12	-0.0956365
30	0x3cb3d05c	0.02194994
31	0xbd32beba	-0.043638922
32	0xbd90d686	-0.07072167
33	0x3d4d1a24	0.050073758
34	0x3e7dc872	0.24783495
35	0xbd2ddb1b	-0.042445283
36	0x3c7e4aae	0.015520735
37	0x3d1fe2cc	0.03903465
38	0xbd93bd84	-0.072138816
39	0xbd1ef8ba	-0.038811423
40	0xbcc03d16	-0.023466628
41	0xbb5920d2	-0.0033131135
42	0x3dcdb052	0.10043396
43	0x3cce9437	0.025217159
44	0xbd92af76	-0.07162373
45	0xbde5b329	-0.11215813
46	0xbcb00338	-0.02148591
47	0xbd81de20	-0.06341195
48	0x3d0e2eb5	0.034712512
49	0xbd98fa87	-0.07469659
50	0x3d0857ac	0.033286735
51	0xbdaa3a19	-0.083118625
52	0xbca35909	-0.019939916
53	0xba8778b7	-0.0010335658
54	0xbde265af	-0.11054551
55	0xbdda6c8e	-0.106652364
56	0xbbaa22fb	-0.0051921583
57	0xbcd371e5	-0.025811145
58	0x3df74008	0.1207276
59	0xbc274385	-0.010208969
60	0xbcce5007	-0.025184644
61	0xb9f496c6	-0.00046651642
62	0xbda65eeb	-0.08123573
63	0x3d104e86	0.035231136
64	0xbd9220a9	-0.07135136
65	0xbd15fadc	-0.03661619
66	0xbd0d77ea	-0.034538187
67	0xbd54506e	-0.051834516
68	0xbd97c2b8	-0.074101865
69	0xbd828465	-0.063729085
70	0xbce69d00	-0.028151035
71	0x3db4d430	0.08829534
72	0xbda8cae5	-0.08241824
73	0xbda7b60e	-0.08189021
74	0xbb1d2a2e	-0.002398144
75	0xbc040d4b	-0.00805981
76	0xbd511083	-0.051041137
77	0x3c1ac934	0.009447385
78	0xbc1eae8c	-0.00968517
79	0xbdd4d3f2	-0.10391988
80	0x3cd8412b	0.026398262
81	0xbd8cd7f9	-0.06877131
82	0xbba84be5	-0.0051360005
83	0x3c1a1a3f	0.009405672
84	0xbd60ff40	-0.054930925
85	0x3c8fef48	0.017570153
86	0xbbbc87d9	-0.005753499
87	0xbd73ca67	-0.059519198
88	0xbca6d16f	-0.020363538
89	0xbd42b796	-0.047538362
90	0xbbeb6d15	-0.0071846345
91	0xbd540f60	-0.051772475
92	0xbd200150	-0.03906375
93	0x3cd17826	0.025569987
94	0xbd399268	-0.04530564
95	0xbd38c2a8	-0.045107514
96	0xbd5edba0	-0.05440867
97	0xbd3e297d	-0.046426285
98	0x3a1a04c3	0.00058753433
99	0xbbcdf83c	-0.0062856954
100	0xbd578b93	-0.052623343
101	0xbdc62d12	-0.09676565
102	0xbd519cf2	-0.051175065
103	0x3b0a1726	0.0021070926
104	0xbd5612dd	-0.052264083
105	0xbd049685	-0.03237011
106	0xbdb4d3a9	-0.088294335
107	0xbd34b035	-0.044113357
108	0xbce013d9	-0.027353214
109	0xbc1d3741	-0.009595693
110	0xbc382095	-0.011238237
111	0xbd464b31	-0.048411552
112	0xbd120c24	-0.03565611
113	0xbda4648f	-0.080269925
114	0xbd6991b4	-0.05702372
115	0x3db9ec32	0.09078254
116	0xbda2b659	-0.07944936
117	0xbc9c0472	-0.019045088
118	0xbda15413	-0.07877364
119	0xbdf36126	-0.11883764
120	0xbdba1049	-0.090851374
121	0xbd899bed	-0.067191936
122	0xbd87403c	-0.066040486
123	0xbd70a0b3	-0.058747005
124	0xbd7ae889	-0.06125692
125	0xbc1ae710	-0.009454504
126	0x3db20553	0.08692422
127	0xbd3c9651	-0.04604179
128	0xbcb3486a	-0.021885116
129	0xbdcf879a	-0.10133286
130	0xbd92c062	-0.071656
131	0x3d5a20d9	0.053253982
132	0xbd86ada9	-0.06576092
133	0xbd20ae5d	-0.039228786
134	0x3b5da07e	0.0033817585
135	0xbd3a62dd	-0.04550444
136	0xbdba9bdd	-0.0911176
137	0x3be3db2c	0.0069536176
138	0xbd9faa46	-0.07796149
139	0xbde1c75d	-0.11024354
140	0xbc7d7d8f	-0.01547183
141	0xbde7f242	-0.11325504
142	0x3dc78517	0.09742182
143	0xbc3e0da0	-0.011599928
144	0x3cfbb728	0.030726984
145	0xbcd373df	-0.025812088
146	0xbc9e94b2	-0.019358013
147	0xbd99e2da	-0.075139716
148	0xbc09410e	-0.008377327
149	0xbd94339b	-0.072364055
150	0xbca60ca9	-0.020269709
151	0xbd3ac776	-0.045600377
152	0xbdbaef62	-0.0912769
153	0x3ca8756d	0.020563805
154	0xbd9dcccc	-0.077050775
155	0xbc350ab2	-0.011049913
156	0xbd9cbf04	-0.07653621
157	0xbd509795	-0.05092581
158	0xbd002499	-0.031284902
159	0xbd8020bf	-0.06256246
160	0xbdb56245	-0.08856634
161	0x3deb2f25	0.114836015
162	0x3c8cc374	0.017183043
163	0xbccc21d2	-0.02491847
164	0xbd6dc235	-0.05804654
165	0xbc0ad49c	-0.008473542
166	0xbd1bff9e	-0.038085572
167	0xbb70be00	-0.0036734343
168	0x3cec4a32	0.028843973
169	0xbc8caa6f	-0.017171113
170	0xbd28c8bb	-0.041207056
171	0xbdb98def	-0.09060275
172	0xbb1c98d4	-0.0023894804
173	0x3e2724ea	0.16322675
174	0xbcbcc57b	-0.023043385
175	0xbd4c2a9b	-0.04984532
176	0x3ca2f72e	0.019893255
177	0xbdfa995b	-0.122362815
178	0xbda26df3	-0.079311274
179	0xbd036934	-0.03208275
180	0xbc866e3b	-0.016409984
181	0xbd98c329	-0.07459099
182	0xbd588021	-0.05285657
183	0xbd223759	-0.039603565
184	0x3c4e4e66	0.012591934
185	0xbd40e107	-0.047089603
186	0xbdbfd17c	-0.09366128
187	0xbd23dab6	-0.0400035
188	0x3e04c8d5	0.12967236
189	0x3ca659e0	0.020306528
190	0xbd1f96b6	-0.03896209
191	0xbd6b2756	-0.05741056
192	0xbd1ec872	-0.03876538
193	0x3af61b69	0.0018776479
194	0xbd84a20a	-0.06476219
195	0x3dffa118	0.12481898
196	0xbd56f1de	-0.052476756
197	0xbc9aa121	-0.01887566
198	0xbcaa451e	-0.02078491
199	0xbd64c499	-0.055851553
200	0xbd383e1d	-0.04498111
201	0xbc247d28	-0.010039605
202	0x3cd4ec28	0.025991514
203	0xbdf052fd	-0.11734579
204	0xbcf9ad69	-0.030478196
205	0xbdba24a4	-0.0908902
206	0xbafb5c9f	-0.0019177384
207	0xbd80de55	-0.062924065
208	0x3d4180d8	0.047242016
209	0x3be39428	0.006945152
210	0xbd2dd9b8	-0.04244396
211	0xbd07cfd9	-0.033157203
212	0x3d2d7114	0.042344168
213	0xbd488933	-0.04895897
214	0xbd098616	-0.03357514
215	0xbd2dc0b8	-0.04242012
216	0xbde99ae5	-0.11406497
217	0xbcce73bc	-0.02520167
218	0xbd6ccd43	-0.05781294
219	0xbdf0324d	-0.11728344
220	0xbd9949f1	-0.07484806
221	0xbb9cac2b	-0.004781266
222	0x3cca1fc6	0.024673354
223	0xbd1d6c9e	-0.038433664
224	0x3c0ecb88	0.008715518
225	0xbd98eacd	-0.0746666
226	0x3d0fcd52	0.035107918
227	0x3dbb7855	0.09153811
228	0xbe0ee753	-0.1395543
229	0xbd95fcfe	-0.07323645
230	0x3acf70b3	0.0015826434
231	0xbddb5e40	-0.10711336
232	0xbdecfcc4	-0.11571649
233	0xbc6e4ce1	-0.014544697
234	0xbd9173fc	-0.071022004
235	0xbd7d3e73	-0.061827134
236	0xbd3f2989	-0.04667047
237	0xbd9c6945	-0.07637266
238	0xbd9c60db	-0.07635661
239	0xbbfbbcf1	-0.0076824357
240	0xbdab31d0	-0.0835911
241	0xbd0a13fb	-0.03371046
242	0xbc811d3b	-0.015761008
243	0xbcc6188b	-0.024181625
244	0xbd5b0c5b	-0.05347858
245	0xbddfe1d8	-0.10931748
246	0xbd1ec907	-0.038765933
247	0xbdacaf6f	-0.08431899
248	0xbd38dc51	-0.045131985
249	0xbde29f39	-0.110655256
250	0xbd115636	-0.035482608
251	0xbdcb2a68	-0.09920198
252	0xbcb726e0	-0.022357404
253	0x3d3c59b5	0.04598399
254	0xbdc85f1f	-0.09783768
255	0x3ba138ad	0.0049200864

l3.weight f4 [3, 256]
0	0xbd2f6872	-0.042824216
1	0xbd26e6fe	-0.040747635
2	0x3cb5fcb7	0.02221523
3	0x3d951db7	0.07281058
4	0xbdc628f2	-0.096757784
5	0xbd3459e0	-0.044031024
6	0x3d18c441	0.037296537
7	0xbd915d1c	-0.07097837
8	0xbcc5e4c0	-0.024156928
9	0xbc9d3744	-0.019191392
10	0xbd7f2d6b	-0.062299173
11	0xbd66dc2e	-0.056362323
12	0xbd90973a	-0.07060094
13	0xbd353fd6	-0.04425033
14	0x3d724d44	0.059155717
15	0xbcf0fb65	-0.02941675
16	0x3c94b3c1	0.01815212
17	0xbd34cf3e	-0.044142954
18	0xbdd741a4	-0.10510567
19	0xbe6e8c68	-0.23295748
20	0xbd17a016	-0.037017904
21	0xbdb510d7	-0.088411026
22	0xbd4b82c8	-0.04968527
23	0xbc862f8e	-0.016380098
24	0xbd465145	-0.04841735
25	0xbd6e24cd	-0.058140565
26	0xbd690b3d	-0.056895483
27	0xbd1afe52	-0.037840195
28	0xbd83c4de	-0.06434034
29	0xbc151daa	-0.009101311
30	0xbd56d46a	-0.052448668
31	0xbaf54802	-0.0018713477
32	0xbd36b41a	-0.044605352
33	0xbcfe80b7	-0.031067235
34	0x3ecc95d2	0.39958054
35	0xbdcc1add	-0.09966061
36	0xbd69b690	-0.05705887
37	0xbc4f2323	-0.012642655
38	0xbbe57469	-0.0070024026
39	0xbd35571a	-0.04427252
40	0xbd9f7c50	-0.077873826
41	0xbb99c255	-0.0046923556
42	0x3dd6b3a2	0.10483481
43	0x3b801a51	0.003909387
44	0xbdd5d32c	-0.104406685
45	0xbc5ea6e9	-0.013589599
46	0xbd397708	-0.045279533
47	0xbc940fd0	-0.018073946
48	0xbccf80a5	-0.025329897
49	0xbce0fdc6	-0.027464759
50	0xbcc6c6e1	-0.024264755
51	0xbc4caf0a	-0.012492904
52	0xbd19ecd8	-0.037579387
53	0xbd683ba2	-0.056697495
54	0xbca38546	-0.01996101
55	0xbd950ad2	-0.072774544
56	0xbd50687b	-0.05088089
57	0xbd17bc87	-0.037045028
58	0x3e3cc235	0.18433459
59	0xbad2f491	-0.0016094615
60	0x3ba949ee	0.005166284
61	0xbd6436cc	-0.05571632
62	0xbd4cc997	-0.04999694
63	0xbdb547d6	-0.08851592
64	0xbb042dc6	-0.0020168885
65	0xbcc1e3f6	-0.02366827
66	0xbdac81d4	-0.084232
67	0xbdc4ef40	-0.09615946
68	0xbd420473	-0.047367524
69	0xbd0e130b	-0.03468613
70	0x39031583	0.00012501147
71	0x3e375d0c	0.17906588
72	0xbce1d3da	-0.027566839
73	0xbdd5db59	-0.10442228
74	0xbd857213	-0.065158986
75	0xbd34ab04	-0.044108406
76	0xbb4b3723	-0.0031008206
77	0x3bf2664a	0.0073974477
78	0xbccd0245	-0.025025496
79	0xbde33b48	-0.110952914
80	0xbd285918	-0.04110059
81	0x3ae7efaf	0.0017695333
82	0xbda8a86c	-0.08235249
83	0x3d8d2a65	0.06892852
84	0xbd042e2c	-0.032270595
85	0xbc2c1880	-0.010503888
86	0xbd24c2d4	-0.040224865
87	0xbd73fc65	-0.059566874
88	0xbdd7d9d1	-0.10539592
89	0xbdbfd33c	-0.09366462
90	0xbddc414e	-0.107546434
91	0xbd97f6bd	-0.074201085
92	0xbd0ba9e1	-0.034097556
93	0xbc764123	-0.015030178
94	0xbd831712	-0.06400885
95	0xbd96bf09	-0.07360656
96	0xbcf72ddc	-0.030173235
97	0x3d2833d3	0.04106505
98	0xbd4d40a1	-0.050110463
99	0xbd867ca9	-0.06566746
100	0xbceace4a	-0.02866282
101	0xbd9381c4	-0.07202485
102	0xbdd1ba20	-0.10240579
103	0xbb107a63	-0.0022045604
104	0xbd893d51	-0.06701148
105	0xbdc8b0ef	-0.097993724
106	0xbda1eb62	-0.07906224
107	0xbdd7c58b	-0.10535725
108	0x3b087dac	0.002082686
109	0x3d1d1e52	0.038358994
110	0xbd9de906	-0.07710461
111	0xbdd48890	-0.1037761
112	0xbd821c28	-0.06353027
113	0xbd61c85a	-0.05512271
114	0x3d423062	0.047409423
115	0x3e403452	0.18769959
116	0xbabd067a	-0.0014421486
117	0xbceafc99	-0.028684901
118	0xbd6c3dd3	-0.057676148
119	0xbc2d8e68	-0.010593034
120	0xbcffa538	-0.031206712
121	0xbcd298c3	-0.025707608
122	0x3cab0e61	0.02088088
123	0xbc8944bc	-0.016756408
124	0xbc81ae10	-0.01583007
125	0xbdb37fdf	-0.08764624
126	0x3e071b39	0.13193978
127	0xbd73dac7	-0.059534814
128	0xbde0ab56	-0.1097018
129	0xbd85a095	-0.06524769
130	0x3cc904b3	0.024538374
131	0x3e145015	0.14483674
132	0xbd93d7ae	-0.07218872
133	0xbd56e143	-0.05246092
134	0x3bf66d13	0.007520327
135	0xbd5857c6	-0.052818082
136	0xbbb2f1c4	-0.0054609496
137	0x3c04b785	0.008100395
138	0xbcbd9ae9	-0.023145156
139	0xbdc68bf4	-0.09694663
140	0x3bb61f87	0.0055579576
141	0xbdbbc2ba	-0.091680005
142	0x3db69721	0.08915544
143	0x3ca792d0	0.020455748
144	0xbdb2e7e0	-0.08735633
145	0xbd60bcee	-0.054867677
146	0xbb631320	-0.003464885
147	0xbcc5e2dd	-0.024156028
148	0x3ce49cf6	0.027906876
149	0xbd780905	-0.060555477
150	0xbdc40b54	-0.09572473
151	0xbb0b7652	-0.0021280241
152	0xbd1f105f	-0.038833972
153	0xbd769695	-0.0602022
154	0x3b9a473c	0.004708199
155	0xbdae7f9d	-0.08520434
156	0xbc10fa72	-0.008848773
157	0xbcbeac20	-0.023275435
158	0xbc528165	-0.012848233
159	0xbd1fef88	-0.039046794
160	0xbb55be06	-0.0032614483
161	0x3d6c3402	0.057666786
162	0xbd200fd7	-0.039077606
163	0x3b222a7a	0.0024744556
164	0xbdddac19	-0.10823841
165	0xbd776687	-0.060400512
166	0xbc8b875e	-0.017032322
167	0x3c6a14a9	0.014287152
168	0xbdb4edd9	-0.08834428
169	0xbd8f6ac2	-0.07002784
170	0xbd015709	-0.031577144
171	0xbb63b52b	-0.0034745436
172	0xbc8d8abd	-0.01727807
173	0x3e16ddf5	0.14733107
174	0xbd35a580	-0.044347286
175	0xbd53bc23	-0.051693093
176	0xbd55f7c8	-0.052238256
177	0xbd79cf9d	-0.06098901
178	0xbd26c84e	-0.04071837
179	0xbbe267e8	-0.0069093592
180	0xbc8fe8ef	-0.017567126
181	0xbd8b220b	-0.067936026
182	0xbd38fbeb	-0.045162123
183	0xbdb19030	-0.0867008
184	0xbc6b364b	-0.014356206
185	0x3c604c92	0.013690131
186	0xbd8e1304	-0.06937221
187	0xbdbfb323	-0.093603395
188	0x3e0833e8	0.1330105
189	0xbb5166d6	-0.0031952164
190	0xbc929d5e	-0.017897304
191	0xba4306e3	-0.0007439686
192	0xbd677c28	-0.05651489
193	0x3c470e57	0.012149415
194	0xbd0f0942	-0.03492094
195	0x3e02409c	0.12719959
196	0xbb6e5921	-0.0036369043
197	0xbd76dcad	-0.060269047
198	0xbd88420d	-0.06653223
199	0xbd88e619	-0.06684513
200	0xbdbb84c5	-0.09156183
201	0xbd5c54e6	-0.053791903
202	0x3d7f9be7	0.06240454
203	0x3b72fc62	0.0037076701
204	0xbc1bfc23	-0.009520563
205	0xbcbcd237	-0.023049457
206	0xbbe67fda	-0.007034284
207	0x3cbfcb48	0.023412362
208	0xbd2af05a	-0.041733123
209	0xbd9b2ffa	-0.0757751
210	0xbce27d70	-0.027647704
211	0x3a9a1b96	0.0011757489
212	0xbd72c611	-0.059270922
213	0xbcf9aad0	-0.030476958
214	0xbce5df8c	-0.028060697
215	0xbde208e1	-0.1103685
216	0xbd0f0589	-0.034917388
217	0xbd180368	-0.037112623
218	0xbd1f2505	-0.038853664
219	0xbdb94b29	-0.09047539
220	0x3d805058	0.06265324
221	0xbc21a178	-0.009865157
222	0x3cf487f7	0.02984999
223	0x3ab2ed6b	0.0013651078
224	0xbd4eef05	-0.050520916
225	0x3d0ff373	0.03514428
226	0xbd850d03	-0.064966224
227	0x3e503e0c	0.20336169
228	0x3d51ab4d	0.051188756
229	0xbcbf009d	-0.023315722
230	0xbd559525	-0.05214419
231	0xbd8d9a1e	-0.06914161
232	0xbd53b833	-0.051689338
233	0xbd87b965	-0.06627158
234	0x3c4436eb	0.011975984
235	0xbd0cc795	-0.034370024
236	0xbcbf4811	-0.023349794
237	0xbb9d1d31	-0.0047947397
238	0x3b6eb407	0.0036423223
239	0xbd3eb4c7	-0.04655912
240	0x3b28eb4a	0.0025775009
241	0xbd88be11	-0.06676877
242	0xbdcef337	-0.10104983
243	0xbd76d626	-0.06026282
244	0xbd17812a	-0.036988415
245	0xbe278efb	-0.16363136
246	0xbce745ef	-0.02823159
247	0xbd9922ab	-0.074773155
248	0xbcaea5de	-0.021319326
249	0xbd1c3f56	-0.03814634
250	0xbd9666e6	-0.07343845
251	0xbdd38f91	-0.103301175
252	0xbd532b27	-0.051554825
253	0xbd4ff525	-0.050770897
254	0xbcca2526	-0.024675917
255	0xbd88e88f	-0.06684982

l3.bias f4 [3]
0	0x3d1f5acf	0.03890496
1	0x39a55bf0	0.0003153975
2	0xbd9a2736	-0.0752701
