gespeicherte_Klassen/model.pt (torch, 354135 bytes, 6 tensors)

l1.weight f4 [256, 83]
000000 ba 16 ba 3d c6 7a 36 3e f4 ff 3e 3e f1 d9 c7 3d
       0.09086366 0.17820272 0.18652326 0.09758366
000010 3d bd 22 3e 5f 03 c7 3d 1b c4 b6 3d c4 18 b0 3d
       0.15892501 0.0971744 0.08924123 0.08598474
000020 a1 4a 2c 3e d4 0a 1a 3d 32 18 29 3d a4 80 61 bc
       0.16825344 0.037607983 0.04128284 -0.0137635805
000030 5c 6a 9f 3d fc 46 ad 3c e9 7d bc 3d c3 ff 92 3d
       0.07783958 0.021152012 0.09203703 0.07177689
000040 5f 74 3f 3e 77 b7 5d 3e b2 e4 00 3e 54 ff 7f 3d
       0.18696736 0.21652018 0.1258724 0.06249936
000050 95 7b 8c 3d 0c f3 03 3e f9 82 26 3e 03 a5 19 3e
       0.06859509 0.12885684 0.162609 0.15004353
000060 ba 8a 9e 3d f8 93 2f 3e 1a ef 55 3d f0 8d 1c bd
       0.07741304 0.1714629 0.05222998 -0.0382213
000070 d0 15 a8 3d 46 45 57 3d 3e af f8 bb f2 6e ff 3c
       0.082072854 0.0525563 -0.00758925 0.031180833
000080 6e 93 00 3e 08 db 06 3e 3a 62 15 3e ee db 23 3e
       0.1255624 0.13169491 0.14588252 0.16001865
000090 0d 0f fb 3d 7b 2c 84 3d e3 2c 54 bb a9 ff 13 bc
       0.1225873 0.064537965 -0.0032375387 -0.009033122
0000a0 68 4e d8 bd 42 42 9a bd ec ff 6a bc a4 2b 8f bc
       -0.1056183 -0.07532169 -0.014343243 -0.017476864
0000b0 87 d9 2c bd 20 91 17 be 4e 33 a1 bd 1a 9a e8 3c
       -0.042199638 -0.14801455 -0.07871114 0.028393794
0000c0 f3 15 15 3c a1 ee 0a 3e 9a 87 57 bd a9 51 9e bd
       0.009099471 0.13567592 -0.052619554 -0.07730419
0000d0 81 b4 43 bb bb 34 9d bd 93 d3 1a 3d d2 65 ba bd
       -0.0029862227 -0.07676073 0.03779943 -0.09101452
0000e0 84 d6 5b bd 58 9d de 3d 00 41 e4 3d 9f c0 16 be
       -0.053671375 0.10869855 0.1114521 -0.14721917
0000f0 0a c3 37 3d ee 52 27 be 6e 87 98 bd 24 82 3a bd
       0.044863738 -0.16340229 -0.07447706 -0.045534268
000100 e1 ce 23 be 9e d0 05 be 97 e4 05 be d3 a9 7b bd
       -0.15996887 -0.13067862 -0.13075481 -0.061441254
000110 f8 89 1e bd 60 d6 b1 bb fe 08 7b bd f9 68 aa 3c
       -0.038705796 -0.005427167 -0.061287872 0.020802008
000120 d0 01 69 3d 08 e4 b9 bd 40 87 b6 bd 94 52 1a be
       0.056886494 -0.09076697 -0.08912516 -0.15070564
000130 41 a0 26 be 68 c9 df bd d0 a8 8c 3b d3 08 12 be
       -0.1627207 -0.10927087 0.004292585 -0.14261179
000140 e2 79 f0 bd f9 65 7a bd a2 3f 0b be c0 18 51 3d
       -0.11741997 -0.061132405 -0.13598493 0.051048994
000150 d7 1d 5c 3c b9 f8 09 be 3b bb aa bd 73 4e f1 bd
       0.013434849 -0.13473786 -0.08336493 -0.11782541
000160 f1 d9 6d bd 86 a7 a4 bd 50 63 7b 3c 0a 01 fc bd
       -0.058069173 -0.08039765 0.015343502 -0.12304886
000170 d2 04 9f 3d b8 6e 8c bd 02 55 ca 3d 1c ff ab bd
       0.07764591 -0.068570554 0.09879495 -0.083982676
000180 03 11 c9 bd 06 1b c4 bd 1c 15 46 3d 4e 7f df bd
       -0.09817698 -0.09575467 0.048359975 -0.10912953
000190 17 5d 0a 3d 8b f7 a2 bb ab e3 e3 bb ab e2 14 3d
       0.033780184 -0.004973357 -0.0069546304 0.03634898
0001a0 7f 81 11 3d e8 cd 20 bd b7 24 e2 bc 71 c7 87 3b
       0.035523888 -0.039258868 -0.027605398 0.0041436483
0001b0 db 1b 2e 3d d8 c6 f8 bc fd 82 c6 bd 24 a3 37 bd
       0.042507034 -0.030368254 -0.09692953 -0.044833317
0001c0 60 80 8e bc 68 0d a7 3c 28 bb 71 bc be 0f 7f bd
       -0.017395198 0.020392135 -0.014754094 -0.062270872
0001d0 90 40 7e bd ad d4 8d 39 20 6b be bc ea ed cd 3d
       -0.06207329 0.00027052072 -0.02324444 0.10055144
0001e0 3c ff aa 3d 38 35 de bd 18 49 42 bc 70 b1 cc 3b
       0.08349463 -0.108499944 -0.011858247 0.006246738
0001f0 98 94 e8 3c d0 1e fe bc a6 79 8e bd 3c 30 3f 3d
       0.028391168 -0.031020552 -0.06956796 0.04667686
000200 10 6c c1 3b 30 7f 05 3d f1 ff ab bd 98 45 9c 3d
       0.0059027746 0.032592 -0.08398426 0.076304615
000210 02 41 d1 bd e2 83 8e bd d0 2d 4f 3d 50 95 a8 3b
       -0.102174774 -0.069587484 0.0505808 0.0051447526
000220 38 03 4a 3d f9 e8 6f bd 10 16 21 3c 50 61 33 bc
       0.049319476 -0.05857179 0.00983192 -0.010948494
000230 58 c7 40 bd c0 67 9c 3c 24 10 32 bd 20 0e 04 bc
       -0.04706511 0.01909244 -0.043472424 -0.008060008
000240 24 70 6c 3d 04 69 60 3d 33 e8 b8 bd fa e3 b2 3c
       0.057724133 0.05478765 -0.090286635 0.021837223
000250 f8 1c 07 3c 00 1e 84 3c 8b a8 28 be 21 21 b3 bd
       0.008246653 0.016127586 -0.16470544 -0.08746553
000260 2a 3a c9 bd 78 79 d1 bc e6 89 91 bd 00 f1 45 bd
       -0.09825547 -0.025570616 -0.0710638 -0.04832554
000270 67 66 a9 bd f2 d7 32 bd 63 b7 34 3c 66 18 5d bd
       -0.08271485 -0.043662973 0.011030051 -0.053978346
000280 9f b7 22 be 70 cc 25 be 4e aa 1d 3a 18 45 21 bd
       -0.15890358 -0.16191268 0.0006014452 -0.039372534
000290 cc ec 00 3d f1 80 a9 bd d1 f8 41 bd 66 50 08 3e
       0.031475827 -0.08276547 -0.04735643 0.1331192
0002a0 1f c4 0a 3e 64 9f 5c 3d b3 7f 4c 3c 24 47 93 3c
       0.13551377 0.053862944 0.012481618 0.017978258
0002b0 91 b1 b4 3d 02 81 fe 3d cb 08 0f 3e 41 b5 aa bb
       0.088229306 0.1242695 0.13968198 -0.0052095954
0002c0 64 5e 24 3d 0f 95 0d 3e 2e 77 3e 3e 50 20 d0 3c
       0.04012908 0.13826393 0.18600151 0.025406033
0002d0 63 3a 34 3e fc 65 b0 3d 49 80 56 3d 0d 92 64 3e
       0.17600398 0.08613202 0.052368436 0.22321339
0002e0 e6 af e3 bc bc d5 e8 3c 77 ce b4 3d a3 12 22 3e
       -0.027793836 0.028422229 0.088284425 0.15827422
0002f0 a1 a5 33 bd 1f 9c 99 3d a0 38 ec 3d aa 4c 24 3e
       -0.043859128 0.07500481 0.11534238 0.1604487
000300 44 3c a6 bc 34 ac 55 3d fb d1 fb bc 45 2a 05 be
       -0.020292409 0.05216618 -0.030739775 -0.13004406
000310 12 34 a3 3d 6e 5a 1f 3e 37 92 36 3d 16 84 36 3b
       0.07968916 0.1556184 0.044573035 0.0027849725
000320 93 d2 ce 3d 19 7e e6 3d 2a e0 bd bd 9f cb e4 bc
       0.100987576 0.1125452 -0.092712715 -0.027929125
000330 a1 e0 97 3c 8d b1 12 be b8 a9 42 3d 7e e0 c3 bd
       0.018539729 -0.14325543 0.047525138 -0.09564303
000340 20 33 b0 3c f6 19 00 3d 4f cf 8a bd 56 45 99 bd
       0.021508753 0.03127476 -0.06777822 -0.07483928
000350 10 24 8e bd ca ac c3 bd 1c 1f b6 bd ef f7 47 bd
       -0.06940472 -0.09554441 -0.088926524 -0.048820432
000360 ac 69 d6 3d 8e 84 8a 3c 79 b7 62 bd 4a ed 94 bd
       0.10469374 0.01690891 -0.055350754 -0.07271822
000370 ad 07 db 3c 1c 4c 02 bd 21 e5 2b 3c 60 30 bc 3d
       0.026737059 -0.031810865 0.01049164 0.09188914
000380 01 20 07 3c 0a 9f b7 3c 6a d0 ab 3c 2e 80 35 bd
       0.008247376 0.022414703 0.020973403 -0.044311695
000390 4a 18 98 bd d3 1f 54 ba d9 5a 68 bc 44 a4 b9 bd
       -0.07426508 -0.00080919004 -0.014181816 -0.09064534
0003a0 b9 ff 02 be 74 20 8e bd 44 63 34 3d 20 fb b8 3d
       -0.12792863 -0.06939784 0.04403998 0.09032273
0003b0 c0 be 12 bc 89 67 a1 bd 6f 31 7f bd 62 36 cc bd
       -0.008956611 -0.07881076 -0.062303003 -0.0997131
0003c0 44 db ce bd 6a 7a b9 3a 8d 38 ae bd b0 fe dc bc
       -0.10100415 0.0014150862 -0.0850688 -0.026976913
0003d0 97 45 d0 ba 0d 01 b1 bd ef 76 f0 bd 49 9b d4 3c
       -0.001588988 -0.086427785 -0.11741435 0.025952952
0003e0 52 70 92 3d 5a f6 d2 bd ba 35 1e be e5 82 6b bd
       0.0715033 -0.10300894 -0.15450183 -0.057497878
0003f0 10 2f 9a 3d f5 ce 9b 3d dc 85 17 be d4 48 9b 3d
       0.07528508 0.07607833 -0.14797157 0.0758225

l1.bias f4 [256]
000000 3c 7a 1a 3c ad 54 ee bd 2b 7e 9e bd 55 fd 23 3d
       0.009428557 -0.116372444 -0.077389084 0.040036518
000010 ef 70 b5 3b 7d 63 a7 bd 7c a4 0c 3d 8b f4 dc bd
       0.0055371444 -0.08173273 0.034336552 -0.1078883
000020 26 d0 41 bb e7 6b 83 3c 06 95 e7 3d e6 96 a3 bd
       -0.002957353 0.016042663 0.11307721 -0.07987766
000030 0c ad d2 bd 7b 95 10 be b8 fc 0c be f4 0b 05 be
       -0.10286912 -0.14119522 -0.1376828 -0.12992841
000040 dc ab ff 3d 5c b6 ea bd 52 65 57 bd 5f 7c e4 bd
       0.124839514 -0.114605635 -0.05258686 -0.111565344
000050 f7 1b 8e bd 3b 67 ea 3b b0 bd b0 bd 5b 8a 84 3d
       -0.069389276 0.0071534193 -0.0862993 0.06471702
000060 3c a4 13 be fd 6b 0f 3d 16 b1 91 3d 87 a0 64 bd
       -0.14418119 0.035015095 0.071138546 -0.055817153
000070 6e 0a a9 3b a4 ee c0 3d e5 57 3f be c5 62 49 bc
       0.005158714 0.09420517 -0.18685873 -0.012291615
000080 40 2e 03 be 2a 66 00 be a3 68 c0 bd 52 ac 86 bd
       -0.12810612 -0.12538972 -0.09394958 -0.06575836
000090 9e a5 ab bd d8 3b fd bc 7d 65 28 be 93 93 43 bd
       -0.08381198 -0.030912325 -0.16444965 -0.04774816
0000a0 95 72 7d 3d d6 b7 12 bd f5 61 09 3c 04 c8 62 3d
       0.061876852 -0.03581985 0.008385171 0.05536653
0000b0 1e 44 91 3d 97 da bc bd 25 9b b0 bd 6c 7d be bd
       0.070930704 -0.0922138 -0.086233415 -0.09301266
0000c0 0b be aa bd 3a 18 af bb 00 ec 07 3d 61 4e 86 3d
       -0.08337029 -0.005343464 0.03318405 0.06557918
0000d0 57 c8 c8 bd fe 0d aa bd 73 f8 3c be b5 e1 c1 3d
       -0.09803837 -0.0830345 -0.18454151 0.09466878
0000e0 fe c5 ef bb 55 f8 03 be 89 71 1d 3d 97 76 0f be
       -0.0073173037 -0.128877 0.038438354 -0.14010082
0000f0 a2 98 7e 3d da e7 1f be 1e 8d 96 bd 59 eb cc 3d
       0.06215728 -0.15615788 -0.07351135 0.100058265
000100 66 17 0e ba c3 7b 3e be e9 e4 d3 3c 41 9a 37 be
       -0.0005420357 -0.18601899 0.025865989 -0.17929937
000110 28 e5 df bc 5a 42 bb bd a2 14 21 be 6c 60 c8 bd
       -0.02733095 -0.09143515 -0.15730527 -0.09784016
000120 18 15 b0 bd 4a ab 6b bd d6 de 36 3c 3d 63 5b bd
       -0.08597773 -0.0575364 0.011161527 -0.053561438
000130 46 8c 62 bd ab d3 1e 3d e8 c0 88 3b 92 62 f8 3c
       -0.055309556 0.03877608 0.004173387 0.03032044
000140 59 a9 a1 bd 9f f0 1c 3d 1c 0c ea bc 5b b9 8f bc
       -0.078936286 0.03831541 -0.028570227 -0.017544439
000150 b3 f0 9a 3d eb 19 91 3d 64 b9 03 bd 29 c4 c3 bc
       0.07565441 0.070850216 -0.032159224 -0.023897247
000160 db 3b 2e bd 39 81 05 3d 3c b3 91 3b 43 88 54 bd
       -0.04253755 0.03259394 0.004446415 -0.05188776
000170 50 c9 e8 bd e4 61 87 3d a0 7d 14 be 19 4a dd 3b
       -0.11366522 0.06610468 -0.14501047 0.006753218
000180 3f ee f3 3d 98 71 50 3d 9f d9 30 bd 86 48 9b 3c
       0.11910676 0.05088958 -0.04317629 0.01895548
000190 56 a7 d9 bc 0a e8 7b bd 39 33 09 3c 34 d1 a6 3c
       -0.02656905 -0.061500587 0.008374029 0.020363428
0001a0 33 58 39 3d 91 6f 44 bd 22 6a f7 bd d7 74 b5 bd
       0.04525013 -0.04795796 -0.1208079 -0.08860176
0001b0 64 55 89 bc 50 c5 ca bd b3 fe c2 3b 4b af 90 3c
       -0.01676435 -0.099009156 0.0059507727 0.017661711
0001c0 6b 0d 96 bd bc e9 d3 bc ce 83 44 bd bf f1 d8 3b
       -0.07326778 -0.02586829 -0.04797726 0.0066206153
0001d0 1f 93 a9 bc 96 9d 90 3c e0 51 bc bc 5a 13 e1 bd
       -0.020700036 0.017653268 -0.02298826 -0.10990019
0001e0 38 90 92 3c 58 2a 11 ba 71 4b ff bc df cb a5 bd
       0.017891034 -0.0005537621 -0.031163903 -0.08095526
0001f0 49 b9 93 bd 76 a9 f2 bb 00 71 68 bc 38 b7 4b 3d
       -0.07213075 -0.007405455 -0.014187098 0.049735278
000200 6f a0 3a 3d 62 a8 b6 3c c7 f1 1e 3c d4 8e d7 3c
       0.045563158 0.022297088 0.009701199 0.026313223
000210 f5 97 21 3d a3 89 41 be a4 50 b6 bd 01 a3 5e be
       0.03945156 -0.1890016 -0.089021 -0.21741869
000220 97 67 d8 3b 4a 86 b9 3d 39 49 25 3d e7 f3 ed bd
       0.0066041457 0.09058817 0.040353034 -0.11618786
000230 c4 56 28 bd 5a b5 0f be f5 a0 2c 3c 6e c6 e8 39
       -0.04109837 -0.14034024 0.010536422 0.0004439833
000240 52 1b 75 bd 03 07 1b be e6 ba 13 be c9 39 27 be
       -0.059840508 -0.15139394 -0.14426765 -0.16330637
000250 cf 24 a6 3d a8 67 ac 3d c4 89 37 be fc 82 be bc
       0.081124894 0.08418208 -0.17923647 -0.023255818
000260 c4 d5 17 3c c2 74 dc bd 2b 64 86 3d 4a 26 c9 bd
       0.009267274 -0.10764457 0.06562074 -0.09821756
000270 3a 11 82 3d 02 a4 70 3c b4 88 3d bd 3e b1 fc bc
       0.06350942 0.01468754 -0.04627295 -0.030846234
000280 c2 5f 25 be 0b 41 85 bc 04 2f de 3c 16 83 16 be
       -0.1614981 -0.016266366 0.027122028 -0.14698443
000290 f4 9c 57 bd 1a 5d f0 bc ad 7b 0e bd d1 03 ec bd
       -0.052639917 -0.02934127 -0.034785915 -0.115241654
0002a0 50 87 a0 3b cf d7 73 bd 33 4f 59 3e b4 71 e7 3c
       0.004898943 -0.059531983 0.21221618 0.02825246
0002b0 58 b9 26 3e 80 ec 15 3e 4b e0 eb bc e8 ad d8 3b
       0.1628164 0.14640999 -0.028793475 0.006612528
0002c0 b3 e2 2a 3e 39 91 3a bc e9 a3 b5 3c ea f6 07 3d
       0.16688041 -0.011387163 0.022172885 0.03319446
0002d0 6e ba 18 be 47 f1 21 bd 08 33 cc 3c 09 b9 69 bd
       -0.14914867 -0.03953674 0.024926677 -0.05706123
0002e0 10 f3 f0 3c 46 0c f2 bd 61 ef 62 3d 6c 41 67 3d
       0.029412776 -0.11818747 0.05540407 0.056458876
0002f0 14 69 82 3e 3c b7 f2 bd 57 0f 95 bd e3 00 03 be
       0.25470793 -0.118513554 -0.072783165 -0.12793307
000300 95 50 86 bc b1 9c 03 be 66 8a 3d be 61 02 0b 3c
       -0.016395846 -0.12852742 -0.18509826 0.008484454
000310 35 93 73 bd 2d bb 76 3e d2 7e 10 3e 65 ba cf bd
       -0.05946656 0.2409484 0.14110878 -0.10142974
000320 6f 3a b4 bd 72 7f 66 bd 39 a4 ad 3d 87 84 4b bd
       -0.08800208 -0.056273885 0.084785886 -0.049686935
000330 0d e2 75 3d 8c 99 cb 3d 46 a0 b6 39 af d2 64 bd
       0.060030032 0.09941396 0.00034833158 -0.055864986
000340 88 bc a0 bd fd 07 d3 ba a1 6b 1f be 1e 98 7e 3d
       -0.078484595 -0.0016100403 -0.15568401 0.06215679
000350 74 46 f2 bc 90 d8 b2 bb 46 c7 7a 3d b8 47 04 bd
       -0.02957461 -0.005457945 0.0612252 -0.03229496
000360 ef 6e 0b be e8 96 5e 3c 6c 6a 30 be fb 38 3b bd
       -0.13616537 0.013585784 -0.17228097 -0.045708638
000370 f4 79 04 3e 03 6a d6 bd 00 f7 9a bd ca 63 ef bd
       0.12937146 -0.10469439 -0.07566643 -0.11688955
000380 44 35 b4 bc 9f 19 da 3d fe 66 f6 bc fc 91 7a bd
       -0.021998055 0.10649418 -0.030078407 -0.061174378
000390 4b 10 be bd 4d 94 0c be fc 36 9d 3d 1b 8c dd bd
       -0.092804514 -0.13728447 0.07676503 -0.108177386
0003a0 cb cf 06 bc 4e c5 39 bd 16 e5 c8 3a f6 0d c0 3c
       -0.008228253 -0.04535418 0.0015327062 0.023444157
0003b0 e4 a1 94 bc 41 4c 06 3e 56 b9 00 be 2b 12 99 3c
       -0.018143602 0.13115026 -0.125707 0.018685421
0003c0 1d 97 be bd 38 96 f1 3c 0b 28 53 3d f2 69 f8 bd
       -0.09306166 0.029490575 0.05155186 -0.121295825
0003d0 3b e2 e2 bd 64 71 b1 bd 26 24 65 3e 89 e9 0e be
       -0.11078306 -0.08664206 0.22377071 -0.13956274
0003e0 bb d1 24 be ea cf f3 bc da db 20 be d5 bb 2a be
       -0.16095631 -0.029762227 -0.15708867 -0.16673215
0003f0 01 a8 6d 3d db da f0 3b c1 6a 28 bd 74 cc a3 bd
       0.05802155 0.0073503084 -0.041117433 -0.07997981

l2.weight f4 [256, 256]
000000 14 d2 fb 3d 29 5b e9 3d d5 6a 2b 3e 08 65 0d be
       0.122959286 0.113943405 0.16739972 -0.13808072
000010 67 cb e0 bd c8 49 8e bd be 84 3d 3e f6 b2 1e bb
       -0.10976296 -0.069476664 0.18507668 -0.0024215556
000020 8e c4 8b bc 3d 07 c1 bb e0 98 99 bd c6 47 37 3d
       -0.017061498 -0.0058907554 -0.07499862 0.044746183
000030 02 90 3a 3d c0 13 e8 bc 03 9c 92 3d 8a 25 21 3d
       0.045547493 -0.02832973 0.07158663 0.03934244
000040 5c b1 e7 3c 8e 9b 22 3e 14 39 2d bd 78 f7 5e bd
       0.028282814 0.15879652 -0.042290762 -0.054435223
000050 a8 7b 04 3e 51 98 84 3d fa fd 3c bd b6 c0 9d bd
       0.12937796 0.064743645 -0.04614065 -0.07702772
000060 cd 71 0b 3c 33 25 93 3d 65 80 25 bd 47 74 a3 bd
       0.008511019 0.071848296 -0.04040565 -0.079811625
000070 23 10 1c bd 3b 1a c6 3b a3 c2 a8 3d 10 b3 ef bc
       -0.038101327 0.0060456074 0.08240249 -0.029260188
000080 e0 fc 25 3d e9 81 43 ba cd 6c 87 3d 98 0a 61 3d
       0.040524364 -0.0007458018 0.06612549 0.054941744
000090 77 ea 34 3d d7 b2 a2 3d f1 68 80 bd e7 cd 7a 3c
       0.044168916 0.07944267 -0.06270016 0.01530788
0000a0 50 59 c5 bd be 2b 82 3d b0 f0 01 bd 7d eb 02 3c
       -0.09636176 0.063559994 -0.031723678 0.007990715
0000b0 c6 a2 25 bd 89 e5 d2 3d f0 30 eb bd 84 d0 27 bc
       -0.040438436 0.102976866 -0.114839435 -0.010242585
0000c0 9b 81 da ba 76 73 51 3e 5f 15 f7 3c b9 c9 7d bd
       -0.0016670706 0.20454201 0.030161558 -0.061959956
0000d0 4d 29 99 bd ec e3 e6 3b bc 87 26 3c d6 ea 14 bd
       -0.074785806 0.0070462134 0.0101641975 -0.03635677
0000e0 34 3d 7d 3d 39 b5 2d 3d 47 e7 85 bc 8c 0b f6 3c
       0.061825946 0.042409156 -0.016345633 0.030034803
0000f0 20 ab a9 bd 51 72 92 3a d8 3d d7 3c 1f 04 ea 3d
       -0.08284593 0.0011172985 0.026274607 0.11426567
000100 75 de 51 3d 6f d7 cf bd 04 f3 a6 3d 01 d7 2f 3d
       0.051237542 -0.101485126 0.0815182 0.042929653
000110 ab c0 be bd cb c9 84 3c 57 93 f3 3c 66 18 39 bd
       -0.09314092 0.016209504 0.029733343 -0.045189284
000120 7d ec 42 3c 13 c8 6c 3d 99 e0 45 3e e7 54 a7 bb
       0.0118972035 0.057807993 0.19323958 -0.0051065567
000130 ff 67 c5 3d 1b 0d e1 3d 22 55 1c 3d 3a 62 59 3d
       0.09638976 0.10988828 0.038167126 0.05307219
000140 98 2d b9 bc b5 3e c7 3d 45 1c 12 3d 44 06 07 be
       -0.022604749 0.09728757 0.03567149 -0.13185984
000150 5e ca 07 be fd ff e0 bd 04 cd a0 bc c9 83 94 bd
       -0.1326079 -0.10986326 -0.019629009 -0.072516985
000160 f0 82 69 bd 49 3b bd 3d 00 ae 47 bd b1 c0 9d 3b
       -0.057009637 0.09239823 -0.048749924 0.0048142304
000170 5e 4c b5 3c 9d e7 ac 3d fa 62 d6 bd 27 56 df 3b
       0.022131141 0.08442614 -0.10468097 0.00681569
000180 2f aa f3 bd 27 0a 4b bc ff a0 fd 3d ac 2b 06 3d
       -0.11897694 -0.012392557 0.12384223 0.032756492
000190 7b 3e df bd ad 00 0c be 15 0f 8f 3d 55 ba 58 bd
       -0.10900589 -0.13672133 0.069852985 -0.052912075
0001a0 a2 07 a5 3c c5 87 ac bd b7 a2 3a 3d fd 7d 3c bd
       0.020145241 -0.084243335 0.045565333 -0.04601859
0001b0 e4 af 16 3e 87 2c 13 3d 6d 43 76 3d b7 e5 e6 3c
       0.14715534 0.035931136 0.060122896 0.028185708
0001c0 84 38 14 3d 82 91 8e bd 12 c1 16 3d a4 5f 00 3e
       0.03618671 -0.06961347 0.03680522 0.12536484
0001d0 c0 cd e6 bd 75 46 3b bd b2 19 51 3d b4 c2 bc 3c
       -0.112697124 -0.04572149 0.051049896 0.02304206
0001e0 1d 75 9b 3d 79 60 dd bc 3e ad 09 be 2a 19 b3 bd
       0.07590697 -0.02702354 -0.13444993 -0.08745034
0001f0 1b 8f e9 bd e0 2f 0d 3d a5 44 5d bd 03 3f 89 bd
       -0.11404248 0.034469485 -0.054020543 -0.06701472
000200 78 9d f4 3d 6c 00 c1 3c 2e 08 c9 bb e4 35 d2 bd
       0.11944097 0.023559771 -0.0061350083 -0.10264185
000210 84 ce b8 3c 00 ad 25 bd b5 be 8e 3d ae b8 0a bd
       0.022559412 -0.04044819 0.06969968 -0.03386753
000220 85 dc f8 bd 8f 3f 9b 3c 38 85 92 bc 11 33 85 bd
       -0.12151436 0.018951206 -0.01788579 -0.06503881
000230 a6 34 49 3c 1e a3 e6 bd d8 47 c7 3c 5b e6 bb bc
       0.012280619 -0.11261581 0.02432625 -0.02293699
000240 6d 4f 5e 3d 74 5c 5c 3d 57 25 e6 bd ce 2a 4f bd
       0.054274965 0.053799108 -0.11237591 -0.05057793
000250 02 57 20 3e 57 a4 a0 3d d5 49 3e bd 07 8b 90 bd
       0.15658191 0.07843845 -0.04645713 -0.07057767
000260 70 10 9f 3d 50 bc 9c bb d1 18 10 bd fa 24 2c bd
       0.07766807 -0.004783191 -0.035179917 -0.04202745
000270 66 64 40 be ac df 71 bd cc 66 0b 3d fc 6e 79 3a
       -0.18788299 -0.0590512 0.03403358 0.0009515134
000280 a4 4a c8 3c 47 67 87 3d 82 6e 14 be 14 54 78 bc
       0.024449654 0.066114955 -0.1449528 -0.015156765
000290 98 15 41 bd a8 6f 00 ba f0 d1 b1 3c 58 cc 5f 3d
       -0.047139734 -0.00048994506 0.021706551 0.054638237
0002a0 1a 9d 6b 3c f8 23 c6 bd 09 f9 0c 3e 9f 79 00 3e
       0.014380718 -0.09674829 0.13766874 0.12546395
0002b0 7c 86 dc 3d 59 23 3b bd ea b6 7b bd 15 4f 2d bd
       0.10767838 -0.045688007 -0.061453737 -0.042311747
0002c0 b4 fd 96 bd 56 34 80 bc f5 30 d4 bd 5f eb 20 bd
       -0.07372609 -0.015649956 -0.103609 -0.039286967
0002d0 ae 95 0e bd 3c f6 e3 3d 89 30 12 3d d9 99 55 bc
       -0.034810714 0.1113095 0.035690818 -0.013037168
0002e0 f2 ca 71 bd 30 42 cc 3d 81 90 14 be d6 49 2a be
       -0.059031434 0.09973562 -0.14508249 -0.16629729
0002f0 95 9f 51 3d ba 9e 7d 3d 61 33 6f 3d 5f d8 a8 bd
       0.05117758 0.06191895 0.058398608 -0.082443945
000300 27 5e 79 bd 28 3f 92 3d e3 1e 06 3c ef 64 ba bd
       -0.060880806 0.07140952 0.008186075 -0.09101283
000310 80 c1 ae 3d a1 ff 3f 3e 26 50 42 bd 5f 72 e5 bb
       0.08533001 0.18749858 -0.047439717 -0.0070021595
000320 54 12 e1 3c 65 f7 01 be 7e c7 c4 bd 0a f6 d8 3d
       0.02747456 -0.1269203 -0.096083626 0.10593803
000330 32 21 10 3e db 6f 28 bd d7 ba 31 3e 93 f3 e0 bd
       0.14075163 -0.0411223 0.1735643 -0.10983958
000340 80 d5 27 bd ba 1f 2c bd 92 99 74 ba 8a 10 1b bd
       -0.040975094 -0.042022444 -0.0009330745 -0.03785757
000350 43 c5 26 bd 91 38 02 be 8f 27 b4 bd 96 81 0c 3d
       -0.040715467 -0.12716891 -0.08796608 0.03430327
000360 14 a2 e7 bd 86 40 6d bd b7 0e f1 bc a0 90 6d bd
       -0.11310211 -0.057922862 -0.029425962 -0.057999253
000370 0e 23 9d bd 16 7b 63 bb 6c 63 e0 bc 01 53 31 bd
       -0.07672702 -0.0034710816 -0.027391158 -0.04329205
000380 87 70 b7 3b e5 22 9d bd 51 fd db bb 02 e1 f5 3d
       0.005598131 -0.07672671 -0.0067135473 0.120058075
000390 d0 87 8a bd d0 06 e6 3b ec 84 1b be 0c 7d a3 bc
       -0.067641854 0.007019855 -0.15187424 -0.019957088
0003a0 d5 d7 3c 3d 58 de 34 bc c3 4a 9e 3d 39 a3 8e bd
       0.04610427 -0.011039339 0.077291034 -0.06964726
0003b0 62 4d c0 3d c6 4f 3b 3e 34 e5 70 3d 9f 42 6b bd
       0.093897596 0.1829215 0.058812335 -0.05743658
0003c0 1e 5a 16 3c 0a 90 3f 3e 0f 8f 3f 3e 5f 9e 4e bc
       0.009176759 0.1870729 0.18706916 -0.012611001
0003d0 3f b1 c6 bc ec 9f a6 bd 5a d0 52 3c 3f 70 a4 bc
       -0.02425444 -0.081359714 0.012867058 -0.020073054
0003e0 49 1e c4 3d de d4 8f 3d 2f ef 85 3d 24 a5 b8 3d
       0.09576089 0.07023023 0.06539761 0.09015873
0003f0 9f f1 d1 bc 9c 36 1d be 59 b1 ed bd d6 03 96 3c
       -0.02562791 -0.15352863 -0.11606092 0.018312376

l2.bias f4 [256]
000000 30 45 65 3d 27 0e b0 bc 94 81 a7 b8 25 78 ce bd
       0.055974185 -0.021491123 -7.987316e-05 -0.100815095
000010 11 48 0a 3e 2f fd df bd d9 62 9a bd df 7f 25 bd
       0.13504054 -0.10936963 -0.07538385 -0.04040515
000020 d3 23 8a 3e 75 dc bb bd 81 5d b5 3d bb bc 6a 3c
       0.26980457 -0.09172908 0.08855725 0.014327223
000030 81 bd 8f bd 40 7e 9c bd 9c 5f bb bc 09 9d a6 3c
       -0.07018567 -0.07641268 -0.022872739 0.020338552
000040 40 b8 16 bd a2 eb 3d 39 11 86 ba 3a e7 46 a5 bd
       -0.03679681 0.00018112225 0.0014230629 -0.08070164
000050 cb 5f 17 bd ea d6 39 3d ea 31 9a bb 1b 33 de bc
       -0.03695659 0.045370974 -0.0047056573 -0.027123978
000060 15 9a 2b 3d 52 2b 90 bd 5c f2 d1 bc 98 9a 77 bd
       0.04189499 -0.07039513 -0.025628261 -0.060450166
000070 b1 3c 2d 3e 16 eb 0a bd 55 4c ab bd 75 34 b9 bd
       0.16917683 -0.0339156 -0.083641686 -0.090432085
000080 71 66 86 3d 2d fc 61 bd 93 3b cd bd 49 69 27 3e
       0.06562508 -0.055172134 -0.100211285 0.16348757
000090 8a e6 8b bc 71 51 35 3d b6 4e 25 bd f8 d1 5b bd
       -0.017077703 0.04426712 -0.040358268 -0.05366704
0000a0 27 dc e7 bb d3 b9 56 bd ea cf 53 bd 17 51 e1 bd
       -0.0070758048 -0.05242331 -0.051711954 -0.11001795
0000b0 63 b7 d2 bc 93 8b 1b be 4c d7 67 bd 85 73 85 bc
       -0.025722211 -0.15189962 -0.056601807 -0.016290436
0000c0 16 bc 05 bd f8 93 90 3c 81 58 7a bc ac ac dc bc
       -0.032650076 0.017648682 -0.01527989 -0.026937805
0000d0 3e cc 60 bd 26 df a7 bd de 12 51 3b 4f a0 ee bc
       -0.05488228 -0.08196859 0.0031902115 -0.029129175
0000e0 e5 11 11 bd 16 96 19 bd 3e ab 44 bd 0a 94 c2 bd
       -0.035417456 -0.03749665 -0.04801487 -0.095008925
0000f0 3a f9 01 bd fb 10 bf bd d1 6e 16 bd 10 b6 88 3c
       -0.03173182 -0.09329411 -0.036726777 0.016688377
000100 6d 0f c0 bd b1 62 d4 bc de 20 6a 3d 95 f6 df bc
       -0.09377942 -0.025925966 0.05716025 -0.02733926
000110 c2 95 0d bd e7 91 b3 bd e6 96 3e bd 8a ae 00 3c
       -0.03456665 -0.08768063 -0.046530627 0.007854113
000120 39 e9 80 3b c0 97 1a 3e cd 26 e2 3d 08 e9 80 bc
       0.0039340523 0.1509695 0.11042557 -0.015736118
000130 b7 c9 90 ba 76 1b ad bd 70 5c bc 3c 78 10 28 3e
       -0.0011046444 -0.084525034 0.022993296 0.16412532
000140 ea f2 97 bd 15 58 87 bd 99 e9 34 bd fa 24 e5 3c
       -0.07419379 -0.06608597 -0.04416809 0.027971733
000150 06 80 9f 3d 4d 1b 51 bd a6 b6 94 bd 10 08 dc bb
       0.077880904 -0.051051427 -0.072614 -0.0067148283
000160 5e 62 c8 bd a5 da c2 bc 20 13 d2 bd 19 1c b8 bd
       -0.09784387 -0.023785898 -0.10257554 -0.08989734
000170 99 5f c3 bd 90 47 76 bc 4d aa ac b9 eb 82 87 3c
       -0.09539718 -0.01503171 -0.0003293328 0.016541919
000180 13 85 6c bd 80 bd aa bc 17 cf 14 bd f7 85 df 3c
       -0.057744097 -0.020842314 -0.03633031 0.02728556
000190 26 0f e4 bd 81 c7 86 bd 8e 22 93 bd 41 55 4a bc
       -0.11135702 -0.06581021 -0.07184325 -0.012349428
0001a0 34 5c d4 bb 77 27 71 bd b6 27 b4 3c f7 eb 1d bd
       -0.006480718 -0.058875527 0.021991592 -0.03855511
0001b0 7f 7d e3 bd a7 21 25 bd 13 bf a2 bd c4 62 95 bc
       -0.11107921 -0.040315297 -0.07946601 -0.018235572
0001c0 8f 4a a4 bc 4d c2 1b bd 79 83 98 bd 49 75 a0 3d
       -0.020055084 -0.038027097 -0.074469514 0.0783487
0001d0 bb 60 48 bd 74 80 3a bd 40 2e 89 bd d7 7c 41 bd
       -0.048920374 -0.04553266 -0.066982746 -0.047238197
0001e0 a4 6b a3 bd df 4e 98 bc 5e 29 0a 3d 81 93 37 bd
       -0.07979515 -0.018592296 0.033730857 -0.044818405
0001f0 33 fe 95 bd f7 e2 b0 bd 68 b5 b3 bd 49 e5 4c 3b
       -0.07323875 -0.0863704 -0.08774835 0.0031264594
000200 43 b4 d1 ba 5d e8 40 bd 95 f6 04 bd fd b4 db 3c
       -0.0015999157 -0.0470966 -0.03246172 0.0268197
000210 04 0f 76 bd f1 80 ca 3c 72 8a ab 3b ab d1 32 bd
       -0.060072914 0.024719687 0.00523501 -0.043656986
000220 47 da 8e bd d9 d4 68 bd 0b 57 4f bd 11 85 f3 bc
       -0.06975227 -0.056843612 -0.05062012 -0.029726537
000230 e6 e8 3a bd 15 13 c8 bc 0f 2e 48 bd 8f 6d 91 bd
       -0.045632266 -0.024423162 -0.04887205 -0.07100975
000240 c4 f2 04 bd 02 22 19 3d 36 a8 98 bd 85 44 a8 3c
       -0.03245808 0.037385948 -0.07453959 0.020540485
000250 9b 7c bc bb bd d6 09 bd 01 67 06 bb c5 b5 8e bd
       -0.005752159 -0.033652056 -0.0020508172 -0.069682635
000260 c5 d6 ef bb 99 4c b6 bd 55 49 0e bd 73 63 ac bd
       -0.0073193037 -0.089013286 -0.034737904 -0.08417406
000270 45 46 ee 3d ea b7 86 bd fe 3b 03 bc 72 4c c2 bc
       0.116344966 -0.065780476 -0.008009909 -0.023718093
000280 41 12 48 3d 05 d8 5f bd e7 02 0d bd 80 d8 41 bd
       0.048845533 -0.05464937 -0.034426596 -0.04732561
000290 b1 a3 8f bd c0 7a 8c 3d 57 28 ee bc cc 9c 44 bd
       -0.070136435 0.0685935 -0.02907197 -0.048001096
0002a0 74 92 26 bd c7 b9 09 3c 26 f5 a4 bd 6f 3a 9a 3a
       -0.040667012 0.008406109 -0.08054571 0.0011766682
0002b0 77 d8 87 bd 2c 70 37 bd 0e 18 67 bb 25 fb a3 bd
       -0.06633084 -0.04478471 -0.003526214 -0.080068864
0002c0 48 de 1f 3c 87 c8 3e bc 93 eb 82 bd a8 da 25 bc
       0.009757586 -0.011644489 -0.063925885 -0.0101229325
0002d0 a8 2b de bc ca f3 dd 3c de 7b 85 bd a7 02 e0 bd
       -0.027120426 0.027093787 -0.065177664 -0.10938006
0002e0 4f a5 69 bd bb 72 b8 bc f7 d3 2b 3d 32 b5 c2 bd
       -0.057042416 -0.022515645 0.041950192 -0.095072165
0002f0 7b e5 2d bd 5e b0 a8 ba ae 86 2c bd e6 29 96 bd
       -0.042455178 -0.0012869944 -0.042120628 -0.0733221
000300 a0 56 1e 3c 48 3a 82 3b 05 f6 bc bb f3 ae 2c bd
       0.009664208 0.003974233 -0.0057666325 -0.042159032
000310 4f f2 35 bd 03 8a 1c 3c 86 d9 c8 ba 4e ad f4 bc
       -0.044420537 0.009554389 -0.0015323616 -0.029867794
000320 cd 53 7d bd aa 20 a5 bd b9 fb 37 3a 2b a9 6d 3c
       -0.061847497 -0.08062871 0.00070184056 0.014505665
000330 45 8d 53 bc 07 ce 37 bd 27 98 03 bd 35 0d cd bd
       -0.012912099 -0.044874217 -0.032127526 -0.10012285
000340 ab 3f bb bc c6 78 9a 3d 1f c4 96 bc 37 3f 55 3d
       -0.022857508 0.07542567 -0.018404065 0.05206224
000350 5a 20 96 bb 53 29 d4 ba df 22 be bc 83 5b 2e bd
       -0.0045814933 -0.0016186632 -0.023209987 -0.04256774
000360 49 67 a4 bc 23 8b 3f bc 43 c5 c2 bd 80 e7 c4 3d
       -0.020068781 -0.011690888 -0.09510281 0.096144676
000370 06 d5 d5 bd 15 31 ad 3c df 9a 56 bd 97 d0 bf bd
       -0.104410216 0.021141568 -0.05239379 -0.09365957
000380 90 d2 15 bc e6 42 5c bd 85 0f d1 bd 3e 9a e8 bd
       -0.00914444 -0.053774737 -0.10208038 -0.11357544
000390 b2 8f 26 bc d1 72 e7 3b 2a 94 b5 bd 91 b5 c0 bd
       -0.010166096 0.0070632477 -0.08866151 -0.09409631
0003a0 de 91 91 bd 16 e0 d6 bd 5c c8 0b 3d f1 26 93 3b
       -0.071079 -0.1049196 0.034126624 0.004490726
0003b0 63 51 9a 3c c1 db d2 bd d7 31 f7 3c ea 3b 69 3d
       0.018837636 -0.10295821 0.030175133 0.056941904
0003c0 86 c8 88 bc c2 0a 1d 3d 78 be 46 bd c5 1c a4 bd
       -0.01669718 0.038340338 -0.04852149 -0.080133
0003d0 d5 66 2f bd bc 3a 46 bd 3f d0 3b bd e9 ed ab bd
       -0.042822678 -0.048395857 -0.045852896 -0.08394987
0003e0 9e d0 3b 3c ae 40 ca bd ff 99 71 3d 82 a2 79 3b
       0.011463312 -0.09875618 0.058984753 0.0038091247
0003f0 82 f9 8c bb 81 d4 ab bd 59 0d e9 3c 56 9d 1e bc
       -0.0043022046 -0.08390141 0.028448747 -0.0096810665

l3.weight f4 [3, 256]
000000 81 3d e5 3d 0d 2c d5 bd dd 23 55 bc 52 44 2a bd
       0.111933716 -0.10408793 -0.013009039 -0.04156906
000010 e1 4f 3d bf ca b9 48 3d 12 3e 80 bd 20 26 21 bd
       -0.7395001 0.049005307 -0.06261839 -0.039343
000020 e4 22 94 bf 29 d2 b0 bc ae 65 84 bd 12 9c a8 3c
       -1.1573148 -0.021584587 -0.06464706 0.020582233
000030 ef 8e 93 bb d6 70 39 bc 60 c0 30 3c b0 c4 15 3e
       -0.004503123 -0.011318406 0.010788053 0.14625812
000040 8c 91 2f bd dc fb f4 bc a7 af a6 bc 4a f8 90 ba
       -0.042863414 -0.029905252 -0.02034743 -0.0011060324
000050 5e a2 19 bc f0 2b c5 bd 05 57 de bb 72 c8 97 bd
       -0.00937709 -0.09627521 -0.006785276 -0.07411279
000060 3e 38 45 bd 9c 04 e5 bd 88 cf 4c bd 19 c0 79 bd
       -0.04814934 -0.1118252 -0.050002605 -0.060974214
000070 d0 32 30 3d e3 b8 c6 bd bf 84 1e 3c f3 f9 ce bc
       0.04301721 -0.09703233 0.009675204 -0.02526567
000080 8d 50 3e 3e 02 d3 12 bd f4 e1 b6 b9 10 25 b7 bc
       0.18585415 -0.035845764 -0.00034882093 -0.02235654
000090 ad ef 53 ba d5 0b 02 be c7 2b b2 bc 7b 63 ad 3c
       -0.00080847257 -0.12699826 -0.02174939 0.0211656
0000a0 a0 07 63 bc e1 bf bc bd 7e 7c 5c bd 9a ff 7f 3d
       -0.013856798 -0.092162855 -0.053829663 0.06249962
0000b0 1c 74 45 bc f7 d3 6e bd 97 50 58 bc d9 ed 9b bc
       -0.012051608 -0.058307614 -0.013202808 -0.019034313
0000c0 fe 7c 24 bd 50 d8 08 bd 09 e5 fd bc 5b 83 b6 bb
       -0.040158264 -0.033409417 -0.030993002 -0.005569858
0000d0 dd 5e a8 3b bd 85 9e bc 74 08 64 bd 83 99 e0 bd
       0.0051382617 -0.01935088 -0.055672124 -0.1096678
0000e0 22 cf 95 bc f9 db 5b bd 64 c9 c1 bd 83 8b 91 bd
       -0.018287245 -0.05367658 -0.0946224 -0.07106688
0000f0 d0 ee 6f 3a 8d d4 8d bc 58 38 5d bd 1f 3a 68 bd
       0.00091527123 -0.017313266 -0.05400881 -0.056696054
000100 b3 12 29 bd 31 96 8d bd e8 ad 30 3e 03 50 f2 bd
       -0.0412776 -0.06913412 0.1725384 -0.11831667
000110 a2 5d a0 3d 34 f8 31 bd a9 69 47 bd b0 dd 9e 3d
       0.07830359 -0.043449596 -0.04868475 0.07757127
000120 d8 e0 82 3b 5f 2e a5 bd a6 05 c2 bd c5 36 1a bd
       0.0039940886 -0.08065485 -0.094737336 -0.03764989
000130 c5 10 b1 bd ed 04 f9 bc ae d6 2e 3e 89 d5 8b 3d
       -0.08645777 -0.030397857 0.17074081 0.06827838
000140 29 7f ef bb b5 b2 8d bd a6 d4 b1 bc b1 38 81 bd
       -0.00730886 -0.06918851 -0.021707844 -0.06309641
000150 5b 27 d5 bd 8d 29 99 bd 7b b7 09 3c 86 70 95 bd
       -0.10407897 -0.07478628 0.008405562 -0.07296853
000160 cf dc bd bd 05 8b 27 bd ab 55 48 bd bb 47 57 bd
       -0.092706315 -0.040904064 -0.048909824 -0.052558642
000170 70 3e 63 bc 05 79 86 bd 4d f8 a9 3d ed c4 2a bd
       -0.013869867 -0.065660514 0.08299313 -0.04169171
000180 43 eb 3e bd 30 28 3b bd 4b 5b 1c bc 16 14 4a bd
       -0.04661108 -0.045692623 -0.00954325 -0.04933556
000190 64 a1 5b 3d 92 1e de bd 95 29 98 bb 67 79 e8 bc
       0.05362071 -0.108456746 -0.004643629 -0.028378202
0001a0 9f fb d5 bc 04 8e 81 bd 2b 76 04 be a9 51 22 3c
       -0.026120959 -0.063259155 -0.12935703 0.009907165
0001b0 86 81 ba bd 1f 01 12 bd 26 10 08 bd 83 bd 00 be
       -0.09106736 -0.0356456 -0.033218525 -0.12572293
0001c0 e1 b7 db bc 27 2c 0f bc ed ad ea bd 04 23 ca bd
       -0.026821079 -0.008738554 -0.11458955 -0.0986996
0001d0 99 e2 98 bd a1 5b aa bc c7 53 e9 b9 9e f0 3f bd
       -0.07465095 -0.020795645 -0.00044503642 -0.04686033
0001e0 0f 75 d6 bd 4b db 86 3c 95 09 24 3d 01 ff 74 bc
       -0.10471546 0.016461989 0.0400482 -0.014953376
0001f0 d6 e9 18 3d 34 0f f2 bd 97 ec e7 3b 49 03 c4 bc
       0.03733238 -0.11819306 0.0070777643 -0.023927348
000200 00 2d 06 bc 11 22 2e bd 3e 73 b4 3d 88 16 87 bd
       -0.00818944 -0.042512957 0.08811043 -0.06596094
000210 9e c9 9b bd 84 95 59 bd 72 45 55 bc 68 93 d9 bd
       -0.07606815 -0.053121105 -0.013017045 -0.10623819
000220 6b 73 01 3b ab 3f 81 bd 40 5a 82 3c dc fa b1 bc
       0.0019752632 -0.06310972 0.015912175 -0.021726064
000230 95 f4 28 bd 84 60 ad bb 3a 5c 94 bd bb e8 1f 3d
       -0.041248877 -0.0052910466 -0.07244153 0.03904031
000240 31 d3 24 bd f3 9f 83 bd dd f0 a6 bc b4 85 0c bd
       -0.04024047 -0.06426992 -0.020378524 -0.034307197
000250 67 4d ae 3c 09 db 84 bd 1c 7a 6e 3c d3 82 8d bd
       0.021277143 -0.0648709 0.01455548 -0.06909718
000260 a4 4f 22 bd 28 29 00 be c5 f6 81 bd 03 0d 20 bd
       -0.039626732 -0.125157 -0.06345896 -0.03907491
000270 8b d6 fc bd 31 18 91 bd ab c7 5a 3d 25 66 b2 3c
       -0.12345608 -0.07084692 0.053413074 0.021777222
000280 bb 39 14 3d 78 34 a2 bd f6 b6 0a bd 2d 52 58 bd
       0.03618787 -0.07920164 -0.03386589 -0.052812744
000290 6a 0f 6d 3d 9a 8f 26 be 0e 34 54 bd 91 fd a7 bd
       0.057876028 -0.16265717 -0.051807456 -0.08202661
0002a0 db 3f 19 3d 10 46 a2 bc c8 f7 6d 3b f9 f3 bf 3c
       0.037414413 -0.019808799 0.003631102 0.023431765
0002b0 51 ee 7b 3c 2c dd a4 bc 00 fd 85 bd e2 20 5e bd
       0.015376643 -0.020124994 -0.065423965 -0.05423058
0002c0 74 61 41 3e 17 60 77 3d ef c4 72 bb e6 aa bc bb
       0.18884832 0.060394373 -0.003704365 -0.0057576774
0002d0 08 f9 5e bd 4d 2b 4d bd 45 45 06 bb 32 cd 9c bc
       -0.054436713 -0.050090123 -0.0020488065 -0.019140813
0002e0 2d a7 8f bd f2 c5 ad 3c 60 38 9f 3d 5f 90 5c bd
       -0.07014308 0.021212552 0.077744246 -0.05384862
0002f0 fd e6 30 bd 55 82 e2 bd 3f bf 43 3b 70 b9 0e bd
       -0.043189038 -0.11060015 0.002986863 -0.034844816
000300 5a f6 46 bd a5 2f 75 be 23 99 e6 3b d9 0e d4 3d
       -0.048574783 -0.23943956 0.0070372983 0.103543945
000310 8d 3a a0 bc ca d8 7e bd 65 42 a8 bd 2b 13 20 3e
       -0.01955917 -0.062218465 -0.08215789 0.15632312
000320 f3 65 42 bd d6 e2 42 3d e0 1e 93 ba 20 0b 74 bd
       -0.047460508 0.04757961 -0.0011224411 -0.059580922
000330 7b bf 67 bc 22 8d 49 3d 08 a3 f2 bc 98 2b d7 bd
       -0.014144774 0.04920686 -0.029618755 -0.10506362
000340 9a 3d 8a bd db 04 59 bc 89 12 05 3b 8e 37 49 bd
       -0.06750031 -0.013245787 0.0020305237 -0.049125247
000350 6c 46 3c bd 46 d0 17 3e d8 c0 ca bc 2d 41 cb 3c
       -0.045965597 0.14825544 -0.024750158 0.024811352
000360 ea 4e c2 bd 6c 3c 82 3c 0c 3e 94 3d 40 84 04 be
       -0.09487708 0.015897952 0.07238397 -0.12941074
000370 15 c2 c6 bd e4 13 0a be 69 d3 94 b9 58 15 65 bd
       -0.09704987 -0.1348415 -0.00028386273 -0.055928558
000380 cc ae 24 3d 8d 4c a3 bd 9f c4 a7 bc 4a 5b 64 bd
       0.04020576 -0.07973585 -0.020479498 -0.055751123
000390 f2 1e f8 bc 0f f8 37 bd e9 5d e6 3c 03 a8 a4 3c
       -0.030288193 -0.0449143 0.028120952 0.020099645
0003a0 9d 61 07 3d cf 2b d6 bc 6b 4c a2 bc 1b f8 ce 3b
       0.033052076 -0.026143936 -0.01981183 0.0063161976
0003b0 58 d4 1c 3e 0a cf e5 bd 0a b0 74 bd e3 53 d0 bc
       0.15315378 -0.1122113 -0.059738196 -0.025430625
0003c0 36 0e 54 3d 17 a5 88 3d d0 b5 0d bd af 77 d0 bc
       0.051771365 0.066721134 -0.034597218 -0.025447695
0003d0 31 f9 37 ba d8 b2 67 3d 00 9e 67 bd 35 1a b4 bc
       -0.00070180284 0.056567043 -0.056547165 -0.021985153
0003e0 dd 70 b4 3d 4b 37 68 3c e6 b4 75 bd ce 8c a4 bc
       0.088105895 0.014173339 -0.05998697 -0.020086672
0003f0 f4 5c ea bd da 69 07 bd dc 21 a7 3b d0 73 35 bd
       -0.11443511 -0.033059932 0.005100472 -0.0442999

l3.bias f4 [3]
000000 33 f9 6c bd 9f 8a a1 bd 48 23 ed 3c
       -0.057854842 -0.07887768 0.028947487
