gespeicherte_Klassen/model.pt (torch, 393047 bytes, 6 tensors)

l1.weight f4 [256, 121]
000000 00 93 94 39 0d 31 b1 bb bf 7f 39 3a 94 6f 8d bd
       0.00028338283 -0.0054074586 0.00070762256 -0.069060475
000010 32 89 94 bd 90 40 ed 3c d8 ac 94 3d 3b af 62 bd
       -0.072527304 0.02896145 0.0725953 -0.055342894
000020 5c 94 f1 bd 8f 29 99 bd ce 8a 10 be ca a8 94 3d
       -0.117958754 -0.0747863 -0.1411545 0.072587565
000030 48 da 77 3d 57 3e 4f bd 8a 3c 0d be c0 e5 b5 3c
       0.060510904 -0.05059656 -0.13792625 0.02220428
000040 90 c6 87 bd 4f 73 af bd 88 75 54 3e 06 a6 28 bd
       -0.0662967 -0.08566915 0.2074796 -0.041173957
000050 4f 27 a0 bd 74 0e b8 3c 80 23 76 bc dc f8 6b 3d
       -0.078199975 0.02246783 -0.015023112 0.057610378
000060 50 e4 c8 3c 00 4d d7 b9 a8 e2 91 bc db 97 61 bd
       0.02452293 -0.00041065365 -0.017808273 -0.05507646
000070 92 31 9e 3d 3c 35 e8 bc b2 e2 7d bd 50 cc 37 bc
       0.077242985 -0.028345697 -0.06198377 -0.0112181455
000080 60 d4 35 3c b5 65 92 bc 43 72 06 3d b4 57 3d 3d
       0.011097997 -0.017870763 0.032823812 0.04622622
000090 c0 2f c2 bb 70 fe b5 bd 3d d7 d2 3c 37 bd e2 bc
       -0.0059261024 -0.08886421 0.0257374 -0.027678115
0000a0 15 36 f6 3d 9d 3c 9e bd 5d cf 89 bd c6 06 57 bd
       0.12022034 -0.07726405 -0.067290045 -0.052496694
0000b0 90 7f 7f 3d 9b 26 5d bc 5e 10 bf bd 06 05 9a 3c
       0.062377512 -0.013497974 -0.09329294 0.018801223
0000c0 0c 9e ee 3c 30 7a b3 bc 59 d9 8c 3d 5d 91 6a 3b
       0.029128097 -0.02190885 0.06877393 0.003579221
0000d0 e4 f5 0f 3d 92 e3 40 bd b3 2e e0 3b 2e 0f cd 3d
       0.03514661 -0.047092028 0.0068415045 0.10012661
0000e0 15 62 d7 3d 9a d8 db bd 67 83 c7 3c e4 1f 3a 3d
       0.105167545 -0.10734673 0.02435465 0.04544057
0000f0 fc c9 fe 3c aa 57 a7 bd 9d ee 0e bd 85 a6 aa bb
       0.031102173 -0.081710175 -0.034895528 -0.005207839
000100 ec eb 44 bd bf 47 89 bd 40 c3 8f ba 8c 67 4a 3d
       -0.048076555 -0.067031376 -0.0010968223 0.049415156
000110 30 b7 83 3d fc 68 b8 bc 74 2e 40 3d a9 af 45 3b
       0.064314246 -0.022510998 0.0469193 0.0030164516
000120 97 23 41 bd 72 a8 04 3c f8 37 bf bd fa 0d d7 bd
       -0.04715308 0.008096801 -0.09336847 -0.10500713
000130 b6 31 a3 3c 98 a3 0e 3d ca c7 da bd f0 1a 0a bd
       0.019921165 0.034823984 -0.10682638 -0.033717096
000140 58 32 43 bd 04 e5 1b 3d 10 93 b8 3d 28 ad 9c 3d
       -0.047655433 0.038060203 0.09012425 0.076502144
000150 09 7e 35 bd c0 29 84 bd f8 b2 10 3d 52 9d 7d bd
       -0.04430965 -0.06453276 0.035326928 -0.06191761
000160 68 44 16 bc 68 80 18 3d aa 93 9e 3d 60 11 8e bd
       -0.009171583 0.037231833 0.077430084 -0.06936908
000170 20 95 4e 3c aa 68 b6 3d a9 ea a7 bd a0 f8 a6 bd
       0.012608796 0.08906682 -0.08199055 -0.0815289
000180 82 e9 a2 bd fc c6 a5 3d 83 fa 1d bd 16 35 50 3e
       -0.07954694 0.08094594 -0.038568985 0.2033275
000190 13 4f e0 3d ee fa 1a 3e 90 55 4c 3e 18 78 65 3e
       0.10952582 0.15134785 0.19954515 0.22409093
0001a0 ec cc 68 3d 4a cb 68 3c 90 b4 ee 3d 39 65 10 3d
       0.056836054 0.014208624 0.11655533 0.035252783
0001b0 38 a5 85 39 af 0f e7 3d f3 0b 7e 3d b3 b5 fe 3d
       0.00025490834 0.11282288 0.062023114 0.12437
0001c0 df 97 07 bd 03 80 43 3d 04 cc 1c 3e 24 b1 0b 3e
       -0.03310382 0.047729503 0.15312201 0.13641793
0001d0 ea ed a2 3d 85 81 25 bb 15 eb 25 3d 5a c8 f1 bc
       0.07955535 -0.0025254202 0.040507395 -0.02951448
0001e0 8c 17 f6 3d 8c db 6b 3d 61 67 94 bd 98 07 f8 bd
       0.1201621 0.057582423 -0.072462805 -0.121108234
0001f0 36 c6 bf bd c0 01 9d bd ab 41 ce bd b2 32 9b bd
       -0.093639776 -0.076663494 -0.10071119 -0.07578029
000200 33 0c a6 bd a0 3a 8f bc 12 83 08 bd 60 d8 64 bc
       -0.081077956 -0.01748401 -0.033328123 -0.013967603
000210 46 ed 96 bd 5c 9c 0f 3d a4 33 d1 bc 10 2c 8a bc
       -0.07369475 0.035061225 -0.02553732 -0.016866714
000220 b0 37 42 3c 33 a7 8b bb ae 0f d9 3c cc b5 65 bd
       0.011854097 -0.004261875 0.026496734 -0.056081578
000230 96 c8 9c bc 92 79 bc bb 58 68 1d bd 30 1e 66 3c
       -0.019138616 -0.005751797 -0.038429588 0.014045283
000240 ba b6 20 bd 40 6c 9b 3a 00 db 65 bd d8 64 19 3d
       -0.03923676 0.0011857823 -0.056117058 0.037449688
000250 12 96 18 bd a0 65 4f bc e4 c8 b4 3d 5c 60 85 bd
       -0.037252493 -0.012658507 0.08827379 -0.0651252
000260 f0 dc 98 3b 32 19 83 3d 80 a1 e5 3a e4 a2 47 3d
       0.0046650097 0.0640129 0.0017519444 0.04873933
000270 8c 27 37 3d a6 0e 0a 3d aa 71 b0 3d fc b0 61 bd
       0.04471545 0.033705376 0.0861543 -0.055100426
000280 4a d2 cf bd 06 bd a0 bd 7f 55 c2 3c 7f f6 36 bd
       -0.10147531 -0.07848553 0.023722408 -0.04466867
000290 30 dd db 3b 00 9a 2b bb a0 ed 45 3b 4a dd 92 3d
       0.006709717 -0.002618432 0.003020145 0.07171114
0002a0 80 8a 6a 3d 78 b1 73 3d 4c 28 ab bd 52 92 86 bd
       0.05726099 0.05949542 -0.083572954 -0.06570877
0002b0 b8 f9 ae bd b8 2a 27 3d fc 2e 45 3d d0 f9 95 bb
       -0.08543724 0.040812224 0.04814051 -0.004576899
0002c0 9c 8e 31 3d dd ba 07 bd 34 84 45 3d b0 0a cf 3c
       0.043348894 -0.03313719 0.04822178 0.02527365
0002d0 30 a3 ff bb 23 9a a7 bd 9f cf 81 bd a0 05 64 bd
       -0.007801436 -0.08183696 -0.06338429 -0.055669427
0002e0 5c c0 0c 3d 18 2b b5 3c 34 28 99 bc 54 74 8e 3d
       0.034363136 0.022115275 -0.018695928 0.069557816
0002f0 68 5c e8 bc 00 b8 8f bd cc 8e df 3c 80 73 04 bd
       -0.028364375 -0.07017517 0.02728977 -0.032336712
000300 95 13 5f bd 98 56 01 bc 93 2f 89 bd 79 f7 82 bd
       -0.054462034 -0.007894181 -0.06698527 -0.06394858
000310 9a 14 15 bd 88 d4 d8 bc 99 0b ac bd c0 c8 e3 bc
       -0.0363966 -0.02646853 -0.084006496 -0.027805686
000320 60 4b ae bd 50 71 e6 bc 4e 0c b7 3d c0 7b e9 3c
       -0.085104704 -0.028130203 0.08937894 0.028501391
000330 63 fb 6c bd a0 8f 34 bb 12 7b 3d bd c0 8a ba bc
       -0.05785693 -0.0027551427 -0.046259947 -0.02277124
000340 d5 a1 33 bd 04 6f 21 3d f0 33 68 3d c3 10 81 bd
       -0.043855507 0.039412513 0.056690156 -0.06302025
000350 fc 70 0f 3d 54 1c 32 3d f0 4d e9 bb b3 1d a9 bd
       0.03501986 0.043484047 -0.0071198866 -0.08257618
000360 98 2a 19 bc 2a 5c a3 bd 10 8d 12 3d 88 0b e0 3c
       -0.009348534 -0.07976563 0.03577906 0.027349249
000370 c9 3e a4 bd e0 a8 52 3c 18 71 60 3d f4 14 93 3d
       -0.08019788 0.012857646 0.054795355 0.07181731
000380 5c 29 1f 3d c4 3e 8b 3d 1c 53 f6 3c 00 5c 4d bb
       0.038857803 0.06799081 0.030068927 -0.0031335354
000390 58 0e ef 3c e9 bc 1c bd 06 fc 0b bd 83 65 57 bd
       0.029181644 -0.038266096 -0.034175895 -0.052587043
0003a0 c8 a1 98 bd 40 70 e7 3c 4c a6 48 3d 84 1e 97 3d
       -0.07452732 0.028251767 0.048986718 0.07378867
0003b0 7e 26 ae 3d cc 75 96 bd 58 e9 86 bd ea 33 ac 3d
       0.085034356 -0.07346687 -0.065874755 0.08408339
0003c0 b4 05 63 3d d6 81 a9 bd 74 fd 8e 3d 11 cb 0f bd
       0.05542536 -0.08276717 0.06981936 -0.03510577
0003d0 17 68 9d bd 44 85 e5 bd f2 ef 2c bc 7e 7f f7 bd
       -0.07685869 -0.11207059 -0.010555254 -0.12084864
0003e0 a0 46 d0 3b ba 2b a5 3d ca c1 60 3d 00 5a 30 3b
       0.0063560754 0.08064981 0.05487231 0.0026909113
0003f0 3f 33 48 3e 28 a5 42 3d e0 90 a1 bd 5c 22 05 3e
       0.19550799 0.047520787 -0.07888961 0.13001388

l1.bias f4 [256]
000000 46 c9 0c 3d 5a 88 b2 bd 14 dd b6 bc d4 b7 d2 bb
       0.034371637 -0.08717413 -0.022322215 -0.0064306054
000010 48 46 fb bc f3 b6 f9 bc 06 ed 8c bd 9b 4e 1c 3d
       -0.030673161 -0.030482745 -0.06881146 0.0381609
000020 9e 6e d2 bd c7 1f ed bd 08 54 22 be 37 b3 d9 3d
       -0.10275005 -0.11578327 -0.15852368 0.10629886
000030 23 06 4e 3c 68 2f f5 bd 7e 4a 90 bb bc b8 c2 bd
       0.012574705 -0.11971933 -0.0044034114 -0.095078915
000040 b0 76 d1 3d 0f 12 a8 bd 59 99 77 bd e8 64 90 bd
       0.10227716 -0.082065694 -0.060448978 -0.07050496
000050 c4 64 99 bd e2 df 87 bd 62 fe e1 bc 54 3f 8f 3d
       -0.07489923 -0.06634499 -0.02758712 0.06994501
000060 aa d1 13 3d 87 9e 63 3d 92 66 e8 3b a8 77 35 3c
       0.036088623 0.055571105 0.0070923055 0.011075892
000070 29 3f 09 be 5b 93 03 bd 18 87 8c bd dd 7a 8f 3d
       -0.13403 -0.03212295 -0.068617046 0.07005856
000080 1b 45 17 3d 8e ad a1 bd 66 a0 10 be 6e ab b1 3c
       0.03693114 -0.07894431 -0.14123687 0.02168819
000090 5b 94 82 bd c5 9d 1c be 2c bf 0c be 88 1b 3f 3c
       -0.06375953 -0.1529456 -0.13744801 0.011664279
0000a0 03 df 9b bd 54 34 2c 3d 19 71 c1 bc 99 70 3a 3e
       -0.076108955 0.04204209 -0.0236135 0.18207015
0000b0 36 84 43 bd dd 66 4d bc 52 c7 2b 3d fb f9 bb bc
       -0.047733508 -0.012536732 0.041938134 -0.022946348
0000c0 0b 47 1b bd 6c b5 92 3c 34 30 9a ba 03 c5 8a bd
       -0.03790955 0.017908774 -0.0011763633 -0.06775858
0000d0 af f0 22 be 21 9c dd bd 32 f5 4c bc 1f b6 05 3c
       -0.15912126 -0.10820795 -0.012509631 0.008161097
0000e0 58 65 7b bd 82 27 5d bd 70 6f 1f be cd e8 8e bd
       -0.061375946 -0.053992756 -0.15569854 -0.06977997
0000f0 b8 3b 5a 3e f1 3e 1c bc 40 7c f4 bc 30 23 d1 3c
       0.21311843 -0.009536491 -0.029844403 0.025529474
000100 13 9d 25 3d bf 32 8d 3d 7c 63 18 3d 96 73 ac bd
       0.040433 0.06894445 0.03720425 -0.08420484
000110 6d ea c7 b9 17 5b 93 3c b0 2f 7b 3d 41 83 15 bd
       -0.000381309 0.017987771 0.061324775 -0.036502127
000120 04 84 3a bd 37 b8 e0 3d 1a e8 67 bd b5 81 5d bc
       -0.045536056 0.10972636 -0.056617834 -0.013519694
000130 0d 8c a4 bd fd 50 1b be 5f 53 d7 bd 20 aa 4a 3e
       -0.08034525 -0.15167613 -0.10513949 0.1979146
000140 6c 98 03 be 71 01 d1 3d 53 6a 55 bd 79 13 96 3d
       -0.12851113 0.10205353 -0.05210335 0.07327933
000150 51 08 5b bd 15 4d 85 bd ae 0d af bd a4 9a f2 bd
       -0.053474728 -0.06508843 -0.08547531 -0.118459016
000160 96 88 66 3c 7f e1 e1 bc a0 63 ac bd e8 2d ae 3c
       0.014070651 -0.027573345 -0.084174395 0.021262124
000170 ab 38 1a 3e b5 95 f3 bd c8 06 5b bc 8d 03 a4 bd
       0.1506068 -0.11893789 -0.013368316 -0.0800849
000180 ac 75 9c 3d 4a 41 ff 3b 56 fe 42 bd e5 d9 3e 3e
       0.07639632 0.0077897655 -0.047605835 0.18637808
000190 ee 6e 08 be 84 45 1f bc 61 a3 b3 bc 16 c9 aa bd
       -0.13323566 -0.009721164 -0.021928491 -0.08339135
0001a0 7c 0e 31 3d 53 60 1c be 6a de 8a bd 72 29 80 ba
       0.043226704 -0.1527112 -0.06780703 -0.0009777977
0001b0 eb 9f f4 bd 62 12 32 bd 2e 84 ff 3c ef bc 29 be
       -0.119445644 -0.043474562 0.031190958 -0.16575979
0001c0 64 b2 a5 3d 52 6e 70 bc df 91 96 3d 70 44 de bb
       0.08090666 -0.01467474 0.073520415 -0.0067830607
0001d0 cb 29 28 bd 97 e6 aa 3d 41 1e c5 bd 81 87 c0 bc
       -0.041055482 0.08344763 -0.09624911 -0.023502113
0001e0 0d 3f ec 3c 69 fe 5e 3e 2e fc 02 3e 0c 68 00 be
       0.028838659 0.21776737 0.12791511 -0.1253969
0001f0 73 a9 13 3d de 58 67 bd 51 f1 e4 bd 85 cf ee 3c
       0.03605027 -0.056481235 -0.1117884 0.029151687
000200 0c 24 a9 3d 8a 56 69 bd 50 dc ec bd a8 27 83 bd
       0.082588285 -0.056967296 -0.11565459 -0.06404048
000210 82 62 1f bb a3 d9 d7 bb a0 d1 21 be 09 76 d9 3d
       -0.002432019 -0.0065872236 -0.15802622 0.106182165
000220 f6 f1 d5 bd 78 7f d2 bd 82 73 f1 bb ec 4d f2 bd
       -0.10446541 -0.10278219 -0.007368506 -0.11831269
000230 ef 09 a3 bd b1 4d be 3c e6 c4 27 bd ed 90 b0 bd
       -0.07960879 0.023230406 -0.04095926 -0.086213924
000240 8c 08 4c 3b 15 87 26 be 4b 4d 4c bd 95 e0 64 3d
       0.0031133024 -0.16262467 -0.0498784 0.05587824
000250 b1 50 79 3d 45 fe 8a bd dd 21 a1 bd cb 43 1a be
       0.06086797 -0.06786779 -0.07867787 -0.15064923
000260 17 60 fc bc ab 78 23 be af cb de bd c8 17 18 be
       -0.030807538 -0.15964 -0.10878693 -0.14852822
000270 df 7f 87 bd 36 d2 ff bd 18 81 dd 3d 4c 27 39 3d
       -0.06616186 -0.124912664 0.10815638 0.045203492
000280 6e d5 9a bd a5 dd eb bd 84 44 47 bd a8 5b 10 be
       -0.0756024 -0.11516885 -0.048649326 -0.14097464
000290 40 04 59 3d 53 eb e6 bc 6b a2 82 bd 59 a1 06 be
       0.05298257 -0.028188383 -0.06378635 -0.13147487
0002a0 76 91 ae bc 79 af 86 bd 8d 1b 00 bd fb bc c9 bd
       -0.021309596 -0.065764375 -0.031276274 -0.09850498
0002b0 0f ed d8 3d d1 88 39 3e a3 d9 9f bd 13 c7 05 3d
       0.1059209 0.18118598 -0.07805183 0.032660555
0002c0 d5 8a 50 be 3c f5 ad 3d 95 8f f7 bd de a8 d1 bd
       -0.2036546 0.0849404 -0.12087933 -0.10237287
0002d0 40 3c 9d bd 42 d9 a9 bc 3b 17 14 be a1 8e 1e bd
       -0.076775074 -0.02073348 -0.14461987 -0.03871024
0002e0 51 7b 9c 3d c7 67 aa bb 05 45 08 be 24 4d a4 bd
       0.07640708 -0.0052003595 -0.13307579 -0.08022526
0002f0 74 2b c2 bc bd b3 9b bd 51 4d 7d 3d f5 d7 fd bd
       -0.02370236 -0.07602642 0.061841313 -0.12394706
000300 9b 37 81 bc a6 f6 3a be 02 66 ee ba 45 68 09 be
       -0.015773585 -0.18258151 -0.001818836 -0.13418682
000310 82 13 08 be eb 39 47 3d f2 56 b7 bd a0 e5 b1 3d
       -0.13288692 0.04863922 -0.089521304 0.086863756
000320 fe a6 11 bd c2 d6 57 bd 50 64 90 bd 86 7f ca bd
       -0.035559647 -0.052695043 -0.07050383 -0.098876044
000330 af 05 f5 bd 64 34 2c 3d 88 f6 9c 3d ac d2 01 3d
       -0.11963975 0.04204215 0.076642096 0.031695053
000340 de a9 a2 bc 8a f5 ac bd ac 9e cb 3d 33 03 c8 3c
       -0.01985639 -0.0844527 0.09942374 0.024415588
000350 87 8c c4 bd af 29 de 3d 3a 01 3d bd 15 12 f9 bc
       -0.09597116 0.10847794 -0.046143748 -0.03040413
000360 24 4d 8d 3d a7 36 94 bd b7 30 ea 3a 40 81 dc 3b
       0.06899479 -0.072369866 0.0017867301 0.006729275
000370 dd 24 bc bd 94 17 a6 3c 7e d2 83 bd ae ab 89 bd
       -0.091867186 0.020274915 -0.064366326 -0.067221984
000380 68 fc dd bd 7a 18 98 bd bf 3b 2a 3d d7 89 ae bd
       -0.10839158 -0.074265435 0.041560885 -0.085223846
000390 50 7c 1b 3d 44 8e 2a bd b8 78 9c bd 08 2a 80 3d
       0.03796035 -0.04163958 -0.07640213 0.06258017
0003a0 67 84 0c be 42 11 18 bd 32 8a d6 bd 80 38 90 bd
       -0.13722382 -0.037125833 -0.104755774 -0.070420265
0003b0 65 04 4f bb ea b4 03 be b2 13 9e 3d 43 ca f9 3d
       -0.0031588313 -0.12861982 0.077186 0.121967815
0003c0 26 80 a5 bd d9 25 f5 bd 99 09 39 be 7c f2 79 bc
       -0.08081083 -0.119701095 -0.18070067 -0.015255567
0003d0 8a a8 db bd eb 7d bd bd 80 b6 9c bd c7 4a 0f 3d
       -0.10725506 -0.092525326 -0.076519966 0.034983423
0003e0 a6 9b 1f bd bb e0 b1 3d 27 37 46 bd 6f de ff bd
       -0.038966797 0.08685442 -0.04839244 -0.12493598
0003f0 7b f6 83 3d 8c d0 fe 3d 88 19 97 3d fb c8 07 bd
       0.06443497 0.12442121 0.073779166 -0.033150654

l2.weight f4 [256, 256]
000000 a4 a2 99 3d cf 3e 2d bd da aa b8 bb be 95 e7 3c
       0.07501724 -0.042296227 -0.0056356015 0.028269645
000010 c7 79 ae bc 68 97 3f bd 58 b7 d4 bb b4 f8 5a bd
       -0.021298302 -0.04677525 -0.006491583 -0.053459838
000020 25 34 34 3d 97 3e 4a bd 59 1f 40 bd 1b e7 0f 3e
       0.04399504 -0.049376097 -0.046904895 0.14053003
000030 dc 19 10 bd a2 35 af 3d 2c ce 13 3d 36 e1 49 3d
       -0.03518091 0.085551515 0.036085293 0.049287044
000040 2f 27 95 3b d5 01 3e 3d 18 76 ad 3d 5e 3d 89 3d
       0.00455179 0.046388466 0.0846979 0.06701158
000050 2e 06 3c 3d d8 4a 2d bd 34 ca cb bd 04 58 40 b7
       0.04590433 -0.042307705 -0.099506766 -1.14645845e-05
000060 32 04 e0 3d 2d 74 49 3d 0c d3 e1 3c e6 68 1d bd
       0.109383 0.04918306 0.027566455 -0.038430117
000070 c8 dd 86 bd 2d 2d a8 3d 16 bc 2f 3e f1 b7 73 bd
       -0.0658527 0.082117416 0.17161593 -0.059501592
000080 cc 88 0d bd a2 4c d8 3d d8 01 ce 3c 48 33 02 bd
       -0.034554288 0.105614915 0.025147364 -0.031787187
000090 47 5a 08 bd 21 d5 60 3d d6 5e 53 3d e1 d6 a8 3d
       -0.03328922 0.054890756 0.051604114 0.0824411
0000a0 5f 68 5e 3a 30 fe 19 bc 86 a4 5c 3c 9a a5 66 3d
       0.00084841804 -0.009398982 0.01346696 0.056310274
0000b0 3b 94 a9 bd aa e7 e0 3c aa 39 56 3c 99 1b 8a 3d
       -0.08280226 0.027454216 0.013075272 0.06743545
0000c0 2a a7 d1 3d e5 5b 2d be 83 0f 07 be 92 11 55 bd
       0.10236962 -0.16929586 -0.13189511 -0.05201871
0000d0 1a d7 22 bd 36 d0 12 3d 16 60 94 3c 8c c5 0b bd
       -0.039755918 0.035843097 0.018112224 -0.034123942
0000e0 c6 af 12 3e 84 cb 7e 3c 37 6b 3b bc 08 86 8e 3d
       0.14324865 0.015551452 -0.011439136 0.06959158
0000f0 63 7c ac bd a8 33 99 3d 27 c7 3f 3d 04 cb 0a be
       -0.084221624 0.07480556 0.046820786 -0.13554007
000100 6c f2 0b 3e 3b ca 22 3e db 59 e0 3d 69 e7 8b bb
       0.13666695 0.15897457 0.109546386 -0.0042695296
000110 be fd 83 3d 7a 13 8b bd 1f 30 c5 bd 30 d1 5d 3d
       0.06444882 -0.06790824 -0.09628319 0.054154575
000120 81 53 a6 3d ce 47 be 3d 26 17 9b 3d 4d ff 8e 3d
       0.08121396 0.092910394 0.075727746 0.069822885
000130 f1 cc f6 3d a3 c8 a6 bc ae c2 a5 bd 46 3f c7 3d
       0.12050808 -0.020359343 -0.08093773 0.09728865
000140 ca 66 2a 3d c1 41 85 bd 4c 64 c4 3d 55 c2 48 bb
       0.041601934 -0.06506682 0.095894426 -0.003063341
000150 57 94 8c 3c c2 6d d3 3d 88 5f b7 3d b8 47 aa bd
       0.017160578 0.10323669 0.08953768 -0.083144605
000160 e1 c4 bf 3c f8 5c e8 bc 68 b3 89 bc b9 1b 10 3e
       0.023409309 -0.028364643 -0.01680918 0.14073075
000170 20 7f 50 bd 2d 53 dd bc bc b6 8b 3c 6c de 04 3e
       -0.050902486 -0.0270172 0.017054908 0.12975472
000180 f2 5b 81 bd ec 82 ca bd 28 a3 ff 3c 0d 07 b5 3d
       -0.06316365 -0.098882526 0.031205729 0.088392355
000190 9f eb 9a bd 97 53 c5 bd bd 73 e4 bd 19 b6 a8 3d
       -0.075644724 -0.09635084 -0.11154888 0.08237857
0001a0 4c ae 2b be 57 5f d9 3c 4a 42 45 3d 29 e0 91 bd
       -0.16765708 0.02653472 0.04815892 -0.07122833
0001b0 5a 01 bd 3c f8 e6 7a 3b 11 5b 52 bd 6d 0d 73 bd
       0.023071934 0.003828464 -0.05135638 -0.059338976
0001c0 39 af 5e 3d b5 d7 56 bd 6b c7 a3 bd 68 29 87 3d
       0.054366324 -0.052451808 -0.0799702 0.065996945
0001d0 e5 8f 18 3d 04 56 86 3d 6d c4 54 bd 1b f9 92 3c
       0.037246604 0.06559375 -0.05194514 0.017941048
0001e0 99 db 98 bd 44 17 67 bc ae 51 55 bd 18 1f b1 bc
       -0.0746376 -0.014104668 -0.05207985 -0.021621272
0001f0 87 a1 57 3c 35 d8 97 3d 95 2a 83 bb e6 9b ae 3d
       0.01316107 0.07414285 -0.004002879 0.08525829
000200 1e 6f 21 3e 88 5b c0 bd a0 0e af 3b 97 66 e6 bd
       0.15765044 -0.09392458 0.0053423196 -0.11250036
000210 1f 42 82 3c 64 8e 0d 3e 42 7f 76 3d 21 64 4f bd
       0.01590067 0.13823849 0.060179956 -0.0506326
000220 0f 7a 7f bd 84 7d 02 bd df f2 b9 bb 48 a2 f7 bc
       -0.062372264 -0.031857982 -0.0056747044 -0.030228749
000230 e5 19 52 bd 2d b3 ef 3d 6d d4 c7 3d d0 50 a9 3b
       -0.051294226 0.11704097 0.09757314 0.0051671043
000240 a9 54 8d 3c 32 2e 2c bd 21 bc ef bd 08 f9 f4 3d
       0.017252283 -0.042036243 -0.117058046 0.119615614
000250 29 c5 ab 3d e7 87 1b bd 60 d1 8f 3b 14 08 a7 3d
       0.08387215 -0.037971403 0.004388973 0.08155838
000260 62 df 9d 3c b9 ee 8c bc 8f 1e b2 bc a1 8c 4e 3d
       0.019271556 -0.017203676 -0.021743087 0.050427083
000270 20 6f c8 bc 67 40 d8 bd aa 3f 1f 3e 57 3f 1a 3d
       -0.024467051 -0.10559159 0.1555163 0.03765806
000280 ea 51 9a 3c 97 0e 11 bd f0 79 0f 3e 98 ae a8 bd
       0.018837888 -0.035414305 0.14011359 -0.08236426
000290 4f ed a4 3d 88 fa 94 3d ad 0f ca 3d b4 79 17 3d
       0.080530755 0.072743475 0.09866271 0.0369813
0002a0 9f ce 56 bb 74 00 98 3c 6b d0 48 3d b0 ad 7d 3c
       -0.0032776964 0.018554904 0.049026888 0.015483305
0002b0 22 d1 2e bc 58 f2 03 bb bc d2 a5 3c 85 2c 04 bc
       -0.010669978 -0.0020133462 0.020242088 -0.008067255
0002c0 54 e0 05 3d ac 09 3f 3c 71 cb 2a 3d f4 b4 1b bd
       0.03268464 0.011660021 0.041697923 -0.038014367
0002d0 04 6a 56 3c 82 42 a2 3c ca 9e e0 ba a2 22 c2 bd
       0.0130867995 0.019807104 -0.0017137167 -0.09479262
0002e0 23 91 8f bd 4e 43 aa 3d 73 13 d8 3d e3 d5 ee bd
       -0.070101045 0.083136186 0.10550585 -0.116618894
0002f0 e3 34 52 3d 39 34 c0 3d 15 08 9f bd bd ba 31 bd
       0.051319968 0.09384961 -0.077652134 -0.043390978
000300 ef 3a ac bd a3 9a 81 bd 28 39 94 bd f7 6b 40 bd
       -0.08409678 -0.06328323 -0.07237464 -0.046977963
000310 d2 20 a8 bd d3 1e fa bc c5 df c2 3d aa de 8a 3d
       -0.08209385 -0.030532276 0.09515337 0.06780751
000320 0c 8b 84 bc 68 01 67 3c da 98 2a bd 16 47 0d 3d
       -0.016179584 0.014099456 -0.041649677 0.03449162
000330 74 08 7b 3d 2b 7f 08 3c eb 33 9c bd 04 fa e7 3d
       0.06128736 0.0083311 -0.0762709 0.113269836
000340 10 ef a2 bd 6f 86 aa 3c ea 5c 39 3e 11 e7 22 3e
       -0.07955754 0.020816056 0.1810185 0.15908457
000350 31 a1 73 bd cc ad 9d bc ab 88 ed 3b 3a 4a 55 3c
       -0.059479896 -0.019247912 0.007248958 0.013018185
000360 3d da c1 3d fc 1a de 3c d4 93 25 3d be 56 19 3e
       0.09465454 0.027112477 0.040424183 0.14974496
000370 c0 26 b0 bb e7 cc 2b 3d c1 a2 af bd a3 e8 dc 3d
       -0.005375713 0.041943457 -0.08575965 0.107865594
000380 65 18 15 bd 58 01 29 3e fb d4 c8 bd 05 c8 57 3c
       -0.036400218 0.16504419 -0.09806248 0.013170247
000390 53 5e f6 bd 04 b4 b5 3d dc 23 09 3d b9 f4 b4 bd
       -0.1202971 0.08872226 0.033481464 -0.0883574
0003a0 5c 1f 08 3e 7e 8a c9 3d a9 ce 9c 3c a9 57 ce 3d
       0.13293213 0.098408684 0.019141512 0.100753136
0003b0 fc 63 73 3d c7 7a 8f 3d 1d 16 43 bd 64 5f a4 bd
       0.059421524 0.0700584 -0.04762851 -0.08026007
0003c0 c4 4e 5c 3d 04 4c 48 bc e9 d0 e5 3c 2b e9 ea 3d
       0.053786054 -0.012225155 0.028053718 0.114702545
0003d0 27 3e a7 bd 4f 1a d5 3d dd 3a 48 3d 15 97 89 bd
       -0.081661515 0.104054086 0.04888426 -0.0671827
0003e0 2e 6a db 3c 34 1b 01 3e ee c8 21 3e d5 b9 00 3d
       0.026784029 0.12608033 0.15799305 0.031427223
0003f0 b2 bd c9 3d 12 54 d8 bd a1 c6 09 3e e9 11 4e 3c
       0.09850635 -0.1056291 0.13454677 0.012577512

l2.bias f4 [256]
000000 d5 69 ed bc 2d e5 33 bd ec c0 b2 3b 2e 52 ec bc
       -0.028981129 -0.04391973 0.005455127 -0.02884778
000010 70 03 f2 bc 4e 95 c9 bc ed 78 82 bc 88 3c 8c bd
       -0.029542655 -0.024607327 -0.015926803 -0.06847483
000020 8e e9 6e bc 14 f6 75 bd c3 d9 4a 3d 2c d4 ba bd
       -0.014582051 -0.06004913 0.04952408 -0.091225
000030 9e b0 71 3c f5 c7 23 bc 56 da de bc c9 ff 96 bd
       0.0147515815 -0.009996404 -0.02720372 -0.07373006
000040 a3 f5 9f bd c5 48 d1 3b a5 17 9f bd 0d aa af bc
       -0.07810523 0.0063868486 -0.07768182 -0.021443391
000050 46 df af bd 7d ed 97 bc 44 f6 86 bd 30 de 6d bd
       -0.08587508 -0.01854586 -0.0658994 -0.058073223
000060 b8 ad 3c 3d b0 39 6b bd 39 74 ab bd ce ec e0 bc
       0.04606411 -0.057428062 -0.08371777 -0.027456667
000070 9c 61 d1 3c 59 2e 89 bc db 2a 00 be 6c 6d a1 bd
       0.02555924 -0.016745733 -0.12516348 -0.07882199
000080 a5 2f 00 bd c8 bc 48 bd 9f 80 05 be 0b 24 b2 bc
       -0.031295437 -0.04900816 -0.13037346 -0.021745702
000090 33 00 23 bc 37 fd d5 bd eb 5f 8d 3c 8c 8f 96 3d
       -0.009948778 -0.104486875 0.017257651 0.07351598
0000a0 05 c7 dc bd 43 ad 3c 3d c0 ad 7a 3c 9a 33 a0 bd
       -0.107801475 0.046063673 0.015300214 -0.07822342
0000b0 8f e2 0c bc 26 30 58 bd 1e aa a5 b8 45 9c e6 bc
       -0.008598938 -0.052780293 -7.8995e-05 -0.028150687
0000c0 73 3a 57 bd b1 e6 61 bc b2 b6 5e bd f8 23 67 bd
       -0.052545976 -0.013787911 -0.05437345 -0.056430787
0000d0 37 42 8c bc 1a 9f 59 bd 45 a0 77 3d 52 6e c0 bc
       -0.017121417 -0.053130247 0.06045558 -0.023490105
0000e0 f7 b9 cb bc d1 dd 48 bd 28 41 0c bd fc 4e 51 3a
       -0.024868948 -0.049039666 -0.034241825 0.0007984487
0000f0 73 93 cd bc 53 d9 bd 3d 91 0b e9 bd 24 59 d5 bc
       -0.025094723 0.09269967 -0.11379159 -0.026043482
000100 66 b2 c0 bd 5e 12 a0 bd 2e fb 7b bc c0 eb d0 3c
       -0.09409027 -0.07816003 -0.01537971 0.02550304
000110 b5 af 92 bd 96 f3 5e bd 15 42 e3 bc 0e ac c8 bd
       -0.0716242 -0.05443152 -0.027741471 -0.09798442
000120 3e 34 d1 bc 2f 3d 54 bc 21 89 44 bc 8a dd 88 ba
       -0.025537606 -0.01295404 -0.011995585 -0.0010442
000130 f6 82 76 bd 36 40 8a 3d 48 1c c7 bc d4 02 04 bd
       -0.060183488 0.067505285 -0.024305478 -0.03222926
000140 88 ae 04 3c 97 6e 9c 3d 2e b1 67 3a 1a f9 11 3d
       0.008098252 0.07638281 0.00088383525 0.035637952
000150 ff 38 18 bd 66 d5 d3 3c e5 da 1f be cc e1 c6 bd
       -0.03716373 0.025858592 -0.15610845 -0.09711036
000160 0e 98 8a 3c 7c 3e 8b 3d 2f ba 22 bd 35 23 ee bd
       0.016918208 0.06799027 -0.03972834 -0.11627809
000170 b2 b5 dd bb f1 26 94 bd ab 45 cf 3d 94 7e d0 bd
       -0.0067660445 -0.0723399 0.1012071 -0.10180393
000180 94 85 49 bd 84 57 34 bd e9 d0 f3 3b 18 39 93 3c
       -0.049199656 -0.044028774 0.0074406755 0.01797156
000190 ad f4 7d 3d 75 77 a5 bd 5d 91 d1 bd cb 0a 42 bd
       0.06200092 -0.08079425 -0.10232804 -0.047373574
0001a0 de 9c ba bd a8 b6 77 3c b3 2e ae b9 cb ce 00 bd
       -0.09111951 0.015119232 -0.0003322266 -0.031447213
0001b0 10 e5 73 3d c2 0f 18 bc 2b 74 64 bc da b6 81 3d
       0.059544623 -0.009281101 -0.013943712 0.06333704
0001c0 69 a6 24 bd f5 e3 9d bd 0e 17 b4 bd 77 82 6c 3c
       -0.040197764 -0.07709495 -0.0879346 0.014435402
0001d0 fb ca fb bd 05 be cf bd 87 6d 80 bd 7c 5a c8 bc
       -0.12294575 -0.10143665 -0.06270891 -0.024457209
0001e0 07 93 11 3b 09 23 9d bd 71 56 02 bd 9c 10 f3 bd
       0.002221288 -0.07672698 -0.03182072 -0.11868402
0001f0 7a 25 e5 bd d2 b8 2c 3e 44 ea 15 bd c8 c1 99 bc
       -0.11188789 0.16867378 -0.036600366 -0.01876916
000200 90 88 4a bd 64 02 bc bd c4 93 f7 bc 9f 31 d7 3b
       -0.049446642 -0.091801435 -0.030221827 0.0065671946
000210 b8 2e 0c bc 50 31 48 bd 29 18 b4 bd 34 02 e2 bd
       -0.0085560605 -0.048875153 -0.08793671 -0.110355765
000220 01 1f 2c bc 5e 00 15 bd 4c 55 cb bc 4c 57 30 bd
       -0.010505439 -0.036377303 -0.024820946 -0.043052003
000230 1b 43 6d bd a4 ad ef bd 74 7d b6 3c 40 f1 63 bc
       -0.057925325 -0.11703041 0.022276618 -0.013912499
000240 2d 04 d1 bd 20 39 e4 bc 3c 84 78 bc f5 9c 8a bd
       -0.102058746 -0.02785927 -0.015168246 -0.067682184
000250 64 53 8f bc 2d 0e 24 bc 5f c5 e3 bd 87 40 2b 3c
       -0.017495818 -0.010013145 -0.1112163 0.010452396
000260 c0 1c be bd b4 a7 d1 bd 73 ef 36 bd da 16 83 3d
       -0.092828274 -0.10237065 -0.04466195 0.06400843
000270 b1 e2 ae bd 36 53 83 bd 4f 19 e1 bd 50 7e d4 bc
       -0.08539332 -0.064123556 -0.10991155 -0.025939137
000280 16 50 55 bd 96 f3 4e bc e8 98 ab 3d 66 99 53 3d
       -0.05207833 -0.012631318 0.08378774 0.051659964
000290 99 67 b6 bd 99 ca 7c 3e 05 a9 07 bd 5e 2c f1 bc
       -0.089064784 0.2468666 -0.033120174 -0.029440101
0002a0 d5 4e ce bd d7 a0 bb bd 42 d7 72 3d 90 17 d6 bb
       -0.1007363 -0.09161537 0.059287317 -0.0065335706
0002b0 5c b3 9a bc 0c aa 45 bd 9d e7 47 bc 0e b6 c5 bd
       -0.018884353 -0.048257872 -0.012201217 -0.09653865
0002c0 88 64 7e bd 15 ba 92 bd e5 ef d1 bd 36 75 dd bd
       -0.062107593 -0.071643986 -0.102508344 -0.10813372
0002d0 dd e6 b1 bd f2 0d 0e bc f1 fe be bb b2 13 0a 3a
       -0.08686612 -0.008670317 -0.005828731 0.0005267217
0002e0 4a 0f 7e bc 7b f3 81 bd ef 44 02 bd 31 b0 8a bc
       -0.015506575 -0.06345268 -0.03180402 -0.016929718
0002f0 b2 da 44 bd 17 10 ab bd 9f 40 0d 3e 30 f8 cd bd
       -0.048060127 -0.08352678 0.13794182 -0.10057104
000300 1c f7 d9 3c cb 2a 34 3d c6 24 a4 bd 88 9b ab bd
       0.026607089 0.043986123 -0.080148265 -0.083792746
000310 0a d8 35 bd 1b 50 a5 bc 52 46 01 3d 08 77 b0 bd
       -0.044395484 -0.020179799 0.031561203 -0.086164534
000320 fe 6a 53 bb fe 3d 4a 3d 30 06 68 bd d4 26 5e 3d
       -0.0032259817 0.049375527 -0.056646526 0.054236248
000330 c4 47 08 bd dc 5b b3 bd 5e a0 6c bc 0a e2 81 3c
       -0.033271566 -0.08757755 -0.014442531 0.015854854
000340 d0 bf cd bc 72 6b ea bd 42 c6 3a bc 95 73 da bd
       -0.025115877 -0.11446275 -0.011399807 -0.10666577
000350 43 20 b9 bd cc 10 1e bd 1e 62 be 3a 3e fb 1e 3c
       -0.090393566 -0.038590237 0.0014525091 0.0097034555
000360 ea 72 75 3d de be eb bd a3 85 b4 3d e9 f3 f2 bc
       0.059924044 -0.115110144 0.08814552 -0.029657321
000370 e6 82 00 bd 97 65 67 bc 84 bd 6d bc 43 c7 53 bb
       -0.031374834 -0.014123342 -0.014510516 -0.0032314814
000380 40 03 bb bd 8b 2e 46 3d be 49 9f bd 47 56 6e bc
       -0.09131479 0.04838423 -0.07777737 -0.014546937
000390 c5 e8 c1 bd 9c 04 93 bc 26 c8 26 bd a4 83 97 bd
       -0.094682254 -0.017946534 -0.04071822 -0.07398155
0003a0 a2 67 22 bd d3 d4 57 bd 39 ec 94 3a 72 a9 cb bb
       -0.039649613 -0.0526932 0.0011361904 -0.006215268
0003b0 71 0d bc bd 24 63 3d 3a dc 62 84 bd 86 e7 f5 bc
       -0.09182251 0.0007224551 -0.064641684 -0.030017626
0003c0 e9 f4 af bd 07 7a 2c bc 59 e9 a1 bc a6 f0 20 bd
       -0.08591635 -0.01052714 -0.01976459 -0.039292
0003d0 21 ee 58 bd e0 10 9e bd 08 ca a1 bd 17 cc 24 bd
       -0.052961472 -0.077180624 -0.078998625 -0.040233698
0003e0 9c 33 ae bd 53 dd c3 bd 9a 23 9a bb 00 7c 9a bc
       -0.085059375 -0.095636986 -0.004703951 -0.018857956
0003f0 8c 56 a8 3c f0 28 d9 bd d4 93 9d 3d 47 ee f6 bc
       0.020549081 -0.10603511 0.076942116 -0.030142916

l3.weight f4 [3, 256]
000000 82 d5 b1 bd 54 c8 a5 bc f5 fa 6a bd bb 4b 6c bd
       -0.086833015 -0.020237125 -0.057368238 -0.05768941
000010 d3 2d 2c bd ea 3e 23 3d 31 d3 a0 bd 96 b3 47 3d
       -0.04203589 0.03985492 -0.078527816 0.04875525
000020 7c 6c 0d bd 0a 90 eb 3b a5 26 46 bd 50 ef 9e 3b
       -0.034527287 0.0071888017 -0.048376698 0.0048503056
000030 43 cd 05 bd 6d ad 9d 3c be 15 62 bd d3 f3 03 bd
       -0.032666456 0.019247735 -0.055196516 -0.03221495
000040 8f 92 9a bc ff 62 5d 3d 30 dc 1e 3d 15 6d a6 bd
       -0.018868713 0.05404949 0.038784206 -0.081262745
000050 52 9e 69 3d 9e 5b 1f bd 73 bb 4c 3d 9e ea b8 bd
       0.05703575 -0.038905732 0.049983453 -0.09029125
000060 2b 2b 3f 3e 3c a6 41 bd a9 07 f1 bc 7f ad 28 bc
       0.18668811 -0.047277674 -0.029422598 -0.010295271
000070 58 8a 80 bb bd c7 44 bb 3f 8f 00 3d 11 ba 74 bd
       -0.003922742 -0.003002628 0.03138661 -0.05974776
000080 c2 20 36 bd 0e 34 65 be 56 9a b6 3c 3f c9 75 bd
       -0.044464834 -0.22383139 0.02229039 -0.060006376
000090 3a 7a ec bd 23 d2 ae bc 1f 3d cf 3d 88 f6 db bd
       -0.1154675 -0.021340435 0.1011908 -0.107403815
0000a0 ab 15 db bd cd ae 69 3c 6a af 7e bd b9 3b 51 bc
       -0.10697492 0.014262867 -0.062179007 -0.012770587
0000b0 fb 6d 0a be f8 83 12 3c e1 27 e7 bb 71 34 81 bb
       -0.13518517 0.008942597 -0.0070543145 -0.003943019
0000c0 9f f1 0a bb 00 c5 2c be 25 5a ae 3c e8 c8 84 3b
       -0.0021201146 -0.16872025 0.021283219 0.00405227
0000d0 45 5f 32 bd 40 7a c8 bc 53 19 fb 3d 21 07 7a 3d
       -0.043547887 -0.024472356 0.122606896 0.061041955
0000e0 45 54 74 bc f6 cf 5a bd 0d fb 40 3d aa 88 c7 bd
       -0.01491267 -0.053420983 0.04711442 -0.097428635
0000f0 ab 5f 2c bc d0 5b 02 3e d4 ab 18 3d 4c 5d 14 bc
       -0.010520856 0.12730336 0.037273243 -0.009055447
000100 3b 59 ac bc 73 30 8a bc ce f1 08 3d c8 ca 40 bd
       -0.021038642 -0.016868806 0.033433728 -0.047068387
000110 d1 a4 ae bd c0 b8 58 bb d9 d3 3a bc 11 d5 3e bb
       -0.0852753 -0.0033069104 -0.0114030475 -0.0029118697
000120 02 13 01 bd bc 8c 33 bd d1 96 fd bb 40 8b 18 bd
       -0.031512268 -0.043835387 -0.007738926 -0.037242174
000130 6a cb e6 bc 32 d8 42 3e 78 93 50 3a 3d b5 a8 bd
       -0.028173167 0.19027784 0.0007956545 -0.082376935
000140 6b 5d 37 bd 5f 38 d5 bd ab 9b 9d bd 1d d0 d9 bd
       -0.044766825 -0.104111426 -0.07695707 -0.106353976
000150 b3 e2 09 bd 53 6e 04 bd 97 c6 ab bd c7 a7 36 3d
       -0.033663463 -0.032331776 -0.083874874 0.0445936
000160 bf da c5 bd 00 1b 9e bd 34 51 b6 bd 6b 45 10 bd
       -0.09660863 -0.077199936 -0.08902207 -0.035222452
000170 09 b1 cc 3d 9b 10 59 bd 53 24 cb 3e ac cc 75 3b
       0.09994704 -0.05299435 0.3967615 0.0037506027
000180 69 47 0f be e0 06 59 bd af 22 10 be 26 b4 56 bb
       -0.13992085 -0.052985072 -0.1407573 -0.0032761185
000190 57 7b e2 3d 98 d1 f1 3a 82 45 06 3b 44 29 50 bd
       0.110586815 0.0018449305 0.0020488207 -0.050820604
0001a0 5a 21 5f bd 8c 28 7f bd 08 07 e9 bc df 71 ae bd
       -0.054475166 -0.062294528 -0.028445736 -0.08517813
0001b0 26 f4 7d 3d 75 72 43 bd e1 2d 1f bd a8 f9 cb 3d
       0.062000416 -0.047716577 -0.038862113 0.099597275
0001c0 4a 4a a4 bd da 5a be bc 3e 4e ea bc 57 68 72 bc
       -0.08021982 -0.02323668 -0.028601762 -0.014795384
0001d0 0f 30 f4 bd 99 aa 97 bd 5e 7b 02 3c 14 e2 da 3c
       -0.11923229 -0.07405586 0.007963983 0.02671913
0001e0 65 eb 97 3d 12 ea 76 bd 95 f9 ec bd 55 56 8d bd
       0.07417945 -0.06028182 -0.115710415 -0.06901232
0001f0 ac d3 22 bd 56 4d fe 3d 10 40 92 3d 82 a1 1e 3d
       -0.039752647 0.124170944 0.07141125 0.038728245
000200 2a 32 ef bd be 1d 65 bd 74 32 05 bd 5a b4 31 3c
       -0.1167949 -0.055936567 -0.03251882 0.010846222
000210 30 21 95 bc 54 80 c7 bd a0 4f 91 bb de a4 a9 bd
       -0.018204302 -0.097412735 -0.004434541 -0.08283399
000220 1e 7e cc bc 59 4a 13 bd 44 b1 53 bd ad 56 05 bd
       -0.024962481 -0.035959575 -0.051682726 -0.032553364
000230 b4 1f b0 3c 95 0b df b8 10 5b 6e bd ed 61 ff bd
       0.021499492 -0.00010635626 -0.058192313 -0.1246985
000240 25 f9 28 bc a0 6f 1f bd 2d 6a 84 bc a3 55 23 bd
       -0.010313307 -0.038924813 -0.01616391 -0.03987659
000250 ab a0 8f 3d 30 ed de bc ff c1 9c bc 24 b4 47 bd
       0.07013067 -0.02721271 -0.019135473 -0.04875578
000260 f7 ba 0c bc 07 13 dd bc d8 12 1b bd 04 8a 55 bd
       -0.008589498 -0.026986612 -0.037859768 -0.052133575
000270 f2 a7 d2 bb 12 54 a7 bc 77 bc ad bd 23 b5 90 3c
       -0.006428712 -0.02042583 -0.084832124 0.017664498
000280 84 3c 90 bd c3 62 bb 3d 3b 2e 01 be 85 40 e8 bc
       -0.070427924 0.09149697 -0.12615292 -0.028351078
000290 13 26 38 bc 57 15 89 bf 4d 96 12 be e5 5f 2e 3c
       -0.011239546 -1.0709637 -0.14315148 0.01064298
0002a0 09 14 86 bc e1 7d b4 bb 27 10 97 3d 8c 64 b9 3c
       -0.016366975 -0.00550817 0.07376128 0.022630952
0002b0 af 45 83 3b 7a a6 3e bd 8b b7 93 bd 34 ef 66 3d
       0.0040061097 -0.046545483 -0.072127424 0.056380466
0002c0 2e 64 6d bd d3 a0 dc 3c 7f e1 f0 bc 8e 9d 86 bc
       -0.057956867 0.026932156 -0.0294044 -0.01643255
0002d0 47 e4 9c bd 81 a7 8e bd 74 7d 6f 3c 52 01 9b bd
       -0.07660728 -0.069655426 0.014617313 -0.07568611
0002e0 8f 70 10 be f6 f2 e3 bd a8 d2 cc bd 07 bc 1b be
       -0.14105438 -0.111303255 -0.10001117 -0.15208445
0002f0 82 21 64 bb f6 c0 8f bc 6d e0 33 3e 70 96 97 bd
       -0.0034810011 -0.017548066 0.1756608 -0.074017406
000300 31 78 8e 3d 5c 8f 56 3e 6c da db 3c 05 d9 c1 bd
       0.069565184 0.20953125 0.02683755 -0.09465221
000310 9a f6 cb 3d 08 a4 81 bd 13 e7 9d 3d bd fe da bd
       0.09959145 -0.063301146 0.077100895 -0.10693119
000320 20 49 35 bd 74 60 97 bb b3 87 ea 3c 00 53 a3 bd
       -0.04425919 -0.0046196524 0.02862916 -0.07974815
000330 fc 35 7d bd 98 a5 d2 3c 57 2f 07 bc 76 76 df bd
       -0.06181906 0.025713727 -0.008251033 -0.109112665
000340 ca 1a 1b 3d b1 d4 64 3c d5 11 7b bb 0e 4e a8 bd
       0.037867345 0.013966725 -0.003831019 -0.08218013
000350 19 39 d1 bd 48 fd 11 bc a5 c0 0f bd e1 36 f5 3a
       -0.10215969 -0.008910485 -0.03509583 0.0018708372
000360 0f 6c 14 be 90 ba d3 bc 59 0a f0 3d c7 c4 d4 bc
       -0.14494346 -0.025845796 0.11720724 -0.025972737
000370 d6 26 a7 bd ec 44 ac 3d 1a a7 c0 bd 89 83 b1 bd
       -0.08161704 0.08411583 -0.09406872 -0.086676665
000380 69 03 8d bd aa 44 81 3a 9b 27 e3 bc 61 d8 a3 bd
       -0.06885416 0.0009862382 -0.027728846 -0.080002554
000390 29 a9 89 bc b7 5c ac bd de 5a 71 bd df 8b 44 3d
       -0.016804295 -0.084161215 -0.05892455 0.047984954
0003a0 65 77 a6 3c c2 97 1a bc cd 2a 18 bd bc 76 89 bc
       0.020320604 -0.009435596 -0.037150193 -0.01678025
0003b0 6a ad 5e bd 49 a4 75 3d ad 26 4e bd 29 99 5b 3b
       -0.0543646 0.059971128 -0.050329853 0.0033508039
0003c0 73 00 9f bd e2 a4 eb bd cf a6 f3 bc 9b 64 d9 bc
       -0.077637576 -0.11506058 -0.029742626 -0.02653723
0003d0 3d 8f 99 bd 2f f8 75 bd cb aa f2 bc b0 14 ca bc
       -0.07498024 -0.06005114 -0.029622456 -0.024668068
0003e0 48 c2 26 bd 52 7e 4a ba 4c b6 99 bd 6d ce 87 3c
       -0.040712625 -0.00077245117 -0.075054735 0.016577924
0003f0 1f 8e c0 bd 0e ed 91 39 d2 4b e5 bd 45 ad 8b bc
       -0.094021074 0.00027833175 -0.11196102 -0.017050395

l3.bias f4 [3]
000000 3e 28 8b 3c 4d 65 f0 bc b2 fc dc 3b
       0.016986962 -0.029345179 0.006743991
