gespeicherte_Klassen/model.pt (torch, 353111 bytes, 6 tensors)

l1.weight f4 [256, 82]
00000000: 46e8 013d 9547 0b3e bbbc 85bd a8c2 0e3e
00000010: bef0 cebc a833 303e f9b7 0c3e a5e0 1f3e
00000020: a66a 273d f55a 2f3e e761 493d 294a 563e
00000030: 4bf7 1e3e 6ecb d73d 9a41 4d3d b664 c73d
00000040: 64e7 403e 6583 923d 7d98 bbbd 480f 093d
00000050: e77c ba3d 4631 033c 4b11 ed3d 69b3 f73d
00000060: 57a6 2b3e 2f8b 613e a711 393e 7b7c 473e
00000070: 4a61 52bc 6349 953c f730 bf3d c4c8 263c
00000080: 6205 44bc e22f 7bbb 9844 cfbb cbfa 96bd
00000090: 2b19 e2bd bba4 51bd ae6c 3abe 8cbe 1dbd
000000a0: 46ce aebd 1e33 413d f372 d5bd 8cec b93c
000000b0: 02da 88bd 3936 73bd cd1a f8bc 68db 793c
000000c0: cf0a 993a 15a3 9b3c c914 16be fcc0 e63c
000000d0: eb46 0a3c a39f fc3c 428f 80bd 6cdd 32be
000000e0: 66ac 893c 0511 1abc fd38 06be cb22 023d
000000f0: 5e6e 023c fdbf ccbc c049 1fbc 5d6d 1bbe
00000100: 01b3 90bb 6bc0 28be aa09 0abd 3e17 dabd
00000110: 2e4a 6e3d a394 a13d 4d7f bc3d e219 123d
00000120: 7c33 c2bd 6ca9 d7bd e515 03be 1be0 0cbe
00000130: 4aa0 04bd 3202 aabc 193e 9fbc 572f 08bd
00000140: c608 cebd 6459 883c 7261 4e3d aa1f 0fbe
00000150: 8352 1dbe 81d3 b4bd 4b3c a0bd 5a5b d33c
00000160: e61b 1f3d 4938 f4bd c44a 11be 93e9 80bd
00000170: 6bca 8839 bc5b dfbd b676 223d 7bfe c63c
00000180: 0c18 68bd 89ce 593d 80a1 fa3c d4c9 fb3c
00000190: 4afe cfbd 80ad cdbc 30c4 f93b 40ad 5cbd
000001a0: 0c97 9bbc a098 0fbc ec4d de3c 41c3 cebd
000001b0: a85d b2bd e0d7 a5bc 33bc 993d 8fe5 49bd
000001c0: ac29 98bd 92db 083d 9f43 a43d 8080 093b
000001d0: e85b 7b3c c076 8abb 90fc 39bc bafc c8bd
000001e0: adf3 a1bd ff46 de3d f0aa 3dbd 10c5 cc3b
000001f0: b00d 16bd 4008 5d3b b829 89bc 5da7 c73d
00000200: dc02 44bd b646 91bd 8ab4 623d 546b 86bd
00000210: 30d3 34bc cadc 0b3d eb82 c53d cd83 cabd
00000220: e8f3 d6bd a007 04bc 0c42 a63c c0d3 68bc
00000230: 96b5 373d b0d8 ef3b cad5 613d 9aee 0e3d
00000240: 8505 ca3d cc7a 9abc 9457 b6bd cf8a b23d
00000250: 9a6f 12bd 8a98 99bd 3f06 bdbd 94c4 95bc
00000260: 6680 6fbd 6cb4 acbd a0bc 25bd d0f3 ebbc
00000270: c2f2 c4bd d9c9 b23d 48f2 9abc 21dc 89bd
00000280: 34f0 e9bc 311b 9a3d 6eeb d6bd dfbd be3d
00000290: 9694 613d 78e8 b63c 4337 413d de1c 8fbd
000002a0: 3d8c bb3d c185 d9bb 5942 173d 834a c3bd
000002b0: 4f62 c63d c5d7 653d e2e0 c9bd df11 8fbd
000002c0: 0b87 0e3b d132 1ebc 1e62 8a3d 0c5d 0dbe
000002d0: 3395 59bc 0b2e 9c3b fdc2 b53d 116f 263d
000002e0: eeee d63d 3795 713d b67e d23d 9281 c63d
000002f0: 76fc 173d 7d4f 9cbd a461 a2bd 6378 203d
00000300: a55d b23d e8c5 b13c fe04 10be 5e36 dabd
00000310: e8ae f9bc 2352 3dbd 56f4 a7bd 8a6c 9b3d
00000320: ef21 17bc 27c8 963c 6aa7 8d3d 6d91 85bb
00000330: 6342 163e b6f4 aebc 8e77 a9bc 684a 243d
00000340: 1a7c 283c ddd6 163e 1773 683d 8f05 1b3e
00000350: bcd7 543e 2a3d e83d 5708 603e db68 d33d
00000360: ed02 a2b9 177f 323d 41d3 0c3e d75d 4e3c
00000370: 5d38 7e3c 9c32 b13d 2eae f93d ac20 cb3d
00000380: cdc2 a83d 4816 c93d 091a 4cbd 98f7 c5bd
00000390: 8e86 dabd ec98 14be 19c4 f2bd 4528 c53d
000003a0: 21f3 8cbd a21b 253d 2eff 173d 3e50 613d
000003b0: 125d 13bd 43ce cf3d 4c6f fe3c 3aaa 313d
000003c0: 04df a0bd 78d1 08bd 2c0d 00bd 48b5 1c3d
000003d0: f76b eebc 1fbb 22be 6cca acbc 95df c43d
000003e0: 7fbc 253e 1e02 863d aa51 e53c c77d 4ebd
000003f0: 67e2 a2bd d9a4 06be 5fbc 163e f419 6b3d
0.031715654 0.13601525 -0.06530138 0.13941443 -0.02526128 0.17207205 0.13742055 0.15613039
0.040873192 0.17124541 0.049165633 0.20926727 0.15524022 0.10536848 0.05011139 0.09736006
0.18838269 0.07153968 -0.09159944 0.03346184 0.091058545 0.008007353 0.11575564 0.12094767
0.16762672 0.2202575 0.1807314 0.1948108 -0.012840578 0.01822347 0.09335511 0.010179702
-0.011964174 -0.00383281 -0.0063253157 -0.07372054 -0.11039957 -0.05118249 -0.1820552 -0.038511798
-0.08535437 0.04716789 -0.104223154 0.022695802 -0.06682207 -0.059377883 -0.030286217 0.015250064
0.0011676195 0.018998662 -0.14656366 0.028168194 0.00843976 0.03083784 -0.06277324 -0.17467278
0.016805839 -0.009403472 -0.13107677 0.031771462 0.007960884 -0.02499389 -0.009722173 -0.15178438
-0.00441587 -0.16479652 -0.033700623 -0.10648964 0.058176212 0.07889678 0.09203968 0.035669215
-0.09482476 -0.105303615 -0.12801321 -0.13757364 -0.032379426 -0.020753 -0.01943879 -0.03324827
-0.10060267 0.016644187 0.0503859 -0.13976923 -0.15363507 -0.08829404 -0.07824 0.025800396
0.038844965 -0.11924798 -0.14188677 -0.06294551 0.00026090755 -0.10906169 0.039663993 0.024291268
-0.056663558 0.053175483 0.030594587 0.030735888 -0.10155924 -0.025107145 0.0076222643 -0.05387616
-0.018992923 -0.008764416 0.027136765 -0.100958355 -0.0870927 -0.020244539 0.07506599 -0.04929119
-0.07429823 0.033412524 0.0802071 0.0020981133 0.015341736 -0.004225582 -0.0113517195 -0.09813829
-0.079078056 0.10853385 -0.046305597 0.0062490776 -0.036634147 0.0033726841 -0.016743526 0.09748719
-0.04785429 -0.07093565 0.055347957 -0.0656344 -0.011036679 0.034146108 0.09644111 -0.0988842
-0.1049574 -0.008058459 0.020295165 -0.014210641 0.04485091 0.0073195323 0.055135526 0.034895517
0.09864334 -0.018857382 -0.08903423 0.08717882 -0.035750963 -0.07499798 -0.09229707 -0.018282212
-0.05847206 -0.0843285 -0.04046309 -0.028802782 -0.09616615 0.08729906 -0.018914357 -0.067314394
-0.02855692 0.075247176 -0.104941234 0.09313559 0.055073343 0.022327647 0.047171842 -0.06987928
0.09157608 -0.006638259 0.03692851 -0.09535696 0.096867196 0.056113977 -0.09857346 -0.069858305
0.0021747972 -0.00965567 0.067569956 -0.13805026 -0.013280201 0.004766231 0.08875082 0.040633265
0.10494791 0.058980193 0.102780744 0.09692682 0.037106 -0.07632349 -0.0792878 0.03917731
0.087092675 0.021700814 -0.14064404 -0.10654901 -0.03047891 -0.04622091 -0.082009 0.075890616
-0.009224399 0.018405987 0.06916697 -0.004076174 0.14673762 -0.021356922 -0.02068689 0.04011002
0.010283494 0.14730401 0.056750383 0.15138839 0.20785421 0.11339791 0.21878181 0.10322734
-0.00030901228 0.043578234 0.13752462 0.012595615 0.015516368 0.08652231 0.12191425 0.09918341
0.0824028 0.09818703 -0.049829517 -0.096663654 -0.106701955 -0.1451146 -0.11853809 0.096268214
-0.06882311 0.040309556 0.037108593 0.055008166 -0.03597743 0.10146763 0.03105893 0.04337523
-0.07855037 -0.03340289 -0.03126256 0.03825882 -0.029104216 -0.15891694 -0.021092616 0.096129574
0.16185187 0.065433726 0.027993042 -0.05041292 -0.07953339 -0.13148822 0.14720295 0.057397798

l1.bias f4 [256]
00000000: b510 e1bd c894 68bd 07f2 273b b8b6 ef3d
00000010: 071d 143d 5644 6cbc 746a 56bd bebb 19bd
00000020: 2753 f2bd a565 25be f96b 193d 1f68 a6bd
00000030: 3cec f0bd 8065 95bb 0704 05be 4fbd 933d
00000040: 5113 cb3b dd55 16be 7ecf 833d d6f9 95bc
00000050: 8c81 c1bc b711 3d3d cc74 2abe 2d44 d2bd
00000060: 7fe2 90bc deaa 573d 2e4c 833d 15c7 203c
00000070: e702 803d 71f1 583d 0010 16be 121b 8bbd
00000080: 3825 263c 508e 18be ff02 383d b6ae cc3d
00000090: ea35 b1bb 7448 88bd 8b6c c1bc 3188 c2bc
000000a0: 1974 c43d b28f 99bd 72e5 d93d c25d 73bd
000000b0: 93b6 00be 7a9e 2cbc 3ac7 683d 1e25 fabd
000000c0: 8613 99bd 443d 11be 03a7 983d ae0d 84bb
000000d0: 21c3 f23c c4c8 963d 2b30 db3d b0ec abbd
000000e0: b287 04bd 7ac6 9ebd 70b7 d63c 6c8d ba3d
000000f0: d0d4 92bb bc71 c7bd bdac 8f3d 44a6 ba3d
00000100: aa27 52bd 2c57 91bc af1e 0abe cd39 51bd
00000110: fadb 7c3c e5f1 8d3d 8b02 183e 9cda c1bc
00000120: d75d 44be 5050 443d d969 113d c02c 1dbe
00000130: 548c 0bbe 0a76 15bd 73a8 3f3e 5bcd 91bd
00000140: a036 e63d 3e88 abbd 35cb 9cbd 5ae5 073b
00000150: 7b14 a43c d9db 5dbd dd2f d0bd 5a49 e83c
00000160: 4f40 50bd a318 e03d e969 13ba c5d7 743d
00000170: 39e1 b43c 2cff 02be f8e2 f8bd 3c32 8abc
00000180: 65f9 6a3d c60e a0bd b1af d53d ca6a 00bd
00000190: 1ece bc3c 7a68 843d cf10 d13d a8de aebd
000001a0: caf6 85bd ea91 243e 4444 fe3d 8078 f53d
000001b0: 64c4 48bd 9d3b 4dbd f211 443d 03ee 74bd
000001c0: e1d6 f93d bbfd a5bc a2c3 313e ea29 20be
000001d0: 1050 113d 18f1 06be d9c4 79bc 22c0 03be
000001e0: d1f9 253d 6a95 ba3b ac4d 09bc 206f f0bd
000001f0: 8f10 a3bd b65e 63bd 3438 f3bd aa49 a1bc
00000200: 24bb 633d e0c7 14bd 4239 49bc b658 ae3d
00000210: a97b a1bc a8a8 a93d 890b a03d d9e9 98bd
00000220: 1028 ccbc df09 16bd 6f64 82bd b4c4 a3bd
00000230: 500b 2fbc c6ab 703d 8d23 96bd 919b ab3d
00000240: 4955 4fbd ac98 1a3e d329 e93c 3c0f a8bd
00000250: e7d3 20bc 9cc9 923d 928b c03d ab48 773d
00000260: 86d3 333d 47c9 17be 9a0e 07bd 3947 ce3d
00000270: 0cb4 c6bd 7c6f 613d 80c9 0fbd fe3f c43d
00000280: 928a 403e 3bc3 05be 0c3c c1bc 9cc9 e3bd
00000290: 3095 2abd 3258 a8bd 0872 0dbe 5b84 2ebc
000002a0: 4169 b53d ce86 a33c 4d26 9ebd afce 593e
000002b0: 46c5 e33d ef72 82bd b0a7 23be 3d10 d63d
000002c0: c1b9 4f3d e934 fd3c 4afd d93c 329a 1c3e
000002d0: ea0f 09bd 2c2e 51bd d681 133d 5cd6 923d
000002e0: 7ae3 00be e255 fe3d b659 a4bd 7e2e debd
000002f0: 129c f23c bb95 56bd 672e 9f3b f111 29be
00000300: 188b a03d a9d2 1c3d e294 d6bd e77f b83c
00000310: 9f84 2cbe 12a9 373c 6d66 c1bd 3610 babd
00000320: a8e3 d53d bc64 a63c 863d 173d fa90 c43d
00000330: 016e 81bd 74d9 b4bc 19ea 67bd 2bc4 0e3e
00000340: 66ef c23d 917e f8bc ccda f5bd ace4 8dbc
00000350: 257a c1bc 58e2 163e 6260 c9bd 0e7a 653d
00000360: bb69 8abd 9b82 cb3d cb9b 4abd fe81 0d3d
00000370: 6bb3 b5bc 445a cf3d 41a3 0fbe 727b 0abe
00000380: 8078 8abd b968 98bd bb80 013d 90ed 77bd
00000390: 4f4a 313d 673c b0bb a503 0c3e 99f5 43be
000003a0: 4d83 1abe d38c 6e3d 2dc3 c83c dce4 d33d
000003b0: b1a8 ed3c 7a78 37be 2d69 1abd b196 75bc
000003c0: e2c7 d83c 8e62 e93c 45dd b83b f57f 32be
000003d0: 3483 983d afb2 76bd 43e7 0e3e b97b 72bd
000003e0: 705a 3a3d 67b7 873d 3f69 003e f727 3dbb
000003f0: 150c 2d3d fb98 88bc 2a5b 6dbd 03d7 b43d
-0.10989515 -0.056782514 0.0025626437 0.11704773 0.036160495 -0.014420589 -0.052347615 -0.03753256
-0.11832266 -0.16152056 0.037456486 -0.08125328 -0.11763808 -0.004559219 -0.12989818 0.07213842
0.006197371 -0.14681192 0.0643606 -0.018307608 -0.023621343 0.046159472 -0.16646117 -0.1026691
-0.017686127 0.052653186 0.064110145 0.00981309 0.062505536 0.05296463 -0.14654541 -0.067922726
0.01014071 -0.14898038 0.044924732 0.09994261 -0.0054080384 -0.06654444 -0.023611328 -0.023746582
0.09592456 -0.07498111 0.10639466 -0.059415586 -0.12569647 -0.010535831 0.056830622 -0.12214111
-0.07474427 -0.14183527 0.0745373 -0.004029951 0.02963406 0.07362512 0.10702547 -0.08394754
-0.03235597 -0.077527 0.026210517 0.09109005 -0.0044809356 -0.0973849 0.07015369 0.09113744
-0.051307358 -0.017741762 -0.13488267 -0.051080514 0.015433306 0.06930903 0.1484472 -0.023663811
-0.19176422 0.047928154 0.035501335 -0.15349102 -0.1362775 -0.036489524 0.18716602 -0.071192466
0.11240888 -0.083755955 -0.07655946 0.002073607 0.020029297 -0.05416474 -0.10165379 0.02835529
-0.05084258 0.10942199 -0.0005623387 0.059776086 0.02208005 -0.12792653 -0.12152666 -0.016869657
0.057366747 -0.07815318 0.10433901 -0.031351842 0.023047503 0.0646524 0.10208284 -0.08538562
-0.06541212 0.16071287 0.124153644 0.11985874 -0.049015418 -0.05010568 0.047868676 -0.0597973
0.12199188 -0.02026259 0.17359784 -0.15640989 0.035476744 -0.13177907 -0.015244686 -0.12866262
0.040521447 0.005694081 -0.008380335 -0.117399454 -0.07962143 -0.055510245 -0.11875954 -0.019688446
0.055598393 -0.03632343 -0.012281718 0.08513014 -0.019712286 0.08284122 0.078147 -0.07466478
-0.024921447 -0.036630508 -0.063668124 -0.079965025 -0.010683849 0.058757566 -0.073309995 0.08379281
-0.050618444 0.15097302 0.028462326 -0.08206031 -0.009816146 0.0716736 0.09401621 0.060372036
0.043902896 -0.14822875 -0.03297291 0.100721784 -0.0970231 0.05503796 -0.035104275 0.09582518
0.1880286 -0.13062756 -0.023588203 -0.11122438 -0.041646183 -0.08219947 -0.1381303 -0.010651673
0.08857966 0.01996174 -0.07722149 0.2127025 0.11121611 -0.06369578 -0.15981936 0.10452316
0.050714258 0.030909019 0.026610035 0.15293196 -0.033462442 -0.051069424 0.036012493 0.07169792
-0.12586775 0.124187246 -0.080249235 -0.108487114 0.029615436 -0.052388888 0.0048578265 -0.1651075
0.0783903 0.03828684 -0.10477616 0.022521926 -0.16847466 0.011209743 -0.09443364 -0.09085123
0.104438126 0.020311706 0.036923908 0.095979646 -0.0631981 -0.022076346 -0.056619737 0.1394202
0.09518318 -0.030333789 -0.12004623 -0.017320953 -0.023617813 0.14734781 -0.09832837 0.056024604
-0.06758448 0.099370204 -0.049464982 0.0345478 -0.02218028 0.10124639 -0.1402712 -0.13523653
-0.06761265 -0.07441849 0.031616908 -0.06052929 0.043283757 -0.0053782943 0.13673265 -0.19136657
-0.1508915 0.05823977 0.02450713 0.10346386 0.029011102 -0.17917052 -0.03769796 -0.014989541
0.026462499 0.028489377 0.0056416118 -0.17431624 0.074469 -0.060229 0.13955407 -0.059200022
0.045496404 0.06626778 0.12540148 -0.0028862932 0.04224785 -0.01667451 -0.05794827 0.08830073

l2.weight f4 [256, 256]
00000000: a7a3 01bd 4d93 0d3c 4b42 bcbd 2fe0 f9bd
00000010: a57d b7bd b32e 49bd 73e8 0abd f649 eb3d
00000020: ba1d 01be 3882 613d 37d6 a5bd 6256 0cbd
00000030: 5cc6 d3bc ca93 acbd 724f f83b 9e9f 0a3e
00000040: 8663 48bd a1a4 cb3d d163 3ebd ba0a a63d
00000050: 2aed 8a3d 43d6 17bd 7092 15bd bfc0 abbc
00000060: f9fe 2d3e aadb 05bd a557 70bd 125e 0dbd
00000070: eb29 4d3c 2563 32be 16ce da3b b038 ba3c
00000080: 3d15 54bd 33a6 c93d 78c1 7a3b 279f 103e
00000090: 48bb dcbd a014 1d3d d34a fdbd 0a1a 07bd
000000a0: 0ae6 5abd dad8 e23d 0717 fbbd 31ab af3d
000000b0: dad5 d2ba be80 4abd f0b9 413e 4042 933b
000000c0: c00f 063c 895b b0ba 9cb5 4cbd 6746 683a
000000d0: ba67 643d e3cc 94ba aac6 be3d 9ec0 613d
000000e0: 4adb db3d 0ac5 1bbd 73c9 5a3d c461 d23d
000000f0: 6fc0 643c cff3 42bc 9858 06be be30 dc3b
00000100: 7870 553d 1d05 a0bc 4bf7 a9bc 7fad 96bd
00000110: 8b4e 763b d069 9f3c 1453 8dbc ba8d 27bd
00000120: fc69 74bd ce8c 79bd a0c1 d3bd 32bd 7a3d
00000130: 2c08 c43c 30b5 453d 7098 d1bd ef4d 5a3d
00000140: a8dc a5bd 927c 543d ef94 65bd d9ad dabd
00000150: 0e9c 203e 761a 1dbd 9ca7 4c3c 614a b2bd
00000160: 2b94 c7bc 70fa 1b3e b8ea 4abd f8d4 cebd
00000170: 008b 0b3d 699f 823c a4d6 31bd edb9 013d
00000180: 337d 92bd d4dd 783d 3aab c13d e9e1 87bd
00000190: a5b2 3abc 4e07 aa3d ea36 de3d fa2f a43d
000001a0: 1a24 b33d c9ce 1fbe 76eb 28be 68eb c4bd
000001b0: 79cb 14be ab68 aebd 6125 803d cc2d 843d
000001c0: 7b2e f0bd 298f c43d f259 61bd ba3b 5cbd
000001d0: b1cc f7bb 30be b1bb 1840 503d 3a88 65bc
000001e0: aad2 bbbb 463d 273e 5e9a 183d 51e2 e53d
000001f0: a801 b03d 9c24 d2bc 7357 a93d 5b8b 593c
00000200: b482 043d 8f0c 1fbd 2084 fbbc 7470 143e
00000210: c5b1 1cbd 3221 7cbd c4ee 6bbd 0cb2 863d
00000220: 1f69 0fbd 6ae4 1c3d 96c8 9cbd 664a cbbd
00000230: 1e83 d23c 3f6c 96bd 07b9 78bd cedf e93d
00000240: 24c8 20be 2d97 04be e9c1 00be 4513 5e3d
00000250: 44e6 9d3d d657 54bd fab4 c6bd 95bd 78bb
00000260: 6192 f2bd eef8 843c 0268 103e 9aaa aabd
00000270: beda d7bc 1093 fdbd 1d2d 7f3b 2767 003e
00000280: 6895 06be 275c 52bd cc14 f1bc 85ff babd
00000290: 1ed3 1a3e 28d1 3cbd 9848 b93d 68a7 55bc
000002a0: 8c78 00be 1cd4 473e b2e5 b53c 0ec7 e0bd
000002b0: 969e f8bd 9aed 7bbd d834 263d 40bc 6dbd
000002c0: e3a0 52bc 9b96 77bd 6e67 64bd e8dc 3dbe
000002d0: 4cb2 a7bb 4d84 d3bd 7cde c73c 7d2a 8ebd
000002e0: 78fb 17bc 0dd7 a4bd 8c30 373d ca01 f7bd
000002f0: cebe ac3c fb4e 453d b732 8dbd 14d0 d1bd
00000300: abdd f5bd c1d1 9f3d 7a63 8fbb 680b b7bd
00000310: 75d5 943c 007b b6bd 2cab e7bd 1a21 05bd
00000320: e6bf 98bd 1bb5 82bd a384 cfbc 0d83 16bd
00000330: 9da8 c73d 145a 11bd f906 373d f07d 0cbe
00000340: 1ab8 eebd 47bb babd 1558 bdbd 7cd3 a33d
00000350: 745d 1c3e 8f0f 933c 28eb 4e3d 2dcd 27be
00000360: b7ef e43d 12d6 18be 41cb 04bd db78 40be
00000370: 1a46 1e3d d24e 9fbd d560 883d 9521 0a3d
00000380: 10a7 46bc d66a 533d 152c 83bd c579 d1bb
00000390: 575a c3bd 3543 4cbd ed98 1d3e 5307 b1bd
000003a0: 9b45 0cbd ef43 93bc c58a 7fbc 8d28 153d
000003b0: 6f5e 973d 2fef bc3d 7210 8239 5e1a 853d
000003c0: 778b 123e 91ce 353e f799 acbd d530 87bb
000003d0: 3911 563d 9897 a3bd 811e 2a3e 8556 8ebc
000003e0: 6bef 7f3b 7c9c 42bd 3516 6ebd c175 da3d
000003f0: 1fc5 13bc 6daa 9bbc 3e3a 8b3c b689 2b3e
-0.03165021 0.008641076 -0.09192332 -0.12200963 -0.08959512 -0.0491168 -0.033913087 0.11488716
-0.12608996 0.055055827 -0.08097499 -0.03426207 -0.025851421 -0.08426626 0.00757783 0.13537452
-0.048923038 0.0994351 -0.04648191 0.08107515 0.06783517 -0.03706957 -0.036516607 -0.020965932
0.16991796 -0.03268019 -0.058677334 -0.03451354 0.012522201 -0.17420633 0.0066773994 0.022732109
-0.051778067 0.09846153 0.003826229 0.14123212 -0.107779086 0.038349748 -0.12367787 -0.032983817
-0.05344204 0.110765174 -0.122602515 0.08577574 -0.0016085461 -0.049439184 0.18918586 0.0044939816
0.008182466 -0.0013455014 -0.049977884 0.00088605884 0.055762984 -0.0011352565 0.09315236 0.055115335
0.107351854 -0.038029708 0.053414773 0.102725536 0.013961895 -0.011898949 -0.13119733 0.0067196777
0.05210921 -0.019533688 -0.020747801 -0.073573105 0.0037583436 0.019459635 -0.017251529 -0.040906645
-0.059671387 -0.060925297 -0.103396654 0.061215587 0.023929678 0.048268497 -0.10234153 0.05329698
-0.080987275 0.051876612 -0.056050237 -0.1067769 0.1568453 -0.038355313 0.012491133 -0.08705593
-0.024362644 0.15232253 -0.04954025 -0.10099214 0.034068108 0.015945153 -0.043417588 0.031671453
-0.07152786 0.060758427 0.09456487 -0.06634886 -0.011395131 0.083021745 0.10850318 0.08016963
0.0874712 -0.15606226 -0.16496071 -0.09615213 -0.14530744 -0.085160576 0.062571295 0.064540476
-0.117276154 0.09597618 -0.05501742 -0.053767897 -0.007562243 -0.0054242834 0.050842375 -0.01400953
-0.0057319 0.16331968 0.03725659 0.11224807 0.08594066 -0.025652222 0.08268633 0.013277854
0.03235121 -0.038830336 -0.03070265 0.14496022 -0.03825547 -0.061555095 -0.05760075 0.065769285
-0.03501236 0.03830377 -0.07655446 -0.099263 0.025697287 -0.07344865 -0.06072333 0.114196405
-0.15701348 -0.12948294 -0.12573971 0.054217596 0.07709935 -0.05184158 -0.09702487 -0.0037954797
-0.11844326 0.01623198 0.14102176 -0.08333321 -0.026349422 -0.123815656 0.0038936802 0.1253935
-0.13142931 -0.051357415 -0.029428862 -0.09130768 0.15119597 -0.046097904 0.09047049 -0.013040401
-0.12545985 0.19514507 0.022204254 -0.10975467 -0.12139623 -0.06150589 0.04057774 -0.058040857
-0.012855741 -0.060446363 -0.0557627 -0.185413 -0.00511769 -0.10327969 0.024398081 -0.06941698
-0.009276263 -0.0804883 0.044724032 -0.12060888 0.021087077 0.048171025 -0.06894439 -0.10244766
-0.120051704 0.07803679 -0.004375872 -0.089377224 0.01816819 -0.08910179 -0.11311945 -0.03250227
-0.07458477 -0.063821994 -0.0253318 -0.036746074 0.09748957 -0.035486296 0.044684384 -0.13719916
-0.11656208 -0.091177516 -0.09245316 0.07999322 0.15270025 0.017951755 0.05051723 -0.16386862
0.111785345 -0.14925411 -0.0324204 -0.18796103 0.038641073 -0.07778706 0.06659094 0.033723433
-0.012124792 0.05161556 -0.06404892 -0.00639269 -0.09538715 -0.04986878 0.15390368 -0.08643975
-0.03424607 -0.01797673 -0.01559705 0.036415625 0.07391059 0.09225308 0.00024807785 0.0649917
0.14311014 0.1775458 -0.08427804 -0.0041256943 0.05226252 -0.079878986 0.16613199 -0.01737524
0.0039052616 -0.047512516 -0.058126647 0.10666991 -0.009019165 -0.019002164 0.016995545 0.16751751

l2.bias f4 [256]
00000000: c75b e33a f752 4dbd 6eeb 0abd 66cf 4fbc
00000010: 134a 8ebd a954 d7bd fb8a f2bc 3319 b4bd
00000020: 471e 8bbd fdb5 edbd f5c8 8abd 6a28 c4bd
00000030: 9ace 803d 74aa ec3b 08a6 8ebd a15f aabc
00000040: 5bfb e6ba 15b9 86b8 1f10 e9bc 1705 d5bd
00000050: aab5 4c3d 388f 9cbd 0365 613d b43e b9bd
00000060: d162 803d 565e 523d 2bcf c53c 6db0 0f3d
00000070: 7d6f d4bd b063 6abd ac55 55bc ddee dfbd
00000080: 40b4 32bd 721a 073e 96d0 55bd 3b7c efbc
00000090: 9aba 0fbc 7595 86bd 1730 8bbd c169 a3bd
000000a0: 85e0 dc3b d788 42bc 90ff 6dbd 249c c2bc
000000b0: c262 edbd 825f 04bd 2b8e d23c 7c6c e0bd
000000c0: 91d2 96bc a530 7bbd 8061 5f3d 1bda 99bd
000000d0: 8651 24bd e344 51bd f946 ddbc bc17 083d
000000e0: 5a67 33bd 70b4 7abd 4451 d9bc f3d8 0cbd
000000f0: b8b8 ce3c 9368 2abd 7df4 a2bc 8ac3 033e
00000100: 8906 9dbb 100b c7bc 998b a6bd fea4 8ebd
00000110: 5739 5f3d 0892 7fbd 98cc babd 2ca1 11bc
00000120: ede0 babc a3ea fdbc c15c c2bc 958d 1c3d
00000130: cfb2 d3bc 8906 d53c 8839 dfbd d4e0 5dbc
00000140: eb3a 2f3d fa63 69bd 46de 54bd 7c12 efbc
00000150: 6d63 c0bc 1526 95bc e1a9 b3bd 4846 15bd
00000160: 7e55 d6bd 7645 cdbd f86e dabd f30f e8bb
00000170: c289 763d 543b 63bd 22c9 103d a94d adbd
00000180: 1572 83bb 77ec 29bd 8db0 61bc f0e1 9fbc
00000190: b6ba efbc a91a 043d b25d 01be 4548 78bd
000001a0: 4157 9a3d c31f cbbd f34c 49bc c33a bdbd
000001b0: 5d2a 23bd c9c9 53bd 5736 dc3d 0718 cdbd
000001c0: f1e8 dfbc f96c f7bd 6ee4 d73d eaa7 403c
000001d0: 0abd b0bd 8a83 3cbd f1c5 cdbb 1c64 bcbd
000001e0: 8899 bcbd a276 1bbd a2c8 acbd 67f2 4dbc
000001f0: caf6 763d c2a1 2fbd 250b 33bd fe20 9fbb
00000200: e70f 17bd 75b6 a2bd e4fe ccbd 57b6 413c
00000210: 9540 84bd 3c10 9dbd 9f30 c7bc 037d 763b
00000220: de95 f9bb d379 6f3b f500 eabd 6614 1bbd
00000230: 644f bbbd 71ff dcbd f23a 573d 1f41 3cbc
00000240: 27fd a8bb 46bb f7bd 4578 3cbc ecaa 883d
00000250: 6e9c 493d a0ca efbd 40fa d1bb 0a88 02bc
00000260: 98d1 8a3c ab42 ad3c 59c8 1e3b 6bfe 5abc
00000270: 0775 023d 5fdc 8fbd e335 323d 838b 2abd
00000280: e907 223d ab3b 62bd 70b3 06bd 06a8 883d
00000290: d563 d5bd 4c3e 1ebb a888 dd3c 6a4c e2bd
000002a0: 77a8 c83d bf33 9dbc 9c8d a2bd f0db 0bbc
000002b0: bc8f 26bd 7e66 a3bd d4d0 a5bc 6719 b3bb
000002c0: b2de 9bbc f2fe 8bbc 59af 5a3c 833e 30bc
000002d0: 4d46 5cbc 5533 b5bd 0843 26bc a494 34bd
000002e0: c5e5 213d b72e 8dbd 8152 903c b318 f8bc
000002f0: c8aa 97bd 9585 20bc d829 ad3c 75c0 263d
00000300: 2086 133e 184e 90bd f63d 55bd 6b09 cc3c
00000310: 5b1c 76bc 1931 60bd 2389 84bd 2b08 b1bd
00000320: f5d7 843d c69b e4bd d0cb 143e 3651 2d3b
00000330: 5106 d2bd a73f 83bd 4c13 8fbc c1bb edbc
00000340: 2318 bd3c 0149 1abd 962e 0e3e cb06 f2bc
00000350: f7a5 bdbd 281f 3dbc 1600 913d da9c aabd
00000360: e71d cb3d c75e 643d a0e9 d9bc 13db 16bc
00000370: 8f72 ec3c 65b3 e7bc 93cf 8b3e 5e0a e2bc
00000380: c2a4 1f3d 161d 30bd 714c 82bc 418d 99bd
00000390: f79b 17bd f00c debd 3251 17bd f408 e1bb
000003a0: b092 683d 014f c4bd 2fdc f2bd 5357 58bb
000003b0: a5a1 45bd 3b31 99bd 6e26 2bbd 90fa 9b3b
000003c0: a1f8 ddbc e26a 5dbd c5bb 2ebc 87aa 2c3d
000003d0: f368 90bd 1ac1 293d dd62 9dbd e415 e6bc
000003e0: 5448 f53d f8bc 213c ccbd a5bd fbfc d33c
000003f0: 013d 23bc 00e3 96bc 6fa7 2b3c 7f9f 0fbd
0.0017346077 -0.05012795 -0.03391593 -0.012683725 -0.06947722 -0.105141945 -0.029607287 -0.08793869
-0.06792884 -0.11606977 -0.06776611 -0.09578021 0.06289406 0.007222468 -0.06965262 -0.020797553
-0.0017622517 -6.424092e-05 -0.02845007 -0.104013614 0.049977936 -0.07644504 0.055027973 -0.09045163
0.06268848 0.051359497 0.024146637 0.035080362 -0.10372827 -0.057223976 -0.013020914 -0.109342314
-0.04362893 0.13193682 -0.052200876 -0.029234042 -0.008772517 -0.065714754 -0.06796282 -0.07979155
0.006740632 -0.0118734455 -0.05810505 -0.023756094 -0.11591102 -0.032317646 0.025702557 -0.10958192
-0.018410953 -0.061325688 0.054536343 -0.075123034 -0.04011681 -0.051091086 -0.027011381 0.03322576
-0.043799736 -0.061207235 -0.026528008 -0.034386586 0.025234565 -0.041603636 -0.019891972 0.12867561
-0.004792039 -0.024297267 -0.08132095 -0.069650635 0.054498043 -0.062395126 -0.091210544 -0.008888524
-0.022812331 -0.030995673 -0.02372587 0.03822096 -0.025842099 0.026004093 -0.10899645 -0.013542373
0.042780798 -0.05698011 -0.05196979 -0.029183619 -0.02348491 -0.018206635 -0.08772636 -0.03644398
-0.10465525 -0.10023014 -0.10665697 -0.0070819794 0.06018997 -0.0554765 0.035348065 -0.08462078
-0.0040114024 -0.041485276 -0.013775003 -0.019516915 -0.029263835 0.032251988 -0.12633398 -0.060615797
0.075361736 -0.099181674 -0.0122864125 -0.092397235 -0.039835323 -0.05170611 0.10752552 -0.100143485
-0.027332755 -0.12081332 0.105416164 0.011758784 -0.08629806 -0.046023883 -0.0062797 -0.09198782
-0.09208971 -0.037954934 -0.08436705 -0.01257 0.06029395 -0.042878874 -0.0437118 -0.004856228
-0.0368804 -0.07944957 -0.10009554 0.011823258 -0.064576305 -0.07669112 -0.024315177 0.0037611134
-0.0076167425 0.0036541119 -0.11425964 -0.03786125 -0.09146002 -0.10790909 0.05254645 -0.011490135
-0.0051571312 -0.120962664 -0.011503284 0.06673226 0.04922145 -0.117085695 -0.006408006 -0.007967005
0.016945645 0.021149954 0.0024228303 -0.013366322 0.031849887 -0.07024454 0.04350842 -0.041636955
0.039558325 -0.055232685 -0.03288597 0.06672673 -0.10419432 -0.0024146019 0.027042702 -0.11049731
0.09797757 -0.019189714 -0.07937166 -0.008536324 -0.04066442 -0.07978533 -0.020241179 -0.0054656747
-0.019027088 -0.01708934 0.01334747 -0.010757091 -0.013444495 -0.088476814 -0.010147817 -0.044087067
0.039525766 -0.06893676 0.017617466 -0.030285215 -0.07405621 -0.009797473 0.021138117 0.040710885
0.14406633 -0.07046145 -0.052061044 0.024906835 -0.015021409 -0.054734323 -0.06471469 -0.08644136
0.06486503 -0.11162524 0.14530873 0.002644611 -0.10255111 -0.06408625 -0.017465256 -0.029020192
0.023082798 -0.03766728 0.13884959 -0.029544255 -0.09260171 -0.011543073 0.070800945 -0.08330698
0.09917813 0.05575445 -0.026600659 -0.009207505 0.02886322 -0.028283784 0.27306804 -0.027592834
0.038975485 -0.04299649 -0.01590559 -0.07497645 -0.037013974 -0.108423114 -0.03694267 -0.0068675224
0.056780517 -0.09585381 -0.11858403 -0.0033011034 -0.04824986 -0.07480093 -0.041784696 0.004760094
-0.027096095 -0.05405701 -0.010664885 0.042154815 -0.070512675 0.04144392 -0.07684872 -0.02808661
0.11976686 0.009871714 -0.080928415 0.025877466 -0.009963275 -0.018418789 0.010476931 -0.035064217

l3.weight f4 [3, 256]
00000000: 8a59 d4bd 726a 85bd eb79 d9bc 54dc 60bd
00000010: 8aa0 543c 0d6c 09bd 360d 68bc 3c7e a0bc
00000020: 2df2 29bd 8c95 75bc 3dc0 f5bc 869e 7abc
00000030: 118b a7bd 9596 0e3b c430 9c3c 2298 d4bc
00000040: 4c10 b3bc 11bd bcbd f79d 4e3c 6e0d 80bd
00000050: 2ecc 1f3d 4fb3 a9bd 46c8 f13d 3e6b 99bd
00000060: 9219 26bd ea56 5ebd 2083 70bd 7177 80bd
00000070: de23 a3bc 78df 43bd a974 c3bb 2fc6 d13b
00000080: 80ac 76ba 882a b63d 5e6e 82bd efb8 febc
00000090: ccae 80bd f53e 97bc a3d6 7fbd b866 82bc
000000a0: 3592 dfbb 494a 8cbc c0a0 a4ba 6121 09bd
000000b0: 6972 9ebd 89f3 203d 6a46 11bd 452a cbbd
000000c0: c197 6abd dabb 02bd 8906 86bd 01d8 193b
000000d0: e240 88bd 0e9a 66bd 9e3f 4cbc dc6f 39bd
000000e0: 9976 b1bc 629e 14bd 6b3e d7bc 3b2c 21bd
000000f0: fb66 46bd 7fd2 c7bc fdd0 dcbc 7c13 9e3d
00000100: ae56 9bbd 2568 55bf 3f9d 6dbc 8642 dabc
00000110: 6575 4c3e c013 e4bd 3167 9b3c a242 bcbc
00000120: ae81 e6bd 81da c9bc 7f7a 78bd dd6e f53c
00000130: 941e 6cbd 0b4d df3c 5305 b9bd 2c8b 2cbd
00000140: b62f 0f3d 29a3 83bc 00a3 b23a 75cb 1bbd
00000150: 51bc d2bd 1763 f6bc 9181 39bd c29f 48bd
00000160: 9e41 0dbc 91a8 49bc 5fec 8e3d f350 d23c
00000170: a56d a63d a04c ccbc a898 66bd c942 c2bd
00000180: be5d 36bd 73d7 ddbc 2806 bcbd 1701 94bc
00000190: a55d ab3c 1ba5 40bd 9125 1dbc 8684 17bd
000001a0: 4296 0fbe 1afc 253c 71ab 5dbd a95a d3bc
000001b0: 1f3a c9bd f2d4 f5bc ff47 073d 0eed edbd
000001c0: b83b 0cbd 7d5b 163b 10e8 693d df53 60bd
000001d0: 461f af38 2cf3 5abd 3eef 83bb fbb8 d3bd
000001e0: d07d 8bbd 2026 583d b6d5 cfbb 063b dd3b
000001f0: b9ec 81bd 6329 ec3b 704e a9bb ff3c 56bd
00000200: 26f5 20bd eb7e 09bd 9a7d 123c ee4c 2fbd
00000210: 0851 a5bd 79a4 0dbd ccec 56bd ee8b 2bbd
00000220: 3098 e9b9 e256 6abd d8b1 d6bc d852 ea3c
00000230: 0397 b13c 34bc 243a 94eb 3bbd 7518 c3bc
00000240: 4a4e f4bc 9216 4dbc 6010 f7bd 7942 4abc
00000250: 9cec 47bd 2489 aebd 4f4b ffbc 7a9b 75bd
00000260: 54bf 253c 711d a53c dde4 82bd 0ee9 8dbd
00000270: 5026 91bd 07c9 4abd ab30 95bd e59a c33b
00000280: 8995 16bd 0994 60bc 713e 92bd 1be4 23bd
00000290: bb16 e0bd 5bd7 913c d562 52bd 6e3f 803d
000002a0: d2c6 493d 4d38 8fbc cacc ecbc 2d7c 51bd
000002b0: f058 fcbb 50df 2a3b deb4 2bbc dd9f d1bb
000002c0: 7b1d 8c3c 5629 afbd b82f 8fbc 62cb a1bc
000002d0: 6a9c 26bd ecda debd 5853 32bd 492c e2bc
000002e0: a74e 8c3b 50ce b8bc c43b e7bc 4301 a5bc
000002f0: c7bf ee3b 2931 ccbc 223b 84bd 1f3b 66bd
00000300: 5342 073e 606f 2abd a65d ebbb 0004 82bb
00000310: 8bf3 5abd c6f3 bbbd 6b37 953d 42cb ddbc
00000320: 8544 353e d97b 31bc 211f 813d c4bf 35bd
00000330: a4c8 24bd 07c1 66bd 48a4 f2bc 57da a5bc
00000340: f811 97bc fdf8 e7bd 47ae 0d3e 745a 5abd
00000350: f030 7ebd 799b 57bd 1c57 94bc db9c d73c
00000360: c47f 4c3e 6914 29bb 680d 53bd c8dd 8fbd
00000370: bbb4 d5bc 56fa d7bd 166a 893e 3d53 a3bd
00000380: 5a9d 2dbd 9a2c debd effc a5bd c786 8a3c
00000390: ff9c 0ebd 1ec0 10bd aa11 22bd a525 f6bc
000003a0: 8f5c 7f3d b27d 30bd b744 153d e65d f8bc
000003b0: a4bf 53bd 4827 0abd 9fd3 82bd 934e 0d3c
000003c0: 5bea 123d bfcb 83bd 283e 9dbc 4d5c 853c
000003d0: ff57 eebc 3ec0 f73c bda9 20bc 2c80 87bd
000003e0: 7340 ad3d 21cd 9abc 9584 c83c 4b26 96bd
000003f0: 5e7b 2f3c b813 04bc a80c 82b9 9843 47bc
-0.10368641 -0.065144435 -0.026547393 -0.05489762 0.012977729 -0.03355031 -0.014163306 -0.019591443
-0.041490722 -0.014989268 -0.029998893 -0.015296584 -0.08180822 0.0021757234 0.019066222 -0.025951449
-0.021858357 -0.09215749 0.012610904 -0.062525615 0.03901308 -0.082861535 0.11805777 -0.07491158
-0.04055173 -0.054282106 -0.0587188 -0.06272782 -0.019914564 -0.04782054 -0.0059648347 0.006401799
-0.000940986 0.08894831 -0.06368707 -0.031094043 -0.0628334 -0.018462637 -0.062460553 -0.01591812
-0.006822849 -0.017125266 -0.0012560114 -0.0334791 -0.07736666 0.039294753 -0.035467543 -0.09920172
-0.05727363 -0.03191743 -0.06544215 0.0023474696 -0.066530004 -0.05629926 -0.012466339 -0.045272693
-0.021662997 -0.036283858 -0.02627488 -0.039348822 -0.048438054 -0.024392365 -0.026955122 0.0771856
-0.07584892 -0.83362037 -0.014502822 -0.026643049 0.19966657 -0.111365795 0.018970104 -0.022980992
-0.11255203 -0.024640324 -0.060663696 0.02996009 -0.05764635 0.027258417 -0.09034219 -0.042124912
0.03495761 -0.016069012 0.00136289 -0.03803583 -0.10289825 -0.030076547 -0.04528958 -0.048980482
-0.008621601 -0.012308256 0.06978678 0.025673365 0.08126382 -0.024938881 -0.056297928 -0.094853945
-0.044522993 -0.027080273 -0.09180862 -0.018066926 0.020918677 -0.047032457 -0.009591476 -0.03699162
-0.14022163 0.0101309065 -0.054118577 -0.025800066 -0.09825539 -0.030008767 0.033027645 -0.1161748
-0.03423664 0.0022942715 0.057106078 -0.054767486 8.3504754e-05 -0.053454563 -0.0040263226 -0.103380166
-0.06811106 0.052770734 -0.006342615 0.006751421 -0.063439794 0.007207082 -0.005166821 -0.052304264
-0.03929629 -0.033568304 0.008941079 -0.042797975 -0.08072096 -0.03458068 -0.05247192 -0.041881494
-0.00044554612 -0.057211764 -0.02620785 0.028603956 0.021678453 0.0006284148 -0.04587896 -0.023815373
-0.029822487 -0.012517588 -0.1206367 -0.01234495 -0.048809633 -0.08522251 -0.03116384 -0.059962727
0.010116417 0.02015564 -0.063913085 -0.06929217 -0.07087386 -0.04950812 -0.07284673 0.0059693926
-0.0367637 -0.013707169 -0.07140816 -0.04001246 -0.109418355 0.017802885 -0.051363785 0.06262098
0.049261875 -0.017482901 -0.028906245 -0.051143814 -0.007701032 0.0026073046 -0.010480134 -0.006397231
0.017103901 -0.08552806 -0.017478809 -0.0197503 -0.04067651 -0.108816 -0.043536514 -0.027609007
0.004281837 -0.022559315 -0.02822674 -0.020142203 0.0072860452 -0.024925785 -0.06456591 -0.056208726
0.13208894 -0.04161012 -0.0071827946 -0.003967762 -0.053454917 -0.091773555 0.07285961 -0.02707446
0.1770192 -0.01083275 0.063047655 -0.044372335 -0.04023041 -0.05633643 -0.029619351 -0.020245714
-0.018441185 -0.113267876 0.13836013 -0.05330892 -0.06205839 -0.052638505 -0.018107943 0.026319912
0.19970614 -0.002579952 -0.051526457 -0.07024723 -0.026087156 -0.10545795 0.2683875 -0.07974861
-0.04238639 -0.10848351 -0.08104884 0.01690997 -0.034817692 -0.035339467 -0.039567627 -0.030047247
0.06234413 -0.043088622 0.036442485 -0.030318212 -0.051696435 -0.033728868 -0.0638802 0.008624691
0.03586803 -0.06435346 -0.019194677 0.016279364 -0.029094694 0.030243035 -0.009806094 -0.06616244
0.08459558 -0.018896641 0.024477283 -0.073315226 0.010710565 -0.008061342 -0.00024804962 -0.012162112

l3.bias f4 [3]
00000000: 061b 2e3b 9c05 41bd 1dac 5dbd
0.00265664 -0.04712449 -0.05411922
